<?xml version="1.0" ?>
<net name="mosaic_opt_flow_grad_clip_1" version="10">
	<layers>
		<layer id="0" name="input.1" type="Parameter" version="opset1">
			<data shape="1, 3, 960, 540" element_type="f16"/>
			<output>
				<port id="0" precision="FP16" names="input.1">
					<dim>1</dim>
					<dim>3</dim>
					<dim>960</dim>
					<dim>540</dim>
				</port>
			</output>
		</layer>
		<layer id="1" name="354" type="Const" version="opset1">
			<data element_type="i64" shape="4" offset="0" size="32"/>
			<output>
				<port id="0" precision="I64">
					<dim>4</dim>
				</port>
			</output>
		</layer>
		<layer id="2" name="355" type="Const" version="opset1">
			<data element_type="i64" shape="4" offset="0" size="32"/>
			<output>
				<port id="0" precision="I64">
					<dim>4</dim>
				</port>
			</output>
		</layer>
		<layer id="3" name="Constant_7" type="Const" version="opset1">
			<data element_type="f16" shape="" offset="32" size="2"/>
			<output>
				<port id="0" precision="FP16"/>
			</output>
		</layer>
		<layer id="4" name="Pad_0" type="Pad" version="opset1">
			<data pad_mode="reflect"/>
			<input>
				<port id="0" precision="FP16">
					<dim>1</dim>
					<dim>3</dim>
					<dim>960</dim>
					<dim>540</dim>
				</port>
				<port id="1" precision="I64">
					<dim>4</dim>
				</port>
				<port id="2" precision="I64">
					<dim>4</dim>
				</port>
				<port id="3" precision="FP16"/>
			</input>
			<output>
				<port id="4" precision="FP16" names="63">
					<dim>1</dim>
					<dim>3</dim>
					<dim>968</dim>
					<dim>548</dim>
				</port>
			</output>
		</layer>
		<layer id="5" name="conv1.1.weight" type="Const" version="opset1">
			<data element_type="f16" shape="8, 3, 9, 9" offset="34" size="3888"/>
			<output>
				<port id="0" precision="FP16" names="conv1.1.weight">
					<dim>8</dim>
					<dim>3</dim>
					<dim>9</dim>
					<dim>9</dim>
				</port>
			</output>
		</layer>
		<layer id="6" name="Conv_1/WithoutBiases" type="Convolution" version="opset1">
			<data strides="1, 1" dilations="1, 1" pads_begin="0, 0" pads_end="0, 0" auto_pad="explicit"/>
			<input>
				<port id="0" precision="FP16">
					<dim>1</dim>
					<dim>3</dim>
					<dim>968</dim>
					<dim>548</dim>
				</port>
				<port id="1" precision="FP16">
					<dim>8</dim>
					<dim>3</dim>
					<dim>9</dim>
					<dim>9</dim>
				</port>
			</input>
			<output>
				<port id="2" precision="FP16">
					<dim>1</dim>
					<dim>8</dim>
					<dim>960</dim>
					<dim>540</dim>
				</port>
			</output>
		</layer>
		<layer id="7" name="Conv_1/Dims2955" type="Const" version="opset1">
			<data element_type="f16" shape="1, 8, 1, 1" offset="3922" size="16"/>
			<output>
				<port id="0" precision="FP16">
					<dim>1</dim>
					<dim>8</dim>
					<dim>1</dim>
					<dim>1</dim>
				</port>
			</output>
		</layer>
		<layer id="8" name="Conv_1" type="Add" version="opset1">
			<data auto_broadcast="numpy"/>
			<input>
				<port id="0" precision="FP16">
					<dim>1</dim>
					<dim>8</dim>
					<dim>960</dim>
					<dim>540</dim>
				</port>
				<port id="1" precision="FP16">
					<dim>1</dim>
					<dim>8</dim>
					<dim>1</dim>
					<dim>1</dim>
				</port>
			</input>
			<output>
				<port id="2" precision="FP16" names="64">
					<dim>1</dim>
					<dim>8</dim>
					<dim>960</dim>
					<dim>540</dim>
				</port>
			</output>
		</layer>
		<layer id="9" name="InstanceNormalization_2/Range_input_port_0/value" type="Const" version="opset1">
			<data element_type="i64" shape="" offset="3938" size="8"/>
			<output>
				<port id="0" precision="I64"/>
			</output>
		</layer>
		<layer id="10" name="InstanceNormalization_2/Rank/shape_of" type="ShapeOf" version="opset3">
			<data output_type="i64"/>
			<input>
				<port id="0" precision="FP16">
					<dim>1</dim>
					<dim>8</dim>
					<dim>960</dim>
					<dim>540</dim>
				</port>
			</input>
			<output>
				<port id="1" precision="I64">
					<dim>4</dim>
				</port>
			</output>
		</layer>
		<layer id="11" name="InstanceNormalization_2/Rank/rank_of" type="ShapeOf" version="opset3">
			<data output_type="i64"/>
			<input>
				<port id="0" precision="I64">
					<dim>4</dim>
				</port>
			</input>
			<output>
				<port id="1" precision="I64">
					<dim>1</dim>
				</port>
			</output>
		</layer>
		<layer id="12" name="InstanceNormalization_2/Rank/0d_rank_of/value" type="Const" version="opset1">
			<data element_type="i64" shape="1" offset="3946" size="8"/>
			<output>
				<port id="0" precision="I64">
					<dim>1</dim>
				</port>
			</output>
		</layer>
		<layer id="13" name="InstanceNormalization_2/Rank" type="Squeeze" version="opset1">
			<input>
				<port id="0" precision="I64">
					<dim>1</dim>
				</port>
				<port id="1" precision="I64">
					<dim>1</dim>
				</port>
			</input>
			<output>
				<port id="2" precision="I64"/>
			</output>
		</layer>
		<layer id="14" name="InstanceNormalization_2/Range_input_port_2/value" type="Const" version="opset1">
			<data element_type="i64" shape="" offset="3954" size="8"/>
			<output>
				<port id="0" precision="I64"/>
			</output>
		</layer>
		<layer id="15" name="InstanceNormalization_2/Range" type="Range" version="opset4">
			<data output_type="i64"/>
			<input>
				<port id="0" precision="I64"/>
				<port id="1" precision="I64"/>
				<port id="2" precision="I64"/>
			</input>
			<output>
				<port id="3" precision="I64">
					<dim>2</dim>
				</port>
			</output>
		</layer>
		<layer id="16" name="InstanceNormalization_2/Ins_Norm/MVN_" type="MVN" version="opset6">
			<data eps="9.9999997473787516e-06" normalize_variance="true" eps_mode="INSIDE_SQRT"/>
			<input>
				<port id="0" precision="FP16">
					<dim>1</dim>
					<dim>8</dim>
					<dim>960</dim>
					<dim>540</dim>
				</port>
				<port id="1" precision="I64">
					<dim>2</dim>
				</port>
			</input>
			<output>
				<port id="2" precision="FP16">
					<dim>1</dim>
					<dim>8</dim>
					<dim>960</dim>
					<dim>540</dim>
				</port>
			</output>
		</layer>
		<layer id="17" name="conv1.2.weight" type="Const" version="opset1">
			<data element_type="f16" shape="1, 8, 1, 1" offset="3962" size="16"/>
			<output>
				<port id="0" precision="FP16" names="conv1.2.weight">
					<dim>1</dim>
					<dim>8</dim>
					<dim>1</dim>
					<dim>1</dim>
				</port>
			</output>
		</layer>
		<layer id="18" name="InstanceNormalization_2/Ins_Norm/mul_" type="Multiply" version="opset1">
			<data auto_broadcast="numpy"/>
			<input>
				<port id="0" precision="FP16">
					<dim>1</dim>
					<dim>8</dim>
					<dim>960</dim>
					<dim>540</dim>
				</port>
				<port id="1" precision="FP16">
					<dim>1</dim>
					<dim>8</dim>
					<dim>1</dim>
					<dim>1</dim>
				</port>
			</input>
			<output>
				<port id="2" precision="FP16">
					<dim>1</dim>
					<dim>8</dim>
					<dim>960</dim>
					<dim>540</dim>
				</port>
			</output>
		</layer>
		<layer id="19" name="conv1.2.bias" type="Const" version="opset1">
			<data element_type="f16" shape="1, 8, 1, 1" offset="3978" size="16"/>
			<output>
				<port id="0" precision="FP16" names="conv1.2.bias">
					<dim>1</dim>
					<dim>8</dim>
					<dim>1</dim>
					<dim>1</dim>
				</port>
			</output>
		</layer>
		<layer id="20" name="InstanceNormalization_2" type="Add" version="opset1">
			<data auto_broadcast="numpy"/>
			<input>
				<port id="0" precision="FP16">
					<dim>1</dim>
					<dim>8</dim>
					<dim>960</dim>
					<dim>540</dim>
				</port>
				<port id="1" precision="FP16">
					<dim>1</dim>
					<dim>8</dim>
					<dim>1</dim>
					<dim>1</dim>
				</port>
			</input>
			<output>
				<port id="2" precision="FP16" names="65">
					<dim>1</dim>
					<dim>8</dim>
					<dim>960</dim>
					<dim>540</dim>
				</port>
			</output>
		</layer>
		<layer id="21" name="Relu_3" type="ReLU" version="opset1">
			<input>
				<port id="0" precision="FP16">
					<dim>1</dim>
					<dim>8</dim>
					<dim>960</dim>
					<dim>540</dim>
				</port>
			</input>
			<output>
				<port id="1" precision="FP16" names="66">
					<dim>1</dim>
					<dim>8</dim>
					<dim>960</dim>
					<dim>540</dim>
				</port>
			</output>
		</layer>
		<layer id="22" name="357" type="Const" version="opset1">
			<data element_type="i64" shape="4" offset="3994" size="32"/>
			<output>
				<port id="0" precision="I64">
					<dim>4</dim>
				</port>
			</output>
		</layer>
		<layer id="23" name="358" type="Const" version="opset1">
			<data element_type="i64" shape="4" offset="3994" size="32"/>
			<output>
				<port id="0" precision="I64">
					<dim>4</dim>
				</port>
			</output>
		</layer>
		<layer id="24" name="Constant_50" type="Const" version="opset1">
			<data element_type="f16" shape="" offset="32" size="2"/>
			<output>
				<port id="0" precision="FP16"/>
			</output>
		</layer>
		<layer id="25" name="Pad_4" type="Pad" version="opset1">
			<data pad_mode="reflect"/>
			<input>
				<port id="0" precision="FP16">
					<dim>1</dim>
					<dim>8</dim>
					<dim>960</dim>
					<dim>540</dim>
				</port>
				<port id="1" precision="I64">
					<dim>4</dim>
				</port>
				<port id="2" precision="I64">
					<dim>4</dim>
				</port>
				<port id="3" precision="FP16"/>
			</input>
			<output>
				<port id="4" precision="FP16" names="67">
					<dim>1</dim>
					<dim>8</dim>
					<dim>962</dim>
					<dim>542</dim>
				</port>
			</output>
		</layer>
		<layer id="26" name="conv2.1.weight" type="Const" version="opset1">
			<data element_type="f16" shape="16, 8, 3, 3" offset="4026" size="2304"/>
			<output>
				<port id="0" precision="FP16" names="conv2.1.weight">
					<dim>16</dim>
					<dim>8</dim>
					<dim>3</dim>
					<dim>3</dim>
				</port>
			</output>
		</layer>
		<layer id="27" name="Conv_5/WithoutBiases" type="Convolution" version="opset1">
			<data strides="2, 2" dilations="1, 1" pads_begin="0, 0" pads_end="0, 0" auto_pad="explicit"/>
			<input>
				<port id="0" precision="FP16">
					<dim>1</dim>
					<dim>8</dim>
					<dim>962</dim>
					<dim>542</dim>
				</port>
				<port id="1" precision="FP16">
					<dim>16</dim>
					<dim>8</dim>
					<dim>3</dim>
					<dim>3</dim>
				</port>
			</input>
			<output>
				<port id="2" precision="FP16">
					<dim>1</dim>
					<dim>16</dim>
					<dim>480</dim>
					<dim>270</dim>
				</port>
			</output>
		</layer>
		<layer id="28" name="Conv_5/Dims3015" type="Const" version="opset1">
			<data element_type="f16" shape="1, 16, 1, 1" offset="6330" size="32"/>
			<output>
				<port id="0" precision="FP16">
					<dim>1</dim>
					<dim>16</dim>
					<dim>1</dim>
					<dim>1</dim>
				</port>
			</output>
		</layer>
		<layer id="29" name="Conv_5" type="Add" version="opset1">
			<data auto_broadcast="numpy"/>
			<input>
				<port id="0" precision="FP16">
					<dim>1</dim>
					<dim>16</dim>
					<dim>480</dim>
					<dim>270</dim>
				</port>
				<port id="1" precision="FP16">
					<dim>1</dim>
					<dim>16</dim>
					<dim>1</dim>
					<dim>1</dim>
				</port>
			</input>
			<output>
				<port id="2" precision="FP16" names="68">
					<dim>1</dim>
					<dim>16</dim>
					<dim>480</dim>
					<dim>270</dim>
				</port>
			</output>
		</layer>
		<layer id="30" name="InstanceNormalization_6/Range_input_port_0/value" type="Const" version="opset1">
			<data element_type="i64" shape="" offset="3938" size="8"/>
			<output>
				<port id="0" precision="I64"/>
			</output>
		</layer>
		<layer id="31" name="InstanceNormalization_6/Rank/shape_of" type="ShapeOf" version="opset3">
			<data output_type="i64"/>
			<input>
				<port id="0" precision="FP16">
					<dim>1</dim>
					<dim>16</dim>
					<dim>480</dim>
					<dim>270</dim>
				</port>
			</input>
			<output>
				<port id="1" precision="I64">
					<dim>4</dim>
				</port>
			</output>
		</layer>
		<layer id="32" name="InstanceNormalization_6/Rank/rank_of" type="ShapeOf" version="opset3">
			<data output_type="i64"/>
			<input>
				<port id="0" precision="I64">
					<dim>4</dim>
				</port>
			</input>
			<output>
				<port id="1" precision="I64">
					<dim>1</dim>
				</port>
			</output>
		</layer>
		<layer id="33" name="InstanceNormalization_6/Rank/0d_rank_of/value" type="Const" version="opset1">
			<data element_type="i64" shape="1" offset="3946" size="8"/>
			<output>
				<port id="0" precision="I64">
					<dim>1</dim>
				</port>
			</output>
		</layer>
		<layer id="34" name="InstanceNormalization_6/Rank" type="Squeeze" version="opset1">
			<input>
				<port id="0" precision="I64">
					<dim>1</dim>
				</port>
				<port id="1" precision="I64">
					<dim>1</dim>
				</port>
			</input>
			<output>
				<port id="2" precision="I64"/>
			</output>
		</layer>
		<layer id="35" name="InstanceNormalization_6/Range_input_port_2/value" type="Const" version="opset1">
			<data element_type="i64" shape="" offset="3954" size="8"/>
			<output>
				<port id="0" precision="I64"/>
			</output>
		</layer>
		<layer id="36" name="InstanceNormalization_6/Range" type="Range" version="opset4">
			<data output_type="i64"/>
			<input>
				<port id="0" precision="I64"/>
				<port id="1" precision="I64"/>
				<port id="2" precision="I64"/>
			</input>
			<output>
				<port id="3" precision="I64">
					<dim>2</dim>
				</port>
			</output>
		</layer>
		<layer id="37" name="InstanceNormalization_6/Ins_Norm/MVN_" type="MVN" version="opset6">
			<data eps="9.9999997473787516e-06" normalize_variance="true" eps_mode="INSIDE_SQRT"/>
			<input>
				<port id="0" precision="FP16">
					<dim>1</dim>
					<dim>16</dim>
					<dim>480</dim>
					<dim>270</dim>
				</port>
				<port id="1" precision="I64">
					<dim>2</dim>
				</port>
			</input>
			<output>
				<port id="2" precision="FP16">
					<dim>1</dim>
					<dim>16</dim>
					<dim>480</dim>
					<dim>270</dim>
				</port>
			</output>
		</layer>
		<layer id="38" name="conv2.2.weight" type="Const" version="opset1">
			<data element_type="f16" shape="1, 16, 1, 1" offset="6362" size="32"/>
			<output>
				<port id="0" precision="FP16" names="conv2.2.weight">
					<dim>1</dim>
					<dim>16</dim>
					<dim>1</dim>
					<dim>1</dim>
				</port>
			</output>
		</layer>
		<layer id="39" name="InstanceNormalization_6/Ins_Norm/mul_" type="Multiply" version="opset1">
			<data auto_broadcast="numpy"/>
			<input>
				<port id="0" precision="FP16">
					<dim>1</dim>
					<dim>16</dim>
					<dim>480</dim>
					<dim>270</dim>
				</port>
				<port id="1" precision="FP16">
					<dim>1</dim>
					<dim>16</dim>
					<dim>1</dim>
					<dim>1</dim>
				</port>
			</input>
			<output>
				<port id="2" precision="FP16">
					<dim>1</dim>
					<dim>16</dim>
					<dim>480</dim>
					<dim>270</dim>
				</port>
			</output>
		</layer>
		<layer id="40" name="conv2.2.bias" type="Const" version="opset1">
			<data element_type="f16" shape="1, 16, 1, 1" offset="6394" size="32"/>
			<output>
				<port id="0" precision="FP16" names="conv2.2.bias">
					<dim>1</dim>
					<dim>16</dim>
					<dim>1</dim>
					<dim>1</dim>
				</port>
			</output>
		</layer>
		<layer id="41" name="InstanceNormalization_6" type="Add" version="opset1">
			<data auto_broadcast="numpy"/>
			<input>
				<port id="0" precision="FP16">
					<dim>1</dim>
					<dim>16</dim>
					<dim>480</dim>
					<dim>270</dim>
				</port>
				<port id="1" precision="FP16">
					<dim>1</dim>
					<dim>16</dim>
					<dim>1</dim>
					<dim>1</dim>
				</port>
			</input>
			<output>
				<port id="2" precision="FP16" names="69">
					<dim>1</dim>
					<dim>16</dim>
					<dim>480</dim>
					<dim>270</dim>
				</port>
			</output>
		</layer>
		<layer id="42" name="Relu_7" type="ReLU" version="opset1">
			<input>
				<port id="0" precision="FP16">
					<dim>1</dim>
					<dim>16</dim>
					<dim>480</dim>
					<dim>270</dim>
				</port>
			</input>
			<output>
				<port id="1" precision="FP16" names="70">
					<dim>1</dim>
					<dim>16</dim>
					<dim>480</dim>
					<dim>270</dim>
				</port>
			</output>
		</layer>
		<layer id="43" name="360" type="Const" version="opset1">
			<data element_type="i64" shape="4" offset="3994" size="32"/>
			<output>
				<port id="0" precision="I64">
					<dim>4</dim>
				</port>
			</output>
		</layer>
		<layer id="44" name="361" type="Const" version="opset1">
			<data element_type="i64" shape="4" offset="3994" size="32"/>
			<output>
				<port id="0" precision="I64">
					<dim>4</dim>
				</port>
			</output>
		</layer>
		<layer id="45" name="Constant_93" type="Const" version="opset1">
			<data element_type="f16" shape="" offset="32" size="2"/>
			<output>
				<port id="0" precision="FP16"/>
			</output>
		</layer>
		<layer id="46" name="Pad_8" type="Pad" version="opset1">
			<data pad_mode="reflect"/>
			<input>
				<port id="0" precision="FP16">
					<dim>1</dim>
					<dim>16</dim>
					<dim>480</dim>
					<dim>270</dim>
				</port>
				<port id="1" precision="I64">
					<dim>4</dim>
				</port>
				<port id="2" precision="I64">
					<dim>4</dim>
				</port>
				<port id="3" precision="FP16"/>
			</input>
			<output>
				<port id="4" precision="FP16" names="71">
					<dim>1</dim>
					<dim>16</dim>
					<dim>482</dim>
					<dim>272</dim>
				</port>
			</output>
		</layer>
		<layer id="47" name="conv3.1.weight" type="Const" version="opset1">
			<data element_type="f16" shape="32, 16, 3, 3" offset="6426" size="9216"/>
			<output>
				<port id="0" precision="FP16" names="conv3.1.weight">
					<dim>32</dim>
					<dim>16</dim>
					<dim>3</dim>
					<dim>3</dim>
				</port>
			</output>
		</layer>
		<layer id="48" name="Conv_9/WithoutBiases" type="Convolution" version="opset1">
			<data strides="2, 2" dilations="1, 1" pads_begin="0, 0" pads_end="0, 0" auto_pad="explicit"/>
			<input>
				<port id="0" precision="FP16">
					<dim>1</dim>
					<dim>16</dim>
					<dim>482</dim>
					<dim>272</dim>
				</port>
				<port id="1" precision="FP16">
					<dim>32</dim>
					<dim>16</dim>
					<dim>3</dim>
					<dim>3</dim>
				</port>
			</input>
			<output>
				<port id="2" precision="FP16">
					<dim>1</dim>
					<dim>32</dim>
					<dim>240</dim>
					<dim>135</dim>
				</port>
			</output>
		</layer>
		<layer id="49" name="Conv_9/Dims2961" type="Const" version="opset1">
			<data element_type="f16" shape="1, 32, 1, 1" offset="15642" size="64"/>
			<output>
				<port id="0" precision="FP16">
					<dim>1</dim>
					<dim>32</dim>
					<dim>1</dim>
					<dim>1</dim>
				</port>
			</output>
		</layer>
		<layer id="50" name="Conv_9" type="Add" version="opset1">
			<data auto_broadcast="numpy"/>
			<input>
				<port id="0" precision="FP16">
					<dim>1</dim>
					<dim>32</dim>
					<dim>240</dim>
					<dim>135</dim>
				</port>
				<port id="1" precision="FP16">
					<dim>1</dim>
					<dim>32</dim>
					<dim>1</dim>
					<dim>1</dim>
				</port>
			</input>
			<output>
				<port id="2" precision="FP16" names="72">
					<dim>1</dim>
					<dim>32</dim>
					<dim>240</dim>
					<dim>135</dim>
				</port>
			</output>
		</layer>
		<layer id="51" name="InstanceNormalization_10/Range_input_port_0/value" type="Const" version="opset1">
			<data element_type="i64" shape="" offset="3938" size="8"/>
			<output>
				<port id="0" precision="I64"/>
			</output>
		</layer>
		<layer id="52" name="InstanceNormalization_10/Rank/shape_of" type="ShapeOf" version="opset3">
			<data output_type="i64"/>
			<input>
				<port id="0" precision="FP16">
					<dim>1</dim>
					<dim>32</dim>
					<dim>240</dim>
					<dim>135</dim>
				</port>
			</input>
			<output>
				<port id="1" precision="I64">
					<dim>4</dim>
				</port>
			</output>
		</layer>
		<layer id="53" name="InstanceNormalization_10/Rank/rank_of" type="ShapeOf" version="opset3">
			<data output_type="i64"/>
			<input>
				<port id="0" precision="I64">
					<dim>4</dim>
				</port>
			</input>
			<output>
				<port id="1" precision="I64">
					<dim>1</dim>
				</port>
			</output>
		</layer>
		<layer id="54" name="InstanceNormalization_10/Rank/0d_rank_of/value" type="Const" version="opset1">
			<data element_type="i64" shape="1" offset="3946" size="8"/>
			<output>
				<port id="0" precision="I64">
					<dim>1</dim>
				</port>
			</output>
		</layer>
		<layer id="55" name="InstanceNormalization_10/Rank" type="Squeeze" version="opset1">
			<input>
				<port id="0" precision="I64">
					<dim>1</dim>
				</port>
				<port id="1" precision="I64">
					<dim>1</dim>
				</port>
			</input>
			<output>
				<port id="2" precision="I64"/>
			</output>
		</layer>
		<layer id="56" name="InstanceNormalization_10/Range_input_port_2/value" type="Const" version="opset1">
			<data element_type="i64" shape="" offset="3954" size="8"/>
			<output>
				<port id="0" precision="I64"/>
			</output>
		</layer>
		<layer id="57" name="InstanceNormalization_10/Range" type="Range" version="opset4">
			<data output_type="i64"/>
			<input>
				<port id="0" precision="I64"/>
				<port id="1" precision="I64"/>
				<port id="2" precision="I64"/>
			</input>
			<output>
				<port id="3" precision="I64">
					<dim>2</dim>
				</port>
			</output>
		</layer>
		<layer id="58" name="InstanceNormalization_10/Ins_Norm/MVN_" type="MVN" version="opset6">
			<data eps="9.9999997473787516e-06" normalize_variance="true" eps_mode="INSIDE_SQRT"/>
			<input>
				<port id="0" precision="FP16">
					<dim>1</dim>
					<dim>32</dim>
					<dim>240</dim>
					<dim>135</dim>
				</port>
				<port id="1" precision="I64">
					<dim>2</dim>
				</port>
			</input>
			<output>
				<port id="2" precision="FP16">
					<dim>1</dim>
					<dim>32</dim>
					<dim>240</dim>
					<dim>135</dim>
				</port>
			</output>
		</layer>
		<layer id="59" name="conv3.2.weight" type="Const" version="opset1">
			<data element_type="f16" shape="1, 32, 1, 1" offset="15706" size="64"/>
			<output>
				<port id="0" precision="FP16" names="conv3.2.weight">
					<dim>1</dim>
					<dim>32</dim>
					<dim>1</dim>
					<dim>1</dim>
				</port>
			</output>
		</layer>
		<layer id="60" name="InstanceNormalization_10/Ins_Norm/mul_" type="Multiply" version="opset1">
			<data auto_broadcast="numpy"/>
			<input>
				<port id="0" precision="FP16">
					<dim>1</dim>
					<dim>32</dim>
					<dim>240</dim>
					<dim>135</dim>
				</port>
				<port id="1" precision="FP16">
					<dim>1</dim>
					<dim>32</dim>
					<dim>1</dim>
					<dim>1</dim>
				</port>
			</input>
			<output>
				<port id="2" precision="FP16">
					<dim>1</dim>
					<dim>32</dim>
					<dim>240</dim>
					<dim>135</dim>
				</port>
			</output>
		</layer>
		<layer id="61" name="conv3.2.bias" type="Const" version="opset1">
			<data element_type="f16" shape="1, 32, 1, 1" offset="15770" size="64"/>
			<output>
				<port id="0" precision="FP16" names="conv3.2.bias">
					<dim>1</dim>
					<dim>32</dim>
					<dim>1</dim>
					<dim>1</dim>
				</port>
			</output>
		</layer>
		<layer id="62" name="InstanceNormalization_10" type="Add" version="opset1">
			<data auto_broadcast="numpy"/>
			<input>
				<port id="0" precision="FP16">
					<dim>1</dim>
					<dim>32</dim>
					<dim>240</dim>
					<dim>135</dim>
				</port>
				<port id="1" precision="FP16">
					<dim>1</dim>
					<dim>32</dim>
					<dim>1</dim>
					<dim>1</dim>
				</port>
			</input>
			<output>
				<port id="2" precision="FP16" names="73">
					<dim>1</dim>
					<dim>32</dim>
					<dim>240</dim>
					<dim>135</dim>
				</port>
			</output>
		</layer>
		<layer id="63" name="Relu_11" type="ReLU" version="opset1">
			<input>
				<port id="0" precision="FP16">
					<dim>1</dim>
					<dim>32</dim>
					<dim>240</dim>
					<dim>135</dim>
				</port>
			</input>
			<output>
				<port id="1" precision="FP16" names="74">
					<dim>1</dim>
					<dim>32</dim>
					<dim>240</dim>
					<dim>135</dim>
				</port>
			</output>
		</layer>
		<layer id="64" name="363" type="Const" version="opset1">
			<data element_type="i64" shape="4" offset="3994" size="32"/>
			<output>
				<port id="0" precision="I64">
					<dim>4</dim>
				</port>
			</output>
		</layer>
		<layer id="65" name="364" type="Const" version="opset1">
			<data element_type="i64" shape="4" offset="3994" size="32"/>
			<output>
				<port id="0" precision="I64">
					<dim>4</dim>
				</port>
			</output>
		</layer>
		<layer id="66" name="Constant_136" type="Const" version="opset1">
			<data element_type="f16" shape="" offset="32" size="2"/>
			<output>
				<port id="0" precision="FP16"/>
			</output>
		</layer>
		<layer id="67" name="Pad_12" type="Pad" version="opset1">
			<data pad_mode="reflect"/>
			<input>
				<port id="0" precision="FP16">
					<dim>1</dim>
					<dim>32</dim>
					<dim>240</dim>
					<dim>135</dim>
				</port>
				<port id="1" precision="I64">
					<dim>4</dim>
				</port>
				<port id="2" precision="I64">
					<dim>4</dim>
				</port>
				<port id="3" precision="FP16"/>
			</input>
			<output>
				<port id="4" precision="FP16" names="75">
					<dim>1</dim>
					<dim>32</dim>
					<dim>242</dim>
					<dim>137</dim>
				</port>
			</output>
		</layer>
		<layer id="68" name="res1.conv1.1.weight" type="Const" version="opset1">
			<data element_type="f16" shape="32, 32, 3, 3" offset="15834" size="18432"/>
			<output>
				<port id="0" precision="FP16" names="res1.conv1.1.weight">
					<dim>32</dim>
					<dim>32</dim>
					<dim>3</dim>
					<dim>3</dim>
				</port>
			</output>
		</layer>
		<layer id="69" name="Conv_13/WithoutBiases" type="Convolution" version="opset1">
			<data strides="1, 1" dilations="1, 1" pads_begin="0, 0" pads_end="0, 0" auto_pad="explicit"/>
			<input>
				<port id="0" precision="FP16">
					<dim>1</dim>
					<dim>32</dim>
					<dim>242</dim>
					<dim>137</dim>
				</port>
				<port id="1" precision="FP16">
					<dim>32</dim>
					<dim>32</dim>
					<dim>3</dim>
					<dim>3</dim>
				</port>
			</input>
			<output>
				<port id="2" precision="FP16">
					<dim>1</dim>
					<dim>32</dim>
					<dim>240</dim>
					<dim>135</dim>
				</port>
			</output>
		</layer>
		<layer id="70" name="Conv_13/Dims3009" type="Const" version="opset1">
			<data element_type="f16" shape="1, 32, 1, 1" offset="34266" size="64"/>
			<output>
				<port id="0" precision="FP16">
					<dim>1</dim>
					<dim>32</dim>
					<dim>1</dim>
					<dim>1</dim>
				</port>
			</output>
		</layer>
		<layer id="71" name="Conv_13" type="Add" version="opset1">
			<data auto_broadcast="numpy"/>
			<input>
				<port id="0" precision="FP16">
					<dim>1</dim>
					<dim>32</dim>
					<dim>240</dim>
					<dim>135</dim>
				</port>
				<port id="1" precision="FP16">
					<dim>1</dim>
					<dim>32</dim>
					<dim>1</dim>
					<dim>1</dim>
				</port>
			</input>
			<output>
				<port id="2" precision="FP16" names="76">
					<dim>1</dim>
					<dim>32</dim>
					<dim>240</dim>
					<dim>135</dim>
				</port>
			</output>
		</layer>
		<layer id="72" name="InstanceNormalization_14/Range_input_port_0/value" type="Const" version="opset1">
			<data element_type="i64" shape="" offset="3938" size="8"/>
			<output>
				<port id="0" precision="I64"/>
			</output>
		</layer>
		<layer id="73" name="InstanceNormalization_14/Rank/shape_of" type="ShapeOf" version="opset3">
			<data output_type="i64"/>
			<input>
				<port id="0" precision="FP16">
					<dim>1</dim>
					<dim>32</dim>
					<dim>240</dim>
					<dim>135</dim>
				</port>
			</input>
			<output>
				<port id="1" precision="I64">
					<dim>4</dim>
				</port>
			</output>
		</layer>
		<layer id="74" name="InstanceNormalization_14/Rank/rank_of" type="ShapeOf" version="opset3">
			<data output_type="i64"/>
			<input>
				<port id="0" precision="I64">
					<dim>4</dim>
				</port>
			</input>
			<output>
				<port id="1" precision="I64">
					<dim>1</dim>
				</port>
			</output>
		</layer>
		<layer id="75" name="InstanceNormalization_14/Rank/0d_rank_of/value" type="Const" version="opset1">
			<data element_type="i64" shape="1" offset="3946" size="8"/>
			<output>
				<port id="0" precision="I64">
					<dim>1</dim>
				</port>
			</output>
		</layer>
		<layer id="76" name="InstanceNormalization_14/Rank" type="Squeeze" version="opset1">
			<input>
				<port id="0" precision="I64">
					<dim>1</dim>
				</port>
				<port id="1" precision="I64">
					<dim>1</dim>
				</port>
			</input>
			<output>
				<port id="2" precision="I64"/>
			</output>
		</layer>
		<layer id="77" name="InstanceNormalization_14/Range_input_port_2/value" type="Const" version="opset1">
			<data element_type="i64" shape="" offset="3954" size="8"/>
			<output>
				<port id="0" precision="I64"/>
			</output>
		</layer>
		<layer id="78" name="InstanceNormalization_14/Range" type="Range" version="opset4">
			<data output_type="i64"/>
			<input>
				<port id="0" precision="I64"/>
				<port id="1" precision="I64"/>
				<port id="2" precision="I64"/>
			</input>
			<output>
				<port id="3" precision="I64">
					<dim>2</dim>
				</port>
			</output>
		</layer>
		<layer id="79" name="InstanceNormalization_14/Ins_Norm/MVN_" type="MVN" version="opset6">
			<data eps="9.9999997473787516e-06" normalize_variance="true" eps_mode="INSIDE_SQRT"/>
			<input>
				<port id="0" precision="FP16">
					<dim>1</dim>
					<dim>32</dim>
					<dim>240</dim>
					<dim>135</dim>
				</port>
				<port id="1" precision="I64">
					<dim>2</dim>
				</port>
			</input>
			<output>
				<port id="2" precision="FP16">
					<dim>1</dim>
					<dim>32</dim>
					<dim>240</dim>
					<dim>135</dim>
				</port>
			</output>
		</layer>
		<layer id="80" name="res1.conv1.2.weight" type="Const" version="opset1">
			<data element_type="f16" shape="1, 32, 1, 1" offset="34330" size="64"/>
			<output>
				<port id="0" precision="FP16" names="res1.conv1.2.weight">
					<dim>1</dim>
					<dim>32</dim>
					<dim>1</dim>
					<dim>1</dim>
				</port>
			</output>
		</layer>
		<layer id="81" name="InstanceNormalization_14/Ins_Norm/mul_" type="Multiply" version="opset1">
			<data auto_broadcast="numpy"/>
			<input>
				<port id="0" precision="FP16">
					<dim>1</dim>
					<dim>32</dim>
					<dim>240</dim>
					<dim>135</dim>
				</port>
				<port id="1" precision="FP16">
					<dim>1</dim>
					<dim>32</dim>
					<dim>1</dim>
					<dim>1</dim>
				</port>
			</input>
			<output>
				<port id="2" precision="FP16">
					<dim>1</dim>
					<dim>32</dim>
					<dim>240</dim>
					<dim>135</dim>
				</port>
			</output>
		</layer>
		<layer id="82" name="res1.conv1.2.bias" type="Const" version="opset1">
			<data element_type="f16" shape="1, 32, 1, 1" offset="34394" size="64"/>
			<output>
				<port id="0" precision="FP16" names="res1.conv1.2.bias">
					<dim>1</dim>
					<dim>32</dim>
					<dim>1</dim>
					<dim>1</dim>
				</port>
			</output>
		</layer>
		<layer id="83" name="InstanceNormalization_14" type="Add" version="opset1">
			<data auto_broadcast="numpy"/>
			<input>
				<port id="0" precision="FP16">
					<dim>1</dim>
					<dim>32</dim>
					<dim>240</dim>
					<dim>135</dim>
				</port>
				<port id="1" precision="FP16">
					<dim>1</dim>
					<dim>32</dim>
					<dim>1</dim>
					<dim>1</dim>
				</port>
			</input>
			<output>
				<port id="2" precision="FP16" names="77">
					<dim>1</dim>
					<dim>32</dim>
					<dim>240</dim>
					<dim>135</dim>
				</port>
			</output>
		</layer>
		<layer id="84" name="Relu_15" type="ReLU" version="opset1">
			<input>
				<port id="0" precision="FP16">
					<dim>1</dim>
					<dim>32</dim>
					<dim>240</dim>
					<dim>135</dim>
				</port>
			</input>
			<output>
				<port id="1" precision="FP16" names="78">
					<dim>1</dim>
					<dim>32</dim>
					<dim>240</dim>
					<dim>135</dim>
				</port>
			</output>
		</layer>
		<layer id="85" name="366" type="Const" version="opset1">
			<data element_type="i64" shape="4" offset="3994" size="32"/>
			<output>
				<port id="0" precision="I64">
					<dim>4</dim>
				</port>
			</output>
		</layer>
		<layer id="86" name="367" type="Const" version="opset1">
			<data element_type="i64" shape="4" offset="3994" size="32"/>
			<output>
				<port id="0" precision="I64">
					<dim>4</dim>
				</port>
			</output>
		</layer>
		<layer id="87" name="Constant_179" type="Const" version="opset1">
			<data element_type="f16" shape="" offset="32" size="2"/>
			<output>
				<port id="0" precision="FP16"/>
			</output>
		</layer>
		<layer id="88" name="Pad_16" type="Pad" version="opset1">
			<data pad_mode="reflect"/>
			<input>
				<port id="0" precision="FP16">
					<dim>1</dim>
					<dim>32</dim>
					<dim>240</dim>
					<dim>135</dim>
				</port>
				<port id="1" precision="I64">
					<dim>4</dim>
				</port>
				<port id="2" precision="I64">
					<dim>4</dim>
				</port>
				<port id="3" precision="FP16"/>
			</input>
			<output>
				<port id="4" precision="FP16" names="79">
					<dim>1</dim>
					<dim>32</dim>
					<dim>242</dim>
					<dim>137</dim>
				</port>
			</output>
		</layer>
		<layer id="89" name="res1.conv2.1.weight" type="Const" version="opset1">
			<data element_type="f16" shape="32, 32, 3, 3" offset="34458" size="18432"/>
			<output>
				<port id="0" precision="FP16" names="res1.conv2.1.weight">
					<dim>32</dim>
					<dim>32</dim>
					<dim>3</dim>
					<dim>3</dim>
				</port>
			</output>
		</layer>
		<layer id="90" name="Conv_17/WithoutBiases" type="Convolution" version="opset1">
			<data strides="1, 1" dilations="1, 1" pads_begin="0, 0" pads_end="0, 0" auto_pad="explicit"/>
			<input>
				<port id="0" precision="FP16">
					<dim>1</dim>
					<dim>32</dim>
					<dim>242</dim>
					<dim>137</dim>
				</port>
				<port id="1" precision="FP16">
					<dim>32</dim>
					<dim>32</dim>
					<dim>3</dim>
					<dim>3</dim>
				</port>
			</input>
			<output>
				<port id="2" precision="FP16">
					<dim>1</dim>
					<dim>32</dim>
					<dim>240</dim>
					<dim>135</dim>
				</port>
			</output>
		</layer>
		<layer id="91" name="Conv_17/Dims2997" type="Const" version="opset1">
			<data element_type="f16" shape="1, 32, 1, 1" offset="52890" size="64"/>
			<output>
				<port id="0" precision="FP16">
					<dim>1</dim>
					<dim>32</dim>
					<dim>1</dim>
					<dim>1</dim>
				</port>
			</output>
		</layer>
		<layer id="92" name="Conv_17" type="Add" version="opset1">
			<data auto_broadcast="numpy"/>
			<input>
				<port id="0" precision="FP16">
					<dim>1</dim>
					<dim>32</dim>
					<dim>240</dim>
					<dim>135</dim>
				</port>
				<port id="1" precision="FP16">
					<dim>1</dim>
					<dim>32</dim>
					<dim>1</dim>
					<dim>1</dim>
				</port>
			</input>
			<output>
				<port id="2" precision="FP16" names="80">
					<dim>1</dim>
					<dim>32</dim>
					<dim>240</dim>
					<dim>135</dim>
				</port>
			</output>
		</layer>
		<layer id="93" name="InstanceNormalization_18/Range_input_port_0/value" type="Const" version="opset1">
			<data element_type="i64" shape="" offset="3938" size="8"/>
			<output>
				<port id="0" precision="I64"/>
			</output>
		</layer>
		<layer id="94" name="InstanceNormalization_18/Rank/shape_of" type="ShapeOf" version="opset3">
			<data output_type="i64"/>
			<input>
				<port id="0" precision="FP16">
					<dim>1</dim>
					<dim>32</dim>
					<dim>240</dim>
					<dim>135</dim>
				</port>
			</input>
			<output>
				<port id="1" precision="I64">
					<dim>4</dim>
				</port>
			</output>
		</layer>
		<layer id="95" name="InstanceNormalization_18/Rank/rank_of" type="ShapeOf" version="opset3">
			<data output_type="i64"/>
			<input>
				<port id="0" precision="I64">
					<dim>4</dim>
				</port>
			</input>
			<output>
				<port id="1" precision="I64">
					<dim>1</dim>
				</port>
			</output>
		</layer>
		<layer id="96" name="InstanceNormalization_18/Rank/0d_rank_of/value" type="Const" version="opset1">
			<data element_type="i64" shape="1" offset="3946" size="8"/>
			<output>
				<port id="0" precision="I64">
					<dim>1</dim>
				</port>
			</output>
		</layer>
		<layer id="97" name="InstanceNormalization_18/Rank" type="Squeeze" version="opset1">
			<input>
				<port id="0" precision="I64">
					<dim>1</dim>
				</port>
				<port id="1" precision="I64">
					<dim>1</dim>
				</port>
			</input>
			<output>
				<port id="2" precision="I64"/>
			</output>
		</layer>
		<layer id="98" name="InstanceNormalization_18/Range_input_port_2/value" type="Const" version="opset1">
			<data element_type="i64" shape="" offset="3954" size="8"/>
			<output>
				<port id="0" precision="I64"/>
			</output>
		</layer>
		<layer id="99" name="InstanceNormalization_18/Range" type="Range" version="opset4">
			<data output_type="i64"/>
			<input>
				<port id="0" precision="I64"/>
				<port id="1" precision="I64"/>
				<port id="2" precision="I64"/>
			</input>
			<output>
				<port id="3" precision="I64">
					<dim>2</dim>
				</port>
			</output>
		</layer>
		<layer id="100" name="InstanceNormalization_18/Ins_Norm/MVN_" type="MVN" version="opset6">
			<data eps="9.9999997473787516e-06" normalize_variance="true" eps_mode="INSIDE_SQRT"/>
			<input>
				<port id="0" precision="FP16">
					<dim>1</dim>
					<dim>32</dim>
					<dim>240</dim>
					<dim>135</dim>
				</port>
				<port id="1" precision="I64">
					<dim>2</dim>
				</port>
			</input>
			<output>
				<port id="2" precision="FP16">
					<dim>1</dim>
					<dim>32</dim>
					<dim>240</dim>
					<dim>135</dim>
				</port>
			</output>
		</layer>
		<layer id="101" name="res1.conv2.2.weight" type="Const" version="opset1">
			<data element_type="f16" shape="1, 32, 1, 1" offset="52954" size="64"/>
			<output>
				<port id="0" precision="FP16" names="res1.conv2.2.weight">
					<dim>1</dim>
					<dim>32</dim>
					<dim>1</dim>
					<dim>1</dim>
				</port>
			</output>
		</layer>
		<layer id="102" name="InstanceNormalization_18/Ins_Norm/mul_" type="Multiply" version="opset1">
			<data auto_broadcast="numpy"/>
			<input>
				<port id="0" precision="FP16">
					<dim>1</dim>
					<dim>32</dim>
					<dim>240</dim>
					<dim>135</dim>
				</port>
				<port id="1" precision="FP16">
					<dim>1</dim>
					<dim>32</dim>
					<dim>1</dim>
					<dim>1</dim>
				</port>
			</input>
			<output>
				<port id="2" precision="FP16">
					<dim>1</dim>
					<dim>32</dim>
					<dim>240</dim>
					<dim>135</dim>
				</port>
			</output>
		</layer>
		<layer id="103" name="res1.conv2.2.bias" type="Const" version="opset1">
			<data element_type="f16" shape="1, 32, 1, 1" offset="53018" size="64"/>
			<output>
				<port id="0" precision="FP16" names="res1.conv2.2.bias">
					<dim>1</dim>
					<dim>32</dim>
					<dim>1</dim>
					<dim>1</dim>
				</port>
			</output>
		</layer>
		<layer id="104" name="InstanceNormalization_18" type="Add" version="opset1">
			<data auto_broadcast="numpy"/>
			<input>
				<port id="0" precision="FP16">
					<dim>1</dim>
					<dim>32</dim>
					<dim>240</dim>
					<dim>135</dim>
				</port>
				<port id="1" precision="FP16">
					<dim>1</dim>
					<dim>32</dim>
					<dim>1</dim>
					<dim>1</dim>
				</port>
			</input>
			<output>
				<port id="2" precision="FP16" names="81">
					<dim>1</dim>
					<dim>32</dim>
					<dim>240</dim>
					<dim>135</dim>
				</port>
			</output>
		</layer>
		<layer id="105" name="Relu_19" type="ReLU" version="opset1">
			<input>
				<port id="0" precision="FP16">
					<dim>1</dim>
					<dim>32</dim>
					<dim>240</dim>
					<dim>135</dim>
				</port>
			</input>
			<output>
				<port id="1" precision="FP16" names="82">
					<dim>1</dim>
					<dim>32</dim>
					<dim>240</dim>
					<dim>135</dim>
				</port>
			</output>
		</layer>
		<layer id="106" name="Add_20" type="Add" version="opset1">
			<data auto_broadcast="numpy"/>
			<input>
				<port id="0" precision="FP16">
					<dim>1</dim>
					<dim>32</dim>
					<dim>240</dim>
					<dim>135</dim>
				</port>
				<port id="1" precision="FP16">
					<dim>1</dim>
					<dim>32</dim>
					<dim>240</dim>
					<dim>135</dim>
				</port>
			</input>
			<output>
				<port id="2" precision="FP16" names="83">
					<dim>1</dim>
					<dim>32</dim>
					<dim>240</dim>
					<dim>135</dim>
				</port>
			</output>
		</layer>
		<layer id="107" name="369" type="Const" version="opset1">
			<data element_type="i64" shape="4" offset="3994" size="32"/>
			<output>
				<port id="0" precision="I64">
					<dim>4</dim>
				</port>
			</output>
		</layer>
		<layer id="108" name="370" type="Const" version="opset1">
			<data element_type="i64" shape="4" offset="3994" size="32"/>
			<output>
				<port id="0" precision="I64">
					<dim>4</dim>
				</port>
			</output>
		</layer>
		<layer id="109" name="Constant_224" type="Const" version="opset1">
			<data element_type="f16" shape="" offset="32" size="2"/>
			<output>
				<port id="0" precision="FP16"/>
			</output>
		</layer>
		<layer id="110" name="Pad_21" type="Pad" version="opset1">
			<data pad_mode="reflect"/>
			<input>
				<port id="0" precision="FP16">
					<dim>1</dim>
					<dim>32</dim>
					<dim>240</dim>
					<dim>135</dim>
				</port>
				<port id="1" precision="I64">
					<dim>4</dim>
				</port>
				<port id="2" precision="I64">
					<dim>4</dim>
				</port>
				<port id="3" precision="FP16"/>
			</input>
			<output>
				<port id="4" precision="FP16" names="84">
					<dim>1</dim>
					<dim>32</dim>
					<dim>242</dim>
					<dim>137</dim>
				</port>
			</output>
		</layer>
		<layer id="111" name="res2.conv1.1.weight" type="Const" version="opset1">
			<data element_type="f16" shape="32, 32, 3, 3" offset="53082" size="18432"/>
			<output>
				<port id="0" precision="FP16" names="res2.conv1.1.weight">
					<dim>32</dim>
					<dim>32</dim>
					<dim>3</dim>
					<dim>3</dim>
				</port>
			</output>
		</layer>
		<layer id="112" name="Conv_22/WithoutBiases" type="Convolution" version="opset1">
			<data strides="1, 1" dilations="1, 1" pads_begin="0, 0" pads_end="0, 0" auto_pad="explicit"/>
			<input>
				<port id="0" precision="FP16">
					<dim>1</dim>
					<dim>32</dim>
					<dim>242</dim>
					<dim>137</dim>
				</port>
				<port id="1" precision="FP16">
					<dim>32</dim>
					<dim>32</dim>
					<dim>3</dim>
					<dim>3</dim>
				</port>
			</input>
			<output>
				<port id="2" precision="FP16">
					<dim>1</dim>
					<dim>32</dim>
					<dim>240</dim>
					<dim>135</dim>
				</port>
			</output>
		</layer>
		<layer id="113" name="Conv_22/Dims2949" type="Const" version="opset1">
			<data element_type="f16" shape="1, 32, 1, 1" offset="71514" size="64"/>
			<output>
				<port id="0" precision="FP16">
					<dim>1</dim>
					<dim>32</dim>
					<dim>1</dim>
					<dim>1</dim>
				</port>
			</output>
		</layer>
		<layer id="114" name="Conv_22" type="Add" version="opset1">
			<data auto_broadcast="numpy"/>
			<input>
				<port id="0" precision="FP16">
					<dim>1</dim>
					<dim>32</dim>
					<dim>240</dim>
					<dim>135</dim>
				</port>
				<port id="1" precision="FP16">
					<dim>1</dim>
					<dim>32</dim>
					<dim>1</dim>
					<dim>1</dim>
				</port>
			</input>
			<output>
				<port id="2" precision="FP16" names="85">
					<dim>1</dim>
					<dim>32</dim>
					<dim>240</dim>
					<dim>135</dim>
				</port>
			</output>
		</layer>
		<layer id="115" name="InstanceNormalization_23/Range_input_port_0/value" type="Const" version="opset1">
			<data element_type="i64" shape="" offset="3938" size="8"/>
			<output>
				<port id="0" precision="I64"/>
			</output>
		</layer>
		<layer id="116" name="InstanceNormalization_23/Rank/shape_of" type="ShapeOf" version="opset3">
			<data output_type="i64"/>
			<input>
				<port id="0" precision="FP16">
					<dim>1</dim>
					<dim>32</dim>
					<dim>240</dim>
					<dim>135</dim>
				</port>
			</input>
			<output>
				<port id="1" precision="I64">
					<dim>4</dim>
				</port>
			</output>
		</layer>
		<layer id="117" name="InstanceNormalization_23/Rank/rank_of" type="ShapeOf" version="opset3">
			<data output_type="i64"/>
			<input>
				<port id="0" precision="I64">
					<dim>4</dim>
				</port>
			</input>
			<output>
				<port id="1" precision="I64">
					<dim>1</dim>
				</port>
			</output>
		</layer>
		<layer id="118" name="InstanceNormalization_23/Rank/0d_rank_of/value" type="Const" version="opset1">
			<data element_type="i64" shape="1" offset="3946" size="8"/>
			<output>
				<port id="0" precision="I64">
					<dim>1</dim>
				</port>
			</output>
		</layer>
		<layer id="119" name="InstanceNormalization_23/Rank" type="Squeeze" version="opset1">
			<input>
				<port id="0" precision="I64">
					<dim>1</dim>
				</port>
				<port id="1" precision="I64">
					<dim>1</dim>
				</port>
			</input>
			<output>
				<port id="2" precision="I64"/>
			</output>
		</layer>
		<layer id="120" name="InstanceNormalization_23/Range_input_port_2/value" type="Const" version="opset1">
			<data element_type="i64" shape="" offset="3954" size="8"/>
			<output>
				<port id="0" precision="I64"/>
			</output>
		</layer>
		<layer id="121" name="InstanceNormalization_23/Range" type="Range" version="opset4">
			<data output_type="i64"/>
			<input>
				<port id="0" precision="I64"/>
				<port id="1" precision="I64"/>
				<port id="2" precision="I64"/>
			</input>
			<output>
				<port id="3" precision="I64">
					<dim>2</dim>
				</port>
			</output>
		</layer>
		<layer id="122" name="InstanceNormalization_23/Ins_Norm/MVN_" type="MVN" version="opset6">
			<data eps="9.9999997473787516e-06" normalize_variance="true" eps_mode="INSIDE_SQRT"/>
			<input>
				<port id="0" precision="FP16">
					<dim>1</dim>
					<dim>32</dim>
					<dim>240</dim>
					<dim>135</dim>
				</port>
				<port id="1" precision="I64">
					<dim>2</dim>
				</port>
			</input>
			<output>
				<port id="2" precision="FP16">
					<dim>1</dim>
					<dim>32</dim>
					<dim>240</dim>
					<dim>135</dim>
				</port>
			</output>
		</layer>
		<layer id="123" name="res2.conv1.2.weight" type="Const" version="opset1">
			<data element_type="f16" shape="1, 32, 1, 1" offset="71578" size="64"/>
			<output>
				<port id="0" precision="FP16" names="res2.conv1.2.weight">
					<dim>1</dim>
					<dim>32</dim>
					<dim>1</dim>
					<dim>1</dim>
				</port>
			</output>
		</layer>
		<layer id="124" name="InstanceNormalization_23/Ins_Norm/mul_" type="Multiply" version="opset1">
			<data auto_broadcast="numpy"/>
			<input>
				<port id="0" precision="FP16">
					<dim>1</dim>
					<dim>32</dim>
					<dim>240</dim>
					<dim>135</dim>
				</port>
				<port id="1" precision="FP16">
					<dim>1</dim>
					<dim>32</dim>
					<dim>1</dim>
					<dim>1</dim>
				</port>
			</input>
			<output>
				<port id="2" precision="FP16">
					<dim>1</dim>
					<dim>32</dim>
					<dim>240</dim>
					<dim>135</dim>
				</port>
			</output>
		</layer>
		<layer id="125" name="res2.conv1.2.bias" type="Const" version="opset1">
			<data element_type="f16" shape="1, 32, 1, 1" offset="71642" size="64"/>
			<output>
				<port id="0" precision="FP16" names="res2.conv1.2.bias">
					<dim>1</dim>
					<dim>32</dim>
					<dim>1</dim>
					<dim>1</dim>
				</port>
			</output>
		</layer>
		<layer id="126" name="InstanceNormalization_23" type="Add" version="opset1">
			<data auto_broadcast="numpy"/>
			<input>
				<port id="0" precision="FP16">
					<dim>1</dim>
					<dim>32</dim>
					<dim>240</dim>
					<dim>135</dim>
				</port>
				<port id="1" precision="FP16">
					<dim>1</dim>
					<dim>32</dim>
					<dim>1</dim>
					<dim>1</dim>
				</port>
			</input>
			<output>
				<port id="2" precision="FP16" names="86">
					<dim>1</dim>
					<dim>32</dim>
					<dim>240</dim>
					<dim>135</dim>
				</port>
			</output>
		</layer>
		<layer id="127" name="Relu_24" type="ReLU" version="opset1">
			<input>
				<port id="0" precision="FP16">
					<dim>1</dim>
					<dim>32</dim>
					<dim>240</dim>
					<dim>135</dim>
				</port>
			</input>
			<output>
				<port id="1" precision="FP16" names="87">
					<dim>1</dim>
					<dim>32</dim>
					<dim>240</dim>
					<dim>135</dim>
				</port>
			</output>
		</layer>
		<layer id="128" name="372" type="Const" version="opset1">
			<data element_type="i64" shape="4" offset="3994" size="32"/>
			<output>
				<port id="0" precision="I64">
					<dim>4</dim>
				</port>
			</output>
		</layer>
		<layer id="129" name="373" type="Const" version="opset1">
			<data element_type="i64" shape="4" offset="3994" size="32"/>
			<output>
				<port id="0" precision="I64">
					<dim>4</dim>
				</port>
			</output>
		</layer>
		<layer id="130" name="Constant_267" type="Const" version="opset1">
			<data element_type="f16" shape="" offset="32" size="2"/>
			<output>
				<port id="0" precision="FP16"/>
			</output>
		</layer>
		<layer id="131" name="Pad_25" type="Pad" version="opset1">
			<data pad_mode="reflect"/>
			<input>
				<port id="0" precision="FP16">
					<dim>1</dim>
					<dim>32</dim>
					<dim>240</dim>
					<dim>135</dim>
				</port>
				<port id="1" precision="I64">
					<dim>4</dim>
				</port>
				<port id="2" precision="I64">
					<dim>4</dim>
				</port>
				<port id="3" precision="FP16"/>
			</input>
			<output>
				<port id="4" precision="FP16" names="88">
					<dim>1</dim>
					<dim>32</dim>
					<dim>242</dim>
					<dim>137</dim>
				</port>
			</output>
		</layer>
		<layer id="132" name="res2.conv2.1.weight" type="Const" version="opset1">
			<data element_type="f16" shape="32, 32, 3, 3" offset="71706" size="18432"/>
			<output>
				<port id="0" precision="FP16" names="res2.conv2.1.weight">
					<dim>32</dim>
					<dim>32</dim>
					<dim>3</dim>
					<dim>3</dim>
				</port>
			</output>
		</layer>
		<layer id="133" name="Conv_26/WithoutBiases" type="Convolution" version="opset1">
			<data strides="1, 1" dilations="1, 1" pads_begin="0, 0" pads_end="0, 0" auto_pad="explicit"/>
			<input>
				<port id="0" precision="FP16">
					<dim>1</dim>
					<dim>32</dim>
					<dim>242</dim>
					<dim>137</dim>
				</port>
				<port id="1" precision="FP16">
					<dim>32</dim>
					<dim>32</dim>
					<dim>3</dim>
					<dim>3</dim>
				</port>
			</input>
			<output>
				<port id="2" precision="FP16">
					<dim>1</dim>
					<dim>32</dim>
					<dim>240</dim>
					<dim>135</dim>
				</port>
			</output>
		</layer>
		<layer id="134" name="Conv_26/Dims2985" type="Const" version="opset1">
			<data element_type="f16" shape="1, 32, 1, 1" offset="90138" size="64"/>
			<output>
				<port id="0" precision="FP16">
					<dim>1</dim>
					<dim>32</dim>
					<dim>1</dim>
					<dim>1</dim>
				</port>
			</output>
		</layer>
		<layer id="135" name="Conv_26" type="Add" version="opset1">
			<data auto_broadcast="numpy"/>
			<input>
				<port id="0" precision="FP16">
					<dim>1</dim>
					<dim>32</dim>
					<dim>240</dim>
					<dim>135</dim>
				</port>
				<port id="1" precision="FP16">
					<dim>1</dim>
					<dim>32</dim>
					<dim>1</dim>
					<dim>1</dim>
				</port>
			</input>
			<output>
				<port id="2" precision="FP16" names="89">
					<dim>1</dim>
					<dim>32</dim>
					<dim>240</dim>
					<dim>135</dim>
				</port>
			</output>
		</layer>
		<layer id="136" name="InstanceNormalization_27/Range_input_port_0/value" type="Const" version="opset1">
			<data element_type="i64" shape="" offset="3938" size="8"/>
			<output>
				<port id="0" precision="I64"/>
			</output>
		</layer>
		<layer id="137" name="InstanceNormalization_27/Rank/shape_of" type="ShapeOf" version="opset3">
			<data output_type="i64"/>
			<input>
				<port id="0" precision="FP16">
					<dim>1</dim>
					<dim>32</dim>
					<dim>240</dim>
					<dim>135</dim>
				</port>
			</input>
			<output>
				<port id="1" precision="I64">
					<dim>4</dim>
				</port>
			</output>
		</layer>
		<layer id="138" name="InstanceNormalization_27/Rank/rank_of" type="ShapeOf" version="opset3">
			<data output_type="i64"/>
			<input>
				<port id="0" precision="I64">
					<dim>4</dim>
				</port>
			</input>
			<output>
				<port id="1" precision="I64">
					<dim>1</dim>
				</port>
			</output>
		</layer>
		<layer id="139" name="InstanceNormalization_27/Rank/0d_rank_of/value" type="Const" version="opset1">
			<data element_type="i64" shape="1" offset="3946" size="8"/>
			<output>
				<port id="0" precision="I64">
					<dim>1</dim>
				</port>
			</output>
		</layer>
		<layer id="140" name="InstanceNormalization_27/Rank" type="Squeeze" version="opset1">
			<input>
				<port id="0" precision="I64">
					<dim>1</dim>
				</port>
				<port id="1" precision="I64">
					<dim>1</dim>
				</port>
			</input>
			<output>
				<port id="2" precision="I64"/>
			</output>
		</layer>
		<layer id="141" name="InstanceNormalization_27/Range_input_port_2/value" type="Const" version="opset1">
			<data element_type="i64" shape="" offset="3954" size="8"/>
			<output>
				<port id="0" precision="I64"/>
			</output>
		</layer>
		<layer id="142" name="InstanceNormalization_27/Range" type="Range" version="opset4">
			<data output_type="i64"/>
			<input>
				<port id="0" precision="I64"/>
				<port id="1" precision="I64"/>
				<port id="2" precision="I64"/>
			</input>
			<output>
				<port id="3" precision="I64">
					<dim>2</dim>
				</port>
			</output>
		</layer>
		<layer id="143" name="InstanceNormalization_27/Ins_Norm/MVN_" type="MVN" version="opset6">
			<data eps="9.9999997473787516e-06" normalize_variance="true" eps_mode="INSIDE_SQRT"/>
			<input>
				<port id="0" precision="FP16">
					<dim>1</dim>
					<dim>32</dim>
					<dim>240</dim>
					<dim>135</dim>
				</port>
				<port id="1" precision="I64">
					<dim>2</dim>
				</port>
			</input>
			<output>
				<port id="2" precision="FP16">
					<dim>1</dim>
					<dim>32</dim>
					<dim>240</dim>
					<dim>135</dim>
				</port>
			</output>
		</layer>
		<layer id="144" name="res2.conv2.2.weight" type="Const" version="opset1">
			<data element_type="f16" shape="1, 32, 1, 1" offset="90202" size="64"/>
			<output>
				<port id="0" precision="FP16" names="res2.conv2.2.weight">
					<dim>1</dim>
					<dim>32</dim>
					<dim>1</dim>
					<dim>1</dim>
				</port>
			</output>
		</layer>
		<layer id="145" name="InstanceNormalization_27/Ins_Norm/mul_" type="Multiply" version="opset1">
			<data auto_broadcast="numpy"/>
			<input>
				<port id="0" precision="FP16">
					<dim>1</dim>
					<dim>32</dim>
					<dim>240</dim>
					<dim>135</dim>
				</port>
				<port id="1" precision="FP16">
					<dim>1</dim>
					<dim>32</dim>
					<dim>1</dim>
					<dim>1</dim>
				</port>
			</input>
			<output>
				<port id="2" precision="FP16">
					<dim>1</dim>
					<dim>32</dim>
					<dim>240</dim>
					<dim>135</dim>
				</port>
			</output>
		</layer>
		<layer id="146" name="res2.conv2.2.bias" type="Const" version="opset1">
			<data element_type="f16" shape="1, 32, 1, 1" offset="90266" size="64"/>
			<output>
				<port id="0" precision="FP16" names="res2.conv2.2.bias">
					<dim>1</dim>
					<dim>32</dim>
					<dim>1</dim>
					<dim>1</dim>
				</port>
			</output>
		</layer>
		<layer id="147" name="InstanceNormalization_27" type="Add" version="opset1">
			<data auto_broadcast="numpy"/>
			<input>
				<port id="0" precision="FP16">
					<dim>1</dim>
					<dim>32</dim>
					<dim>240</dim>
					<dim>135</dim>
				</port>
				<port id="1" precision="FP16">
					<dim>1</dim>
					<dim>32</dim>
					<dim>1</dim>
					<dim>1</dim>
				</port>
			</input>
			<output>
				<port id="2" precision="FP16" names="90">
					<dim>1</dim>
					<dim>32</dim>
					<dim>240</dim>
					<dim>135</dim>
				</port>
			</output>
		</layer>
		<layer id="148" name="Relu_28" type="ReLU" version="opset1">
			<input>
				<port id="0" precision="FP16">
					<dim>1</dim>
					<dim>32</dim>
					<dim>240</dim>
					<dim>135</dim>
				</port>
			</input>
			<output>
				<port id="1" precision="FP16" names="91">
					<dim>1</dim>
					<dim>32</dim>
					<dim>240</dim>
					<dim>135</dim>
				</port>
			</output>
		</layer>
		<layer id="149" name="Add_29" type="Add" version="opset1">
			<data auto_broadcast="numpy"/>
			<input>
				<port id="0" precision="FP16">
					<dim>1</dim>
					<dim>32</dim>
					<dim>240</dim>
					<dim>135</dim>
				</port>
				<port id="1" precision="FP16">
					<dim>1</dim>
					<dim>32</dim>
					<dim>240</dim>
					<dim>135</dim>
				</port>
			</input>
			<output>
				<port id="2" precision="FP16" names="92">
					<dim>1</dim>
					<dim>32</dim>
					<dim>240</dim>
					<dim>135</dim>
				</port>
			</output>
		</layer>
		<layer id="150" name="375" type="Const" version="opset1">
			<data element_type="i64" shape="4" offset="3994" size="32"/>
			<output>
				<port id="0" precision="I64">
					<dim>4</dim>
				</port>
			</output>
		</layer>
		<layer id="151" name="376" type="Const" version="opset1">
			<data element_type="i64" shape="4" offset="3994" size="32"/>
			<output>
				<port id="0" precision="I64">
					<dim>4</dim>
				</port>
			</output>
		</layer>
		<layer id="152" name="Constant_312" type="Const" version="opset1">
			<data element_type="f16" shape="" offset="32" size="2"/>
			<output>
				<port id="0" precision="FP16"/>
			</output>
		</layer>
		<layer id="153" name="Pad_30" type="Pad" version="opset1">
			<data pad_mode="reflect"/>
			<input>
				<port id="0" precision="FP16">
					<dim>1</dim>
					<dim>32</dim>
					<dim>240</dim>
					<dim>135</dim>
				</port>
				<port id="1" precision="I64">
					<dim>4</dim>
				</port>
				<port id="2" precision="I64">
					<dim>4</dim>
				</port>
				<port id="3" precision="FP16"/>
			</input>
			<output>
				<port id="4" precision="FP16" names="93">
					<dim>1</dim>
					<dim>32</dim>
					<dim>242</dim>
					<dim>137</dim>
				</port>
			</output>
		</layer>
		<layer id="154" name="res3.conv1.1.weight" type="Const" version="opset1">
			<data element_type="f16" shape="32, 32, 3, 3" offset="90330" size="18432"/>
			<output>
				<port id="0" precision="FP16" names="res3.conv1.1.weight">
					<dim>32</dim>
					<dim>32</dim>
					<dim>3</dim>
					<dim>3</dim>
				</port>
			</output>
		</layer>
		<layer id="155" name="Conv_31/WithoutBiases" type="Convolution" version="opset1">
			<data strides="1, 1" dilations="1, 1" pads_begin="0, 0" pads_end="0, 0" auto_pad="explicit"/>
			<input>
				<port id="0" precision="FP16">
					<dim>1</dim>
					<dim>32</dim>
					<dim>242</dim>
					<dim>137</dim>
				</port>
				<port id="1" precision="FP16">
					<dim>32</dim>
					<dim>32</dim>
					<dim>3</dim>
					<dim>3</dim>
				</port>
			</input>
			<output>
				<port id="2" precision="FP16">
					<dim>1</dim>
					<dim>32</dim>
					<dim>240</dim>
					<dim>135</dim>
				</port>
			</output>
		</layer>
		<layer id="156" name="Conv_31/Dims2991" type="Const" version="opset1">
			<data element_type="f16" shape="1, 32, 1, 1" offset="108762" size="64"/>
			<output>
				<port id="0" precision="FP16">
					<dim>1</dim>
					<dim>32</dim>
					<dim>1</dim>
					<dim>1</dim>
				</port>
			</output>
		</layer>
		<layer id="157" name="Conv_31" type="Add" version="opset1">
			<data auto_broadcast="numpy"/>
			<input>
				<port id="0" precision="FP16">
					<dim>1</dim>
					<dim>32</dim>
					<dim>240</dim>
					<dim>135</dim>
				</port>
				<port id="1" precision="FP16">
					<dim>1</dim>
					<dim>32</dim>
					<dim>1</dim>
					<dim>1</dim>
				</port>
			</input>
			<output>
				<port id="2" precision="FP16" names="94">
					<dim>1</dim>
					<dim>32</dim>
					<dim>240</dim>
					<dim>135</dim>
				</port>
			</output>
		</layer>
		<layer id="158" name="InstanceNormalization_32/Range_input_port_0/value" type="Const" version="opset1">
			<data element_type="i64" shape="" offset="3938" size="8"/>
			<output>
				<port id="0" precision="I64"/>
			</output>
		</layer>
		<layer id="159" name="InstanceNormalization_32/Rank/shape_of" type="ShapeOf" version="opset3">
			<data output_type="i64"/>
			<input>
				<port id="0" precision="FP16">
					<dim>1</dim>
					<dim>32</dim>
					<dim>240</dim>
					<dim>135</dim>
				</port>
			</input>
			<output>
				<port id="1" precision="I64">
					<dim>4</dim>
				</port>
			</output>
		</layer>
		<layer id="160" name="InstanceNormalization_32/Rank/rank_of" type="ShapeOf" version="opset3">
			<data output_type="i64"/>
			<input>
				<port id="0" precision="I64">
					<dim>4</dim>
				</port>
			</input>
			<output>
				<port id="1" precision="I64">
					<dim>1</dim>
				</port>
			</output>
		</layer>
		<layer id="161" name="InstanceNormalization_32/Rank/0d_rank_of/value" type="Const" version="opset1">
			<data element_type="i64" shape="1" offset="3946" size="8"/>
			<output>
				<port id="0" precision="I64">
					<dim>1</dim>
				</port>
			</output>
		</layer>
		<layer id="162" name="InstanceNormalization_32/Rank" type="Squeeze" version="opset1">
			<input>
				<port id="0" precision="I64">
					<dim>1</dim>
				</port>
				<port id="1" precision="I64">
					<dim>1</dim>
				</port>
			</input>
			<output>
				<port id="2" precision="I64"/>
			</output>
		</layer>
		<layer id="163" name="InstanceNormalization_32/Range_input_port_2/value" type="Const" version="opset1">
			<data element_type="i64" shape="" offset="3954" size="8"/>
			<output>
				<port id="0" precision="I64"/>
			</output>
		</layer>
		<layer id="164" name="InstanceNormalization_32/Range" type="Range" version="opset4">
			<data output_type="i64"/>
			<input>
				<port id="0" precision="I64"/>
				<port id="1" precision="I64"/>
				<port id="2" precision="I64"/>
			</input>
			<output>
				<port id="3" precision="I64">
					<dim>2</dim>
				</port>
			</output>
		</layer>
		<layer id="165" name="InstanceNormalization_32/Ins_Norm/MVN_" type="MVN" version="opset6">
			<data eps="9.9999997473787516e-06" normalize_variance="true" eps_mode="INSIDE_SQRT"/>
			<input>
				<port id="0" precision="FP16">
					<dim>1</dim>
					<dim>32</dim>
					<dim>240</dim>
					<dim>135</dim>
				</port>
				<port id="1" precision="I64">
					<dim>2</dim>
				</port>
			</input>
			<output>
				<port id="2" precision="FP16">
					<dim>1</dim>
					<dim>32</dim>
					<dim>240</dim>
					<dim>135</dim>
				</port>
			</output>
		</layer>
		<layer id="166" name="res3.conv1.2.weight" type="Const" version="opset1">
			<data element_type="f16" shape="1, 32, 1, 1" offset="108826" size="64"/>
			<output>
				<port id="0" precision="FP16" names="res3.conv1.2.weight">
					<dim>1</dim>
					<dim>32</dim>
					<dim>1</dim>
					<dim>1</dim>
				</port>
			</output>
		</layer>
		<layer id="167" name="InstanceNormalization_32/Ins_Norm/mul_" type="Multiply" version="opset1">
			<data auto_broadcast="numpy"/>
			<input>
				<port id="0" precision="FP16">
					<dim>1</dim>
					<dim>32</dim>
					<dim>240</dim>
					<dim>135</dim>
				</port>
				<port id="1" precision="FP16">
					<dim>1</dim>
					<dim>32</dim>
					<dim>1</dim>
					<dim>1</dim>
				</port>
			</input>
			<output>
				<port id="2" precision="FP16">
					<dim>1</dim>
					<dim>32</dim>
					<dim>240</dim>
					<dim>135</dim>
				</port>
			</output>
		</layer>
		<layer id="168" name="res3.conv1.2.bias" type="Const" version="opset1">
			<data element_type="f16" shape="1, 32, 1, 1" offset="108890" size="64"/>
			<output>
				<port id="0" precision="FP16" names="res3.conv1.2.bias">
					<dim>1</dim>
					<dim>32</dim>
					<dim>1</dim>
					<dim>1</dim>
				</port>
			</output>
		</layer>
		<layer id="169" name="InstanceNormalization_32" type="Add" version="opset1">
			<data auto_broadcast="numpy"/>
			<input>
				<port id="0" precision="FP16">
					<dim>1</dim>
					<dim>32</dim>
					<dim>240</dim>
					<dim>135</dim>
				</port>
				<port id="1" precision="FP16">
					<dim>1</dim>
					<dim>32</dim>
					<dim>1</dim>
					<dim>1</dim>
				</port>
			</input>
			<output>
				<port id="2" precision="FP16" names="95">
					<dim>1</dim>
					<dim>32</dim>
					<dim>240</dim>
					<dim>135</dim>
				</port>
			</output>
		</layer>
		<layer id="170" name="Relu_33" type="ReLU" version="opset1">
			<input>
				<port id="0" precision="FP16">
					<dim>1</dim>
					<dim>32</dim>
					<dim>240</dim>
					<dim>135</dim>
				</port>
			</input>
			<output>
				<port id="1" precision="FP16" names="96">
					<dim>1</dim>
					<dim>32</dim>
					<dim>240</dim>
					<dim>135</dim>
				</port>
			</output>
		</layer>
		<layer id="171" name="378" type="Const" version="opset1">
			<data element_type="i64" shape="4" offset="3994" size="32"/>
			<output>
				<port id="0" precision="I64">
					<dim>4</dim>
				</port>
			</output>
		</layer>
		<layer id="172" name="379" type="Const" version="opset1">
			<data element_type="i64" shape="4" offset="3994" size="32"/>
			<output>
				<port id="0" precision="I64">
					<dim>4</dim>
				</port>
			</output>
		</layer>
		<layer id="173" name="Constant_355" type="Const" version="opset1">
			<data element_type="f16" shape="" offset="32" size="2"/>
			<output>
				<port id="0" precision="FP16"/>
			</output>
		</layer>
		<layer id="174" name="Pad_34" type="Pad" version="opset1">
			<data pad_mode="reflect"/>
			<input>
				<port id="0" precision="FP16">
					<dim>1</dim>
					<dim>32</dim>
					<dim>240</dim>
					<dim>135</dim>
				</port>
				<port id="1" precision="I64">
					<dim>4</dim>
				</port>
				<port id="2" precision="I64">
					<dim>4</dim>
				</port>
				<port id="3" precision="FP16"/>
			</input>
			<output>
				<port id="4" precision="FP16" names="97">
					<dim>1</dim>
					<dim>32</dim>
					<dim>242</dim>
					<dim>137</dim>
				</port>
			</output>
		</layer>
		<layer id="175" name="res3.conv2.1.weight" type="Const" version="opset1">
			<data element_type="f16" shape="32, 32, 3, 3" offset="108954" size="18432"/>
			<output>
				<port id="0" precision="FP16" names="res3.conv2.1.weight">
					<dim>32</dim>
					<dim>32</dim>
					<dim>3</dim>
					<dim>3</dim>
				</port>
			</output>
		</layer>
		<layer id="176" name="Conv_35/WithoutBiases" type="Convolution" version="opset1">
			<data strides="1, 1" dilations="1, 1" pads_begin="0, 0" pads_end="0, 0" auto_pad="explicit"/>
			<input>
				<port id="0" precision="FP16">
					<dim>1</dim>
					<dim>32</dim>
					<dim>242</dim>
					<dim>137</dim>
				</port>
				<port id="1" precision="FP16">
					<dim>32</dim>
					<dim>32</dim>
					<dim>3</dim>
					<dim>3</dim>
				</port>
			</input>
			<output>
				<port id="2" precision="FP16">
					<dim>1</dim>
					<dim>32</dim>
					<dim>240</dim>
					<dim>135</dim>
				</port>
			</output>
		</layer>
		<layer id="177" name="Conv_35/Dims2925" type="Const" version="opset1">
			<data element_type="f16" shape="1, 32, 1, 1" offset="127386" size="64"/>
			<output>
				<port id="0" precision="FP16">
					<dim>1</dim>
					<dim>32</dim>
					<dim>1</dim>
					<dim>1</dim>
				</port>
			</output>
		</layer>
		<layer id="178" name="Conv_35" type="Add" version="opset1">
			<data auto_broadcast="numpy"/>
			<input>
				<port id="0" precision="FP16">
					<dim>1</dim>
					<dim>32</dim>
					<dim>240</dim>
					<dim>135</dim>
				</port>
				<port id="1" precision="FP16">
					<dim>1</dim>
					<dim>32</dim>
					<dim>1</dim>
					<dim>1</dim>
				</port>
			</input>
			<output>
				<port id="2" precision="FP16" names="98">
					<dim>1</dim>
					<dim>32</dim>
					<dim>240</dim>
					<dim>135</dim>
				</port>
			</output>
		</layer>
		<layer id="179" name="InstanceNormalization_36/Range_input_port_0/value" type="Const" version="opset1">
			<data element_type="i64" shape="" offset="3938" size="8"/>
			<output>
				<port id="0" precision="I64"/>
			</output>
		</layer>
		<layer id="180" name="InstanceNormalization_36/Rank/shape_of" type="ShapeOf" version="opset3">
			<data output_type="i64"/>
			<input>
				<port id="0" precision="FP16">
					<dim>1</dim>
					<dim>32</dim>
					<dim>240</dim>
					<dim>135</dim>
				</port>
			</input>
			<output>
				<port id="1" precision="I64">
					<dim>4</dim>
				</port>
			</output>
		</layer>
		<layer id="181" name="InstanceNormalization_36/Rank/rank_of" type="ShapeOf" version="opset3">
			<data output_type="i64"/>
			<input>
				<port id="0" precision="I64">
					<dim>4</dim>
				</port>
			</input>
			<output>
				<port id="1" precision="I64">
					<dim>1</dim>
				</port>
			</output>
		</layer>
		<layer id="182" name="InstanceNormalization_36/Rank/0d_rank_of/value" type="Const" version="opset1">
			<data element_type="i64" shape="1" offset="3946" size="8"/>
			<output>
				<port id="0" precision="I64">
					<dim>1</dim>
				</port>
			</output>
		</layer>
		<layer id="183" name="InstanceNormalization_36/Rank" type="Squeeze" version="opset1">
			<input>
				<port id="0" precision="I64">
					<dim>1</dim>
				</port>
				<port id="1" precision="I64">
					<dim>1</dim>
				</port>
			</input>
			<output>
				<port id="2" precision="I64"/>
			</output>
		</layer>
		<layer id="184" name="InstanceNormalization_36/Range_input_port_2/value" type="Const" version="opset1">
			<data element_type="i64" shape="" offset="3954" size="8"/>
			<output>
				<port id="0" precision="I64"/>
			</output>
		</layer>
		<layer id="185" name="InstanceNormalization_36/Range" type="Range" version="opset4">
			<data output_type="i64"/>
			<input>
				<port id="0" precision="I64"/>
				<port id="1" precision="I64"/>
				<port id="2" precision="I64"/>
			</input>
			<output>
				<port id="3" precision="I64">
					<dim>2</dim>
				</port>
			</output>
		</layer>
		<layer id="186" name="InstanceNormalization_36/Ins_Norm/MVN_" type="MVN" version="opset6">
			<data eps="9.9999997473787516e-06" normalize_variance="true" eps_mode="INSIDE_SQRT"/>
			<input>
				<port id="0" precision="FP16">
					<dim>1</dim>
					<dim>32</dim>
					<dim>240</dim>
					<dim>135</dim>
				</port>
				<port id="1" precision="I64">
					<dim>2</dim>
				</port>
			</input>
			<output>
				<port id="2" precision="FP16">
					<dim>1</dim>
					<dim>32</dim>
					<dim>240</dim>
					<dim>135</dim>
				</port>
			</output>
		</layer>
		<layer id="187" name="res3.conv2.2.weight" type="Const" version="opset1">
			<data element_type="f16" shape="1, 32, 1, 1" offset="127450" size="64"/>
			<output>
				<port id="0" precision="FP16" names="res3.conv2.2.weight">
					<dim>1</dim>
					<dim>32</dim>
					<dim>1</dim>
					<dim>1</dim>
				</port>
			</output>
		</layer>
		<layer id="188" name="InstanceNormalization_36/Ins_Norm/mul_" type="Multiply" version="opset1">
			<data auto_broadcast="numpy"/>
			<input>
				<port id="0" precision="FP16">
					<dim>1</dim>
					<dim>32</dim>
					<dim>240</dim>
					<dim>135</dim>
				</port>
				<port id="1" precision="FP16">
					<dim>1</dim>
					<dim>32</dim>
					<dim>1</dim>
					<dim>1</dim>
				</port>
			</input>
			<output>
				<port id="2" precision="FP16">
					<dim>1</dim>
					<dim>32</dim>
					<dim>240</dim>
					<dim>135</dim>
				</port>
			</output>
		</layer>
		<layer id="189" name="res3.conv2.2.bias" type="Const" version="opset1">
			<data element_type="f16" shape="1, 32, 1, 1" offset="127514" size="64"/>
			<output>
				<port id="0" precision="FP16" names="res3.conv2.2.bias">
					<dim>1</dim>
					<dim>32</dim>
					<dim>1</dim>
					<dim>1</dim>
				</port>
			</output>
		</layer>
		<layer id="190" name="InstanceNormalization_36" type="Add" version="opset1">
			<data auto_broadcast="numpy"/>
			<input>
				<port id="0" precision="FP16">
					<dim>1</dim>
					<dim>32</dim>
					<dim>240</dim>
					<dim>135</dim>
				</port>
				<port id="1" precision="FP16">
					<dim>1</dim>
					<dim>32</dim>
					<dim>1</dim>
					<dim>1</dim>
				</port>
			</input>
			<output>
				<port id="2" precision="FP16" names="99">
					<dim>1</dim>
					<dim>32</dim>
					<dim>240</dim>
					<dim>135</dim>
				</port>
			</output>
		</layer>
		<layer id="191" name="Relu_37" type="ReLU" version="opset1">
			<input>
				<port id="0" precision="FP16">
					<dim>1</dim>
					<dim>32</dim>
					<dim>240</dim>
					<dim>135</dim>
				</port>
			</input>
			<output>
				<port id="1" precision="FP16" names="100">
					<dim>1</dim>
					<dim>32</dim>
					<dim>240</dim>
					<dim>135</dim>
				</port>
			</output>
		</layer>
		<layer id="192" name="Add_38" type="Add" version="opset1">
			<data auto_broadcast="numpy"/>
			<input>
				<port id="0" precision="FP16">
					<dim>1</dim>
					<dim>32</dim>
					<dim>240</dim>
					<dim>135</dim>
				</port>
				<port id="1" precision="FP16">
					<dim>1</dim>
					<dim>32</dim>
					<dim>240</dim>
					<dim>135</dim>
				</port>
			</input>
			<output>
				<port id="2" precision="FP16" names="101">
					<dim>1</dim>
					<dim>32</dim>
					<dim>240</dim>
					<dim>135</dim>
				</port>
			</output>
		</layer>
		<layer id="193" name="381" type="Const" version="opset1">
			<data element_type="i64" shape="4" offset="3994" size="32"/>
			<output>
				<port id="0" precision="I64">
					<dim>4</dim>
				</port>
			</output>
		</layer>
		<layer id="194" name="382" type="Const" version="opset1">
			<data element_type="i64" shape="4" offset="3994" size="32"/>
			<output>
				<port id="0" precision="I64">
					<dim>4</dim>
				</port>
			</output>
		</layer>
		<layer id="195" name="Constant_400" type="Const" version="opset1">
			<data element_type="f16" shape="" offset="32" size="2"/>
			<output>
				<port id="0" precision="FP16"/>
			</output>
		</layer>
		<layer id="196" name="Pad_39" type="Pad" version="opset1">
			<data pad_mode="reflect"/>
			<input>
				<port id="0" precision="FP16">
					<dim>1</dim>
					<dim>32</dim>
					<dim>240</dim>
					<dim>135</dim>
				</port>
				<port id="1" precision="I64">
					<dim>4</dim>
				</port>
				<port id="2" precision="I64">
					<dim>4</dim>
				</port>
				<port id="3" precision="FP16"/>
			</input>
			<output>
				<port id="4" precision="FP16" names="102">
					<dim>1</dim>
					<dim>32</dim>
					<dim>242</dim>
					<dim>137</dim>
				</port>
			</output>
		</layer>
		<layer id="197" name="res4.conv1.1.weight" type="Const" version="opset1">
			<data element_type="f16" shape="32, 32, 3, 3" offset="127578" size="18432"/>
			<output>
				<port id="0" precision="FP16" names="res4.conv1.1.weight">
					<dim>32</dim>
					<dim>32</dim>
					<dim>3</dim>
					<dim>3</dim>
				</port>
			</output>
		</layer>
		<layer id="198" name="Conv_40/WithoutBiases" type="Convolution" version="opset1">
			<data strides="1, 1" dilations="1, 1" pads_begin="0, 0" pads_end="0, 0" auto_pad="explicit"/>
			<input>
				<port id="0" precision="FP16">
					<dim>1</dim>
					<dim>32</dim>
					<dim>242</dim>
					<dim>137</dim>
				</port>
				<port id="1" precision="FP16">
					<dim>32</dim>
					<dim>32</dim>
					<dim>3</dim>
					<dim>3</dim>
				</port>
			</input>
			<output>
				<port id="2" precision="FP16">
					<dim>1</dim>
					<dim>32</dim>
					<dim>240</dim>
					<dim>135</dim>
				</port>
			</output>
		</layer>
		<layer id="199" name="Conv_40/Dims2943" type="Const" version="opset1">
			<data element_type="f16" shape="1, 32, 1, 1" offset="146010" size="64"/>
			<output>
				<port id="0" precision="FP16">
					<dim>1</dim>
					<dim>32</dim>
					<dim>1</dim>
					<dim>1</dim>
				</port>
			</output>
		</layer>
		<layer id="200" name="Conv_40" type="Add" version="opset1">
			<data auto_broadcast="numpy"/>
			<input>
				<port id="0" precision="FP16">
					<dim>1</dim>
					<dim>32</dim>
					<dim>240</dim>
					<dim>135</dim>
				</port>
				<port id="1" precision="FP16">
					<dim>1</dim>
					<dim>32</dim>
					<dim>1</dim>
					<dim>1</dim>
				</port>
			</input>
			<output>
				<port id="2" precision="FP16" names="103">
					<dim>1</dim>
					<dim>32</dim>
					<dim>240</dim>
					<dim>135</dim>
				</port>
			</output>
		</layer>
		<layer id="201" name="InstanceNormalization_41/Range_input_port_0/value" type="Const" version="opset1">
			<data element_type="i64" shape="" offset="3938" size="8"/>
			<output>
				<port id="0" precision="I64"/>
			</output>
		</layer>
		<layer id="202" name="InstanceNormalization_41/Rank/shape_of" type="ShapeOf" version="opset3">
			<data output_type="i64"/>
			<input>
				<port id="0" precision="FP16">
					<dim>1</dim>
					<dim>32</dim>
					<dim>240</dim>
					<dim>135</dim>
				</port>
			</input>
			<output>
				<port id="1" precision="I64">
					<dim>4</dim>
				</port>
			</output>
		</layer>
		<layer id="203" name="InstanceNormalization_41/Rank/rank_of" type="ShapeOf" version="opset3">
			<data output_type="i64"/>
			<input>
				<port id="0" precision="I64">
					<dim>4</dim>
				</port>
			</input>
			<output>
				<port id="1" precision="I64">
					<dim>1</dim>
				</port>
			</output>
		</layer>
		<layer id="204" name="InstanceNormalization_41/Rank/0d_rank_of/value" type="Const" version="opset1">
			<data element_type="i64" shape="1" offset="3946" size="8"/>
			<output>
				<port id="0" precision="I64">
					<dim>1</dim>
				</port>
			</output>
		</layer>
		<layer id="205" name="InstanceNormalization_41/Rank" type="Squeeze" version="opset1">
			<input>
				<port id="0" precision="I64">
					<dim>1</dim>
				</port>
				<port id="1" precision="I64">
					<dim>1</dim>
				</port>
			</input>
			<output>
				<port id="2" precision="I64"/>
			</output>
		</layer>
		<layer id="206" name="InstanceNormalization_41/Range_input_port_2/value" type="Const" version="opset1">
			<data element_type="i64" shape="" offset="3954" size="8"/>
			<output>
				<port id="0" precision="I64"/>
			</output>
		</layer>
		<layer id="207" name="InstanceNormalization_41/Range" type="Range" version="opset4">
			<data output_type="i64"/>
			<input>
				<port id="0" precision="I64"/>
				<port id="1" precision="I64"/>
				<port id="2" precision="I64"/>
			</input>
			<output>
				<port id="3" precision="I64">
					<dim>2</dim>
				</port>
			</output>
		</layer>
		<layer id="208" name="InstanceNormalization_41/Ins_Norm/MVN_" type="MVN" version="opset6">
			<data eps="9.9999997473787516e-06" normalize_variance="true" eps_mode="INSIDE_SQRT"/>
			<input>
				<port id="0" precision="FP16">
					<dim>1</dim>
					<dim>32</dim>
					<dim>240</dim>
					<dim>135</dim>
				</port>
				<port id="1" precision="I64">
					<dim>2</dim>
				</port>
			</input>
			<output>
				<port id="2" precision="FP16">
					<dim>1</dim>
					<dim>32</dim>
					<dim>240</dim>
					<dim>135</dim>
				</port>
			</output>
		</layer>
		<layer id="209" name="res4.conv1.2.weight" type="Const" version="opset1">
			<data element_type="f16" shape="1, 32, 1, 1" offset="146074" size="64"/>
			<output>
				<port id="0" precision="FP16" names="res4.conv1.2.weight">
					<dim>1</dim>
					<dim>32</dim>
					<dim>1</dim>
					<dim>1</dim>
				</port>
			</output>
		</layer>
		<layer id="210" name="InstanceNormalization_41/Ins_Norm/mul_" type="Multiply" version="opset1">
			<data auto_broadcast="numpy"/>
			<input>
				<port id="0" precision="FP16">
					<dim>1</dim>
					<dim>32</dim>
					<dim>240</dim>
					<dim>135</dim>
				</port>
				<port id="1" precision="FP16">
					<dim>1</dim>
					<dim>32</dim>
					<dim>1</dim>
					<dim>1</dim>
				</port>
			</input>
			<output>
				<port id="2" precision="FP16">
					<dim>1</dim>
					<dim>32</dim>
					<dim>240</dim>
					<dim>135</dim>
				</port>
			</output>
		</layer>
		<layer id="211" name="res4.conv1.2.bias" type="Const" version="opset1">
			<data element_type="f16" shape="1, 32, 1, 1" offset="146138" size="64"/>
			<output>
				<port id="0" precision="FP16" names="res4.conv1.2.bias">
					<dim>1</dim>
					<dim>32</dim>
					<dim>1</dim>
					<dim>1</dim>
				</port>
			</output>
		</layer>
		<layer id="212" name="InstanceNormalization_41" type="Add" version="opset1">
			<data auto_broadcast="numpy"/>
			<input>
				<port id="0" precision="FP16">
					<dim>1</dim>
					<dim>32</dim>
					<dim>240</dim>
					<dim>135</dim>
				</port>
				<port id="1" precision="FP16">
					<dim>1</dim>
					<dim>32</dim>
					<dim>1</dim>
					<dim>1</dim>
				</port>
			</input>
			<output>
				<port id="2" precision="FP16" names="104">
					<dim>1</dim>
					<dim>32</dim>
					<dim>240</dim>
					<dim>135</dim>
				</port>
			</output>
		</layer>
		<layer id="213" name="Relu_42" type="ReLU" version="opset1">
			<input>
				<port id="0" precision="FP16">
					<dim>1</dim>
					<dim>32</dim>
					<dim>240</dim>
					<dim>135</dim>
				</port>
			</input>
			<output>
				<port id="1" precision="FP16" names="105">
					<dim>1</dim>
					<dim>32</dim>
					<dim>240</dim>
					<dim>135</dim>
				</port>
			</output>
		</layer>
		<layer id="214" name="384" type="Const" version="opset1">
			<data element_type="i64" shape="4" offset="3994" size="32"/>
			<output>
				<port id="0" precision="I64">
					<dim>4</dim>
				</port>
			</output>
		</layer>
		<layer id="215" name="385" type="Const" version="opset1">
			<data element_type="i64" shape="4" offset="3994" size="32"/>
			<output>
				<port id="0" precision="I64">
					<dim>4</dim>
				</port>
			</output>
		</layer>
		<layer id="216" name="Constant_443" type="Const" version="opset1">
			<data element_type="f16" shape="" offset="32" size="2"/>
			<output>
				<port id="0" precision="FP16"/>
			</output>
		</layer>
		<layer id="217" name="Pad_43" type="Pad" version="opset1">
			<data pad_mode="reflect"/>
			<input>
				<port id="0" precision="FP16">
					<dim>1</dim>
					<dim>32</dim>
					<dim>240</dim>
					<dim>135</dim>
				</port>
				<port id="1" precision="I64">
					<dim>4</dim>
				</port>
				<port id="2" precision="I64">
					<dim>4</dim>
				</port>
				<port id="3" precision="FP16"/>
			</input>
			<output>
				<port id="4" precision="FP16" names="106">
					<dim>1</dim>
					<dim>32</dim>
					<dim>242</dim>
					<dim>137</dim>
				</port>
			</output>
		</layer>
		<layer id="218" name="res4.conv2.1.weight" type="Const" version="opset1">
			<data element_type="f16" shape="32, 32, 3, 3" offset="146202" size="18432"/>
			<output>
				<port id="0" precision="FP16" names="res4.conv2.1.weight">
					<dim>32</dim>
					<dim>32</dim>
					<dim>3</dim>
					<dim>3</dim>
				</port>
			</output>
		</layer>
		<layer id="219" name="Conv_44/WithoutBiases" type="Convolution" version="opset1">
			<data strides="1, 1" dilations="1, 1" pads_begin="0, 0" pads_end="0, 0" auto_pad="explicit"/>
			<input>
				<port id="0" precision="FP16">
					<dim>1</dim>
					<dim>32</dim>
					<dim>242</dim>
					<dim>137</dim>
				</port>
				<port id="1" precision="FP16">
					<dim>32</dim>
					<dim>32</dim>
					<dim>3</dim>
					<dim>3</dim>
				</port>
			</input>
			<output>
				<port id="2" precision="FP16">
					<dim>1</dim>
					<dim>32</dim>
					<dim>240</dim>
					<dim>135</dim>
				</port>
			</output>
		</layer>
		<layer id="220" name="Conv_44/Dims2937" type="Const" version="opset1">
			<data element_type="f16" shape="1, 32, 1, 1" offset="164634" size="64"/>
			<output>
				<port id="0" precision="FP16">
					<dim>1</dim>
					<dim>32</dim>
					<dim>1</dim>
					<dim>1</dim>
				</port>
			</output>
		</layer>
		<layer id="221" name="Conv_44" type="Add" version="opset1">
			<data auto_broadcast="numpy"/>
			<input>
				<port id="0" precision="FP16">
					<dim>1</dim>
					<dim>32</dim>
					<dim>240</dim>
					<dim>135</dim>
				</port>
				<port id="1" precision="FP16">
					<dim>1</dim>
					<dim>32</dim>
					<dim>1</dim>
					<dim>1</dim>
				</port>
			</input>
			<output>
				<port id="2" precision="FP16" names="107">
					<dim>1</dim>
					<dim>32</dim>
					<dim>240</dim>
					<dim>135</dim>
				</port>
			</output>
		</layer>
		<layer id="222" name="InstanceNormalization_45/Range_input_port_0/value" type="Const" version="opset1">
			<data element_type="i64" shape="" offset="3938" size="8"/>
			<output>
				<port id="0" precision="I64"/>
			</output>
		</layer>
		<layer id="223" name="InstanceNormalization_45/Rank/shape_of" type="ShapeOf" version="opset3">
			<data output_type="i64"/>
			<input>
				<port id="0" precision="FP16">
					<dim>1</dim>
					<dim>32</dim>
					<dim>240</dim>
					<dim>135</dim>
				</port>
			</input>
			<output>
				<port id="1" precision="I64">
					<dim>4</dim>
				</port>
			</output>
		</layer>
		<layer id="224" name="InstanceNormalization_45/Rank/rank_of" type="ShapeOf" version="opset3">
			<data output_type="i64"/>
			<input>
				<port id="0" precision="I64">
					<dim>4</dim>
				</port>
			</input>
			<output>
				<port id="1" precision="I64">
					<dim>1</dim>
				</port>
			</output>
		</layer>
		<layer id="225" name="InstanceNormalization_45/Rank/0d_rank_of/value" type="Const" version="opset1">
			<data element_type="i64" shape="1" offset="3946" size="8"/>
			<output>
				<port id="0" precision="I64">
					<dim>1</dim>
				</port>
			</output>
		</layer>
		<layer id="226" name="InstanceNormalization_45/Rank" type="Squeeze" version="opset1">
			<input>
				<port id="0" precision="I64">
					<dim>1</dim>
				</port>
				<port id="1" precision="I64">
					<dim>1</dim>
				</port>
			</input>
			<output>
				<port id="2" precision="I64"/>
			</output>
		</layer>
		<layer id="227" name="InstanceNormalization_45/Range_input_port_2/value" type="Const" version="opset1">
			<data element_type="i64" shape="" offset="3954" size="8"/>
			<output>
				<port id="0" precision="I64"/>
			</output>
		</layer>
		<layer id="228" name="InstanceNormalization_45/Range" type="Range" version="opset4">
			<data output_type="i64"/>
			<input>
				<port id="0" precision="I64"/>
				<port id="1" precision="I64"/>
				<port id="2" precision="I64"/>
			</input>
			<output>
				<port id="3" precision="I64">
					<dim>2</dim>
				</port>
			</output>
		</layer>
		<layer id="229" name="InstanceNormalization_45/Ins_Norm/MVN_" type="MVN" version="opset6">
			<data eps="9.9999997473787516e-06" normalize_variance="true" eps_mode="INSIDE_SQRT"/>
			<input>
				<port id="0" precision="FP16">
					<dim>1</dim>
					<dim>32</dim>
					<dim>240</dim>
					<dim>135</dim>
				</port>
				<port id="1" precision="I64">
					<dim>2</dim>
				</port>
			</input>
			<output>
				<port id="2" precision="FP16">
					<dim>1</dim>
					<dim>32</dim>
					<dim>240</dim>
					<dim>135</dim>
				</port>
			</output>
		</layer>
		<layer id="230" name="res4.conv2.2.weight" type="Const" version="opset1">
			<data element_type="f16" shape="1, 32, 1, 1" offset="164698" size="64"/>
			<output>
				<port id="0" precision="FP16" names="res4.conv2.2.weight">
					<dim>1</dim>
					<dim>32</dim>
					<dim>1</dim>
					<dim>1</dim>
				</port>
			</output>
		</layer>
		<layer id="231" name="InstanceNormalization_45/Ins_Norm/mul_" type="Multiply" version="opset1">
			<data auto_broadcast="numpy"/>
			<input>
				<port id="0" precision="FP16">
					<dim>1</dim>
					<dim>32</dim>
					<dim>240</dim>
					<dim>135</dim>
				</port>
				<port id="1" precision="FP16">
					<dim>1</dim>
					<dim>32</dim>
					<dim>1</dim>
					<dim>1</dim>
				</port>
			</input>
			<output>
				<port id="2" precision="FP16">
					<dim>1</dim>
					<dim>32</dim>
					<dim>240</dim>
					<dim>135</dim>
				</port>
			</output>
		</layer>
		<layer id="232" name="res4.conv2.2.bias" type="Const" version="opset1">
			<data element_type="f16" shape="1, 32, 1, 1" offset="164762" size="64"/>
			<output>
				<port id="0" precision="FP16" names="res4.conv2.2.bias">
					<dim>1</dim>
					<dim>32</dim>
					<dim>1</dim>
					<dim>1</dim>
				</port>
			</output>
		</layer>
		<layer id="233" name="InstanceNormalization_45" type="Add" version="opset1">
			<data auto_broadcast="numpy"/>
			<input>
				<port id="0" precision="FP16">
					<dim>1</dim>
					<dim>32</dim>
					<dim>240</dim>
					<dim>135</dim>
				</port>
				<port id="1" precision="FP16">
					<dim>1</dim>
					<dim>32</dim>
					<dim>1</dim>
					<dim>1</dim>
				</port>
			</input>
			<output>
				<port id="2" precision="FP16" names="108">
					<dim>1</dim>
					<dim>32</dim>
					<dim>240</dim>
					<dim>135</dim>
				</port>
			</output>
		</layer>
		<layer id="234" name="Relu_46" type="ReLU" version="opset1">
			<input>
				<port id="0" precision="FP16">
					<dim>1</dim>
					<dim>32</dim>
					<dim>240</dim>
					<dim>135</dim>
				</port>
			</input>
			<output>
				<port id="1" precision="FP16" names="109">
					<dim>1</dim>
					<dim>32</dim>
					<dim>240</dim>
					<dim>135</dim>
				</port>
			</output>
		</layer>
		<layer id="235" name="Add_47" type="Add" version="opset1">
			<data auto_broadcast="numpy"/>
			<input>
				<port id="0" precision="FP16">
					<dim>1</dim>
					<dim>32</dim>
					<dim>240</dim>
					<dim>135</dim>
				</port>
				<port id="1" precision="FP16">
					<dim>1</dim>
					<dim>32</dim>
					<dim>240</dim>
					<dim>135</dim>
				</port>
			</input>
			<output>
				<port id="2" precision="FP16" names="110">
					<dim>1</dim>
					<dim>32</dim>
					<dim>240</dim>
					<dim>135</dim>
				</port>
			</output>
		</layer>
		<layer id="236" name="387" type="Const" version="opset1">
			<data element_type="i64" shape="4" offset="3994" size="32"/>
			<output>
				<port id="0" precision="I64">
					<dim>4</dim>
				</port>
			</output>
		</layer>
		<layer id="237" name="388" type="Const" version="opset1">
			<data element_type="i64" shape="4" offset="3994" size="32"/>
			<output>
				<port id="0" precision="I64">
					<dim>4</dim>
				</port>
			</output>
		</layer>
		<layer id="238" name="Constant_488" type="Const" version="opset1">
			<data element_type="f16" shape="" offset="32" size="2"/>
			<output>
				<port id="0" precision="FP16"/>
			</output>
		</layer>
		<layer id="239" name="Pad_48" type="Pad" version="opset1">
			<data pad_mode="reflect"/>
			<input>
				<port id="0" precision="FP16">
					<dim>1</dim>
					<dim>32</dim>
					<dim>240</dim>
					<dim>135</dim>
				</port>
				<port id="1" precision="I64">
					<dim>4</dim>
				</port>
				<port id="2" precision="I64">
					<dim>4</dim>
				</port>
				<port id="3" precision="FP16"/>
			</input>
			<output>
				<port id="4" precision="FP16" names="111">
					<dim>1</dim>
					<dim>32</dim>
					<dim>242</dim>
					<dim>137</dim>
				</port>
			</output>
		</layer>
		<layer id="240" name="res5.conv1.1.weight" type="Const" version="opset1">
			<data element_type="f16" shape="32, 32, 3, 3" offset="164826" size="18432"/>
			<output>
				<port id="0" precision="FP16" names="res5.conv1.1.weight">
					<dim>32</dim>
					<dim>32</dim>
					<dim>3</dim>
					<dim>3</dim>
				</port>
			</output>
		</layer>
		<layer id="241" name="Conv_49/WithoutBiases" type="Convolution" version="opset1">
			<data strides="1, 1" dilations="1, 1" pads_begin="0, 0" pads_end="0, 0" auto_pad="explicit"/>
			<input>
				<port id="0" precision="FP16">
					<dim>1</dim>
					<dim>32</dim>
					<dim>242</dim>
					<dim>137</dim>
				</port>
				<port id="1" precision="FP16">
					<dim>32</dim>
					<dim>32</dim>
					<dim>3</dim>
					<dim>3</dim>
				</port>
			</input>
			<output>
				<port id="2" precision="FP16">
					<dim>1</dim>
					<dim>32</dim>
					<dim>240</dim>
					<dim>135</dim>
				</port>
			</output>
		</layer>
		<layer id="242" name="Conv_49/Dims3003" type="Const" version="opset1">
			<data element_type="f16" shape="1, 32, 1, 1" offset="183258" size="64"/>
			<output>
				<port id="0" precision="FP16">
					<dim>1</dim>
					<dim>32</dim>
					<dim>1</dim>
					<dim>1</dim>
				</port>
			</output>
		</layer>
		<layer id="243" name="Conv_49" type="Add" version="opset1">
			<data auto_broadcast="numpy"/>
			<input>
				<port id="0" precision="FP16">
					<dim>1</dim>
					<dim>32</dim>
					<dim>240</dim>
					<dim>135</dim>
				</port>
				<port id="1" precision="FP16">
					<dim>1</dim>
					<dim>32</dim>
					<dim>1</dim>
					<dim>1</dim>
				</port>
			</input>
			<output>
				<port id="2" precision="FP16" names="112">
					<dim>1</dim>
					<dim>32</dim>
					<dim>240</dim>
					<dim>135</dim>
				</port>
			</output>
		</layer>
		<layer id="244" name="InstanceNormalization_50/Range_input_port_0/value" type="Const" version="opset1">
			<data element_type="i64" shape="" offset="3938" size="8"/>
			<output>
				<port id="0" precision="I64"/>
			</output>
		</layer>
		<layer id="245" name="InstanceNormalization_50/Rank/shape_of" type="ShapeOf" version="opset3">
			<data output_type="i64"/>
			<input>
				<port id="0" precision="FP16">
					<dim>1</dim>
					<dim>32</dim>
					<dim>240</dim>
					<dim>135</dim>
				</port>
			</input>
			<output>
				<port id="1" precision="I64">
					<dim>4</dim>
				</port>
			</output>
		</layer>
		<layer id="246" name="InstanceNormalization_50/Rank/rank_of" type="ShapeOf" version="opset3">
			<data output_type="i64"/>
			<input>
				<port id="0" precision="I64">
					<dim>4</dim>
				</port>
			</input>
			<output>
				<port id="1" precision="I64">
					<dim>1</dim>
				</port>
			</output>
		</layer>
		<layer id="247" name="InstanceNormalization_50/Rank/0d_rank_of/value" type="Const" version="opset1">
			<data element_type="i64" shape="1" offset="3946" size="8"/>
			<output>
				<port id="0" precision="I64">
					<dim>1</dim>
				</port>
			</output>
		</layer>
		<layer id="248" name="InstanceNormalization_50/Rank" type="Squeeze" version="opset1">
			<input>
				<port id="0" precision="I64">
					<dim>1</dim>
				</port>
				<port id="1" precision="I64">
					<dim>1</dim>
				</port>
			</input>
			<output>
				<port id="2" precision="I64"/>
			</output>
		</layer>
		<layer id="249" name="InstanceNormalization_50/Range_input_port_2/value" type="Const" version="opset1">
			<data element_type="i64" shape="" offset="3954" size="8"/>
			<output>
				<port id="0" precision="I64"/>
			</output>
		</layer>
		<layer id="250" name="InstanceNormalization_50/Range" type="Range" version="opset4">
			<data output_type="i64"/>
			<input>
				<port id="0" precision="I64"/>
				<port id="1" precision="I64"/>
				<port id="2" precision="I64"/>
			</input>
			<output>
				<port id="3" precision="I64">
					<dim>2</dim>
				</port>
			</output>
		</layer>
		<layer id="251" name="InstanceNormalization_50/Ins_Norm/MVN_" type="MVN" version="opset6">
			<data eps="9.9999997473787516e-06" normalize_variance="true" eps_mode="INSIDE_SQRT"/>
			<input>
				<port id="0" precision="FP16">
					<dim>1</dim>
					<dim>32</dim>
					<dim>240</dim>
					<dim>135</dim>
				</port>
				<port id="1" precision="I64">
					<dim>2</dim>
				</port>
			</input>
			<output>
				<port id="2" precision="FP16">
					<dim>1</dim>
					<dim>32</dim>
					<dim>240</dim>
					<dim>135</dim>
				</port>
			</output>
		</layer>
		<layer id="252" name="res5.conv1.2.weight" type="Const" version="opset1">
			<data element_type="f16" shape="1, 32, 1, 1" offset="183322" size="64"/>
			<output>
				<port id="0" precision="FP16" names="res5.conv1.2.weight">
					<dim>1</dim>
					<dim>32</dim>
					<dim>1</dim>
					<dim>1</dim>
				</port>
			</output>
		</layer>
		<layer id="253" name="InstanceNormalization_50/Ins_Norm/mul_" type="Multiply" version="opset1">
			<data auto_broadcast="numpy"/>
			<input>
				<port id="0" precision="FP16">
					<dim>1</dim>
					<dim>32</dim>
					<dim>240</dim>
					<dim>135</dim>
				</port>
				<port id="1" precision="FP16">
					<dim>1</dim>
					<dim>32</dim>
					<dim>1</dim>
					<dim>1</dim>
				</port>
			</input>
			<output>
				<port id="2" precision="FP16">
					<dim>1</dim>
					<dim>32</dim>
					<dim>240</dim>
					<dim>135</dim>
				</port>
			</output>
		</layer>
		<layer id="254" name="res5.conv1.2.bias" type="Const" version="opset1">
			<data element_type="f16" shape="1, 32, 1, 1" offset="183386" size="64"/>
			<output>
				<port id="0" precision="FP16" names="res5.conv1.2.bias">
					<dim>1</dim>
					<dim>32</dim>
					<dim>1</dim>
					<dim>1</dim>
				</port>
			</output>
		</layer>
		<layer id="255" name="InstanceNormalization_50" type="Add" version="opset1">
			<data auto_broadcast="numpy"/>
			<input>
				<port id="0" precision="FP16">
					<dim>1</dim>
					<dim>32</dim>
					<dim>240</dim>
					<dim>135</dim>
				</port>
				<port id="1" precision="FP16">
					<dim>1</dim>
					<dim>32</dim>
					<dim>1</dim>
					<dim>1</dim>
				</port>
			</input>
			<output>
				<port id="2" precision="FP16" names="113">
					<dim>1</dim>
					<dim>32</dim>
					<dim>240</dim>
					<dim>135</dim>
				</port>
			</output>
		</layer>
		<layer id="256" name="Relu_51" type="ReLU" version="opset1">
			<input>
				<port id="0" precision="FP16">
					<dim>1</dim>
					<dim>32</dim>
					<dim>240</dim>
					<dim>135</dim>
				</port>
			</input>
			<output>
				<port id="1" precision="FP16" names="114">
					<dim>1</dim>
					<dim>32</dim>
					<dim>240</dim>
					<dim>135</dim>
				</port>
			</output>
		</layer>
		<layer id="257" name="390" type="Const" version="opset1">
			<data element_type="i64" shape="4" offset="3994" size="32"/>
			<output>
				<port id="0" precision="I64">
					<dim>4</dim>
				</port>
			</output>
		</layer>
		<layer id="258" name="391" type="Const" version="opset1">
			<data element_type="i64" shape="4" offset="3994" size="32"/>
			<output>
				<port id="0" precision="I64">
					<dim>4</dim>
				</port>
			</output>
		</layer>
		<layer id="259" name="Constant_531" type="Const" version="opset1">
			<data element_type="f16" shape="" offset="32" size="2"/>
			<output>
				<port id="0" precision="FP16"/>
			</output>
		</layer>
		<layer id="260" name="Pad_52" type="Pad" version="opset1">
			<data pad_mode="reflect"/>
			<input>
				<port id="0" precision="FP16">
					<dim>1</dim>
					<dim>32</dim>
					<dim>240</dim>
					<dim>135</dim>
				</port>
				<port id="1" precision="I64">
					<dim>4</dim>
				</port>
				<port id="2" precision="I64">
					<dim>4</dim>
				</port>
				<port id="3" precision="FP16"/>
			</input>
			<output>
				<port id="4" precision="FP16" names="115">
					<dim>1</dim>
					<dim>32</dim>
					<dim>242</dim>
					<dim>137</dim>
				</port>
			</output>
		</layer>
		<layer id="261" name="res5.conv2.1.weight" type="Const" version="opset1">
			<data element_type="f16" shape="32, 32, 3, 3" offset="183450" size="18432"/>
			<output>
				<port id="0" precision="FP16" names="res5.conv2.1.weight">
					<dim>32</dim>
					<dim>32</dim>
					<dim>3</dim>
					<dim>3</dim>
				</port>
			</output>
		</layer>
		<layer id="262" name="Conv_53/WithoutBiases" type="Convolution" version="opset1">
			<data strides="1, 1" dilations="1, 1" pads_begin="0, 0" pads_end="0, 0" auto_pad="explicit"/>
			<input>
				<port id="0" precision="FP16">
					<dim>1</dim>
					<dim>32</dim>
					<dim>242</dim>
					<dim>137</dim>
				</port>
				<port id="1" precision="FP16">
					<dim>32</dim>
					<dim>32</dim>
					<dim>3</dim>
					<dim>3</dim>
				</port>
			</input>
			<output>
				<port id="2" precision="FP16">
					<dim>1</dim>
					<dim>32</dim>
					<dim>240</dim>
					<dim>135</dim>
				</port>
			</output>
		</layer>
		<layer id="263" name="Conv_53/Dims2967" type="Const" version="opset1">
			<data element_type="f16" shape="1, 32, 1, 1" offset="201882" size="64"/>
			<output>
				<port id="0" precision="FP16">
					<dim>1</dim>
					<dim>32</dim>
					<dim>1</dim>
					<dim>1</dim>
				</port>
			</output>
		</layer>
		<layer id="264" name="Conv_53" type="Add" version="opset1">
			<data auto_broadcast="numpy"/>
			<input>
				<port id="0" precision="FP16">
					<dim>1</dim>
					<dim>32</dim>
					<dim>240</dim>
					<dim>135</dim>
				</port>
				<port id="1" precision="FP16">
					<dim>1</dim>
					<dim>32</dim>
					<dim>1</dim>
					<dim>1</dim>
				</port>
			</input>
			<output>
				<port id="2" precision="FP16" names="116">
					<dim>1</dim>
					<dim>32</dim>
					<dim>240</dim>
					<dim>135</dim>
				</port>
			</output>
		</layer>
		<layer id="265" name="InstanceNormalization_54/Range_input_port_0/value" type="Const" version="opset1">
			<data element_type="i64" shape="" offset="3938" size="8"/>
			<output>
				<port id="0" precision="I64"/>
			</output>
		</layer>
		<layer id="266" name="InstanceNormalization_54/Rank/shape_of" type="ShapeOf" version="opset3">
			<data output_type="i64"/>
			<input>
				<port id="0" precision="FP16">
					<dim>1</dim>
					<dim>32</dim>
					<dim>240</dim>
					<dim>135</dim>
				</port>
			</input>
			<output>
				<port id="1" precision="I64">
					<dim>4</dim>
				</port>
			</output>
		</layer>
		<layer id="267" name="InstanceNormalization_54/Rank/rank_of" type="ShapeOf" version="opset3">
			<data output_type="i64"/>
			<input>
				<port id="0" precision="I64">
					<dim>4</dim>
				</port>
			</input>
			<output>
				<port id="1" precision="I64">
					<dim>1</dim>
				</port>
			</output>
		</layer>
		<layer id="268" name="InstanceNormalization_54/Rank/0d_rank_of/value" type="Const" version="opset1">
			<data element_type="i64" shape="1" offset="3946" size="8"/>
			<output>
				<port id="0" precision="I64">
					<dim>1</dim>
				</port>
			</output>
		</layer>
		<layer id="269" name="InstanceNormalization_54/Rank" type="Squeeze" version="opset1">
			<input>
				<port id="0" precision="I64">
					<dim>1</dim>
				</port>
				<port id="1" precision="I64">
					<dim>1</dim>
				</port>
			</input>
			<output>
				<port id="2" precision="I64"/>
			</output>
		</layer>
		<layer id="270" name="InstanceNormalization_54/Range_input_port_2/value" type="Const" version="opset1">
			<data element_type="i64" shape="" offset="3954" size="8"/>
			<output>
				<port id="0" precision="I64"/>
			</output>
		</layer>
		<layer id="271" name="InstanceNormalization_54/Range" type="Range" version="opset4">
			<data output_type="i64"/>
			<input>
				<port id="0" precision="I64"/>
				<port id="1" precision="I64"/>
				<port id="2" precision="I64"/>
			</input>
			<output>
				<port id="3" precision="I64">
					<dim>2</dim>
				</port>
			</output>
		</layer>
		<layer id="272" name="InstanceNormalization_54/Ins_Norm/MVN_" type="MVN" version="opset6">
			<data eps="9.9999997473787516e-06" normalize_variance="true" eps_mode="INSIDE_SQRT"/>
			<input>
				<port id="0" precision="FP16">
					<dim>1</dim>
					<dim>32</dim>
					<dim>240</dim>
					<dim>135</dim>
				</port>
				<port id="1" precision="I64">
					<dim>2</dim>
				</port>
			</input>
			<output>
				<port id="2" precision="FP16">
					<dim>1</dim>
					<dim>32</dim>
					<dim>240</dim>
					<dim>135</dim>
				</port>
			</output>
		</layer>
		<layer id="273" name="res5.conv2.2.weight" type="Const" version="opset1">
			<data element_type="f16" shape="1, 32, 1, 1" offset="201946" size="64"/>
			<output>
				<port id="0" precision="FP16" names="res5.conv2.2.weight">
					<dim>1</dim>
					<dim>32</dim>
					<dim>1</dim>
					<dim>1</dim>
				</port>
			</output>
		</layer>
		<layer id="274" name="InstanceNormalization_54/Ins_Norm/mul_" type="Multiply" version="opset1">
			<data auto_broadcast="numpy"/>
			<input>
				<port id="0" precision="FP16">
					<dim>1</dim>
					<dim>32</dim>
					<dim>240</dim>
					<dim>135</dim>
				</port>
				<port id="1" precision="FP16">
					<dim>1</dim>
					<dim>32</dim>
					<dim>1</dim>
					<dim>1</dim>
				</port>
			</input>
			<output>
				<port id="2" precision="FP16">
					<dim>1</dim>
					<dim>32</dim>
					<dim>240</dim>
					<dim>135</dim>
				</port>
			</output>
		</layer>
		<layer id="275" name="res5.conv2.2.bias" type="Const" version="opset1">
			<data element_type="f16" shape="1, 32, 1, 1" offset="202010" size="64"/>
			<output>
				<port id="0" precision="FP16" names="res5.conv2.2.bias">
					<dim>1</dim>
					<dim>32</dim>
					<dim>1</dim>
					<dim>1</dim>
				</port>
			</output>
		</layer>
		<layer id="276" name="InstanceNormalization_54" type="Add" version="opset1">
			<data auto_broadcast="numpy"/>
			<input>
				<port id="0" precision="FP16">
					<dim>1</dim>
					<dim>32</dim>
					<dim>240</dim>
					<dim>135</dim>
				</port>
				<port id="1" precision="FP16">
					<dim>1</dim>
					<dim>32</dim>
					<dim>1</dim>
					<dim>1</dim>
				</port>
			</input>
			<output>
				<port id="2" precision="FP16" names="117">
					<dim>1</dim>
					<dim>32</dim>
					<dim>240</dim>
					<dim>135</dim>
				</port>
			</output>
		</layer>
		<layer id="277" name="Relu_55" type="ReLU" version="opset1">
			<input>
				<port id="0" precision="FP16">
					<dim>1</dim>
					<dim>32</dim>
					<dim>240</dim>
					<dim>135</dim>
				</port>
			</input>
			<output>
				<port id="1" precision="FP16" names="118">
					<dim>1</dim>
					<dim>32</dim>
					<dim>240</dim>
					<dim>135</dim>
				</port>
			</output>
		</layer>
		<layer id="278" name="Add_56" type="Add" version="opset1">
			<data auto_broadcast="numpy"/>
			<input>
				<port id="0" precision="FP16">
					<dim>1</dim>
					<dim>32</dim>
					<dim>240</dim>
					<dim>135</dim>
				</port>
				<port id="1" precision="FP16">
					<dim>1</dim>
					<dim>32</dim>
					<dim>240</dim>
					<dim>135</dim>
				</port>
			</input>
			<output>
				<port id="2" precision="FP16" names="119">
					<dim>1</dim>
					<dim>32</dim>
					<dim>240</dim>
					<dim>135</dim>
				</port>
			</output>
		</layer>
		<layer id="279" name="Concat_57" type="Concat" version="opset1">
			<data axis="1"/>
			<input>
				<port id="0" precision="FP16">
					<dim>1</dim>
					<dim>32</dim>
					<dim>240</dim>
					<dim>135</dim>
				</port>
				<port id="1" precision="FP16">
					<dim>1</dim>
					<dim>32</dim>
					<dim>240</dim>
					<dim>135</dim>
				</port>
			</input>
			<output>
				<port id="2" precision="FP16" names="120">
					<dim>1</dim>
					<dim>64</dim>
					<dim>240</dim>
					<dim>135</dim>
				</port>
			</output>
		</layer>
		<layer id="280" name="Resize_58/ShapeOf" type="ShapeOf" version="opset3">
			<data output_type="i64"/>
			<input>
				<port id="0" precision="FP16">
					<dim>1</dim>
					<dim>64</dim>
					<dim>240</dim>
					<dim>135</dim>
				</port>
			</input>
			<output>
				<port id="1" precision="I64">
					<dim>4</dim>
				</port>
			</output>
		</layer>
		<layer id="281" name="176" type="Convert" version="opset1">
			<data destination_type="f32"/>
			<input>
				<port id="0" precision="I64">
					<dim>4</dim>
				</port>
			</input>
			<output>
				<port id="1" precision="FP32">
					<dim>4</dim>
				</port>
			</output>
		</layer>
		<layer id="282" name="Resize_58/Add" type="Const" version="opset1">
			<data element_type="f32" shape="4" offset="202074" size="16"/>
			<output>
				<port id="0" precision="FP32">
					<dim>4</dim>
				</port>
			</output>
		</layer>
		<layer id="283" name="Resize_58/Mul" type="Multiply" version="opset1">
			<data auto_broadcast="numpy"/>
			<input>
				<port id="0" precision="FP32">
					<dim>4</dim>
				</port>
				<port id="1" precision="FP32">
					<dim>4</dim>
				</port>
			</input>
			<output>
				<port id="2" precision="FP32">
					<dim>4</dim>
				</port>
			</output>
		</layer>
		<layer id="284" name="Resize_58/Floor" type="Floor" version="opset1">
			<input>
				<port id="0" precision="FP32">
					<dim>4</dim>
				</port>
			</input>
			<output>
				<port id="1" precision="FP32">
					<dim>4</dim>
				</port>
			</output>
		</layer>
		<layer id="285" name="179" type="Convert" version="opset1">
			<data destination_type="i64"/>
			<input>
				<port id="0" precision="FP32">
					<dim>4</dim>
				</port>
			</input>
			<output>
				<port id="1" precision="I64">
					<dim>4</dim>
				</port>
			</output>
		</layer>
		<layer id="286" name="Resize_58/sizes_ss_input_port_1/value" type="Const" version="opset1">
			<data element_type="i64" shape="1" offset="3938" size="8"/>
			<output>
				<port id="0" precision="I64">
					<dim>1</dim>
				</port>
			</output>
		</layer>
		<layer id="287" name="Resize_58/sizes_ss_input_port_2/value" type="Const" version="opset1">
			<data element_type="i64" shape="1" offset="3946" size="8"/>
			<output>
				<port id="0" precision="I64">
					<dim>1</dim>
				</port>
			</output>
		</layer>
		<layer id="288" name="Resize_58/sizes_ss_input_port_3/value" type="Const" version="opset1">
			<data element_type="i64" shape="1" offset="3954" size="8"/>
			<output>
				<port id="0" precision="I64">
					<dim>1</dim>
				</port>
			</output>
		</layer>
		<layer id="289" name="Resize_58/sizes_ss" type="StridedSlice" version="opset1">
			<data begin_mask="0" end_mask="1" new_axis_mask="0" shrink_axis_mask="0" ellipsis_mask="0"/>
			<input>
				<port id="0" precision="I64">
					<dim>4</dim>
				</port>
				<port id="1" precision="I64">
					<dim>1</dim>
				</port>
				<port id="2" precision="I64">
					<dim>1</dim>
				</port>
				<port id="3" precision="I64">
					<dim>1</dim>
				</port>
			</input>
			<output>
				<port id="4" precision="I64">
					<dim>2</dim>
				</port>
			</output>
		</layer>
		<layer id="290" name="Resize_58/scales_ss" type="Const" version="opset1">
			<data element_type="f32" shape="2" offset="202090" size="8"/>
			<output>
				<port id="0" precision="FP32">
					<dim>2</dim>
				</port>
			</output>
		</layer>
		<layer id="291" name="Resize_58/axes_input_port_0/value" type="Const" version="opset1">
			<data element_type="i64" shape="" offset="3938" size="8"/>
			<output>
				<port id="0" precision="I64"/>
			</output>
		</layer>
		<layer id="292" name="Resize_58/max_axes/shape_of" type="ShapeOf" version="opset3">
			<data output_type="i64"/>
			<input>
				<port id="0" precision="FP16">
					<dim>1</dim>
					<dim>64</dim>
					<dim>240</dim>
					<dim>135</dim>
				</port>
			</input>
			<output>
				<port id="1" precision="I64">
					<dim>4</dim>
				</port>
			</output>
		</layer>
		<layer id="293" name="Resize_58/max_axes/rank_of" type="ShapeOf" version="opset3">
			<data output_type="i64"/>
			<input>
				<port id="0" precision="I64">
					<dim>4</dim>
				</port>
			</input>
			<output>
				<port id="1" precision="I64">
					<dim>1</dim>
				</port>
			</output>
		</layer>
		<layer id="294" name="Resize_58/max_axes/0d_rank_of/value" type="Const" version="opset1">
			<data element_type="i64" shape="1" offset="3946" size="8"/>
			<output>
				<port id="0" precision="I64">
					<dim>1</dim>
				</port>
			</output>
		</layer>
		<layer id="295" name="Resize_58/max_axes" type="Squeeze" version="opset1">
			<input>
				<port id="0" precision="I64">
					<dim>1</dim>
				</port>
				<port id="1" precision="I64">
					<dim>1</dim>
				</port>
			</input>
			<output>
				<port id="2" precision="I64"/>
			</output>
		</layer>
		<layer id="296" name="Resize_58/axes_input_port_2/value" type="Const" version="opset1">
			<data element_type="i64" shape="" offset="3954" size="8"/>
			<output>
				<port id="0" precision="I64"/>
			</output>
		</layer>
		<layer id="297" name="Resize_58/axes" type="Range" version="opset4">
			<data output_type="i64"/>
			<input>
				<port id="0" precision="I64"/>
				<port id="1" precision="I64"/>
				<port id="2" precision="I64"/>
			</input>
			<output>
				<port id="3" precision="I64">
					<dim>2</dim>
				</port>
			</output>
		</layer>
		<layer id="298" name="Resize_58" type="Interpolate" version="opset4">
			<data mode="nearest" shape_calculation_mode="scales" coordinate_transformation_mode="asymmetric" nearest_mode="simple" antialias="false" pads_begin="0, 0, 0, 0" pads_end="0, 0, 0, 0" cube_coeff="-0.75"/>
			<input>
				<port id="0" precision="FP16">
					<dim>1</dim>
					<dim>64</dim>
					<dim>240</dim>
					<dim>135</dim>
				</port>
				<port id="1" precision="I64">
					<dim>2</dim>
				</port>
				<port id="2" precision="FP32">
					<dim>2</dim>
				</port>
				<port id="3" precision="I64">
					<dim>2</dim>
				</port>
			</input>
			<output>
				<port id="4" precision="FP16" names="129">
					<dim>1</dim>
					<dim>64</dim>
					<dim>480</dim>
					<dim>270</dim>
				</port>
			</output>
		</layer>
		<layer id="299" name="393" type="Const" version="opset1">
			<data element_type="i64" shape="4" offset="3994" size="32"/>
			<output>
				<port id="0" precision="I64">
					<dim>4</dim>
				</port>
			</output>
		</layer>
		<layer id="300" name="394" type="Const" version="opset1">
			<data element_type="i64" shape="4" offset="3994" size="32"/>
			<output>
				<port id="0" precision="I64">
					<dim>4</dim>
				</port>
			</output>
		</layer>
		<layer id="301" name="Constant_620" type="Const" version="opset1">
			<data element_type="f16" shape="" offset="32" size="2"/>
			<output>
				<port id="0" precision="FP16"/>
			</output>
		</layer>
		<layer id="302" name="Pad_59" type="Pad" version="opset1">
			<data pad_mode="reflect"/>
			<input>
				<port id="0" precision="FP16">
					<dim>1</dim>
					<dim>64</dim>
					<dim>480</dim>
					<dim>270</dim>
				</port>
				<port id="1" precision="I64">
					<dim>4</dim>
				</port>
				<port id="2" precision="I64">
					<dim>4</dim>
				</port>
				<port id="3" precision="FP16"/>
			</input>
			<output>
				<port id="4" precision="FP16" names="130">
					<dim>1</dim>
					<dim>64</dim>
					<dim>482</dim>
					<dim>272</dim>
				</port>
			</output>
		</layer>
		<layer id="303" name="upsample1.conv.1.weight" type="Const" version="opset1">
			<data element_type="f16" shape="16, 64, 3, 3" offset="202098" size="18432"/>
			<output>
				<port id="0" precision="FP16" names="upsample1.conv.1.weight">
					<dim>16</dim>
					<dim>64</dim>
					<dim>3</dim>
					<dim>3</dim>
				</port>
			</output>
		</layer>
		<layer id="304" name="Conv_60/WithoutBiases" type="Convolution" version="opset1">
			<data strides="1, 1" dilations="1, 1" pads_begin="0, 0" pads_end="0, 0" auto_pad="explicit"/>
			<input>
				<port id="0" precision="FP16">
					<dim>1</dim>
					<dim>64</dim>
					<dim>482</dim>
					<dim>272</dim>
				</port>
				<port id="1" precision="FP16">
					<dim>16</dim>
					<dim>64</dim>
					<dim>3</dim>
					<dim>3</dim>
				</port>
			</input>
			<output>
				<port id="2" precision="FP16">
					<dim>1</dim>
					<dim>16</dim>
					<dim>480</dim>
					<dim>270</dim>
				</port>
			</output>
		</layer>
		<layer id="305" name="Conv_60/Dims2973" type="Const" version="opset1">
			<data element_type="f16" shape="1, 16, 1, 1" offset="220530" size="32"/>
			<output>
				<port id="0" precision="FP16">
					<dim>1</dim>
					<dim>16</dim>
					<dim>1</dim>
					<dim>1</dim>
				</port>
			</output>
		</layer>
		<layer id="306" name="Conv_60" type="Add" version="opset1">
			<data auto_broadcast="numpy"/>
			<input>
				<port id="0" precision="FP16">
					<dim>1</dim>
					<dim>16</dim>
					<dim>480</dim>
					<dim>270</dim>
				</port>
				<port id="1" precision="FP16">
					<dim>1</dim>
					<dim>16</dim>
					<dim>1</dim>
					<dim>1</dim>
				</port>
			</input>
			<output>
				<port id="2" precision="FP16" names="131">
					<dim>1</dim>
					<dim>16</dim>
					<dim>480</dim>
					<dim>270</dim>
				</port>
			</output>
		</layer>
		<layer id="307" name="InstanceNormalization_61/Range_input_port_0/value" type="Const" version="opset1">
			<data element_type="i64" shape="" offset="3938" size="8"/>
			<output>
				<port id="0" precision="I64"/>
			</output>
		</layer>
		<layer id="308" name="InstanceNormalization_61/Rank/shape_of" type="ShapeOf" version="opset3">
			<data output_type="i64"/>
			<input>
				<port id="0" precision="FP16">
					<dim>1</dim>
					<dim>16</dim>
					<dim>480</dim>
					<dim>270</dim>
				</port>
			</input>
			<output>
				<port id="1" precision="I64">
					<dim>4</dim>
				</port>
			</output>
		</layer>
		<layer id="309" name="InstanceNormalization_61/Rank/rank_of" type="ShapeOf" version="opset3">
			<data output_type="i64"/>
			<input>
				<port id="0" precision="I64">
					<dim>4</dim>
				</port>
			</input>
			<output>
				<port id="1" precision="I64">
					<dim>1</dim>
				</port>
			</output>
		</layer>
		<layer id="310" name="InstanceNormalization_61/Rank/0d_rank_of/value" type="Const" version="opset1">
			<data element_type="i64" shape="1" offset="3946" size="8"/>
			<output>
				<port id="0" precision="I64">
					<dim>1</dim>
				</port>
			</output>
		</layer>
		<layer id="311" name="InstanceNormalization_61/Rank" type="Squeeze" version="opset1">
			<input>
				<port id="0" precision="I64">
					<dim>1</dim>
				</port>
				<port id="1" precision="I64">
					<dim>1</dim>
				</port>
			</input>
			<output>
				<port id="2" precision="I64"/>
			</output>
		</layer>
		<layer id="312" name="InstanceNormalization_61/Range_input_port_2/value" type="Const" version="opset1">
			<data element_type="i64" shape="" offset="3954" size="8"/>
			<output>
				<port id="0" precision="I64"/>
			</output>
		</layer>
		<layer id="313" name="InstanceNormalization_61/Range" type="Range" version="opset4">
			<data output_type="i64"/>
			<input>
				<port id="0" precision="I64"/>
				<port id="1" precision="I64"/>
				<port id="2" precision="I64"/>
			</input>
			<output>
				<port id="3" precision="I64">
					<dim>2</dim>
				</port>
			</output>
		</layer>
		<layer id="314" name="InstanceNormalization_61/Ins_Norm/MVN_" type="MVN" version="opset6">
			<data eps="9.9999997473787516e-06" normalize_variance="true" eps_mode="INSIDE_SQRT"/>
			<input>
				<port id="0" precision="FP16">
					<dim>1</dim>
					<dim>16</dim>
					<dim>480</dim>
					<dim>270</dim>
				</port>
				<port id="1" precision="I64">
					<dim>2</dim>
				</port>
			</input>
			<output>
				<port id="2" precision="FP16">
					<dim>1</dim>
					<dim>16</dim>
					<dim>480</dim>
					<dim>270</dim>
				</port>
			</output>
		</layer>
		<layer id="315" name="upsample1.conv.2.weight" type="Const" version="opset1">
			<data element_type="f16" shape="1, 16, 1, 1" offset="220562" size="32"/>
			<output>
				<port id="0" precision="FP16" names="upsample1.conv.2.weight">
					<dim>1</dim>
					<dim>16</dim>
					<dim>1</dim>
					<dim>1</dim>
				</port>
			</output>
		</layer>
		<layer id="316" name="InstanceNormalization_61/Ins_Norm/mul_" type="Multiply" version="opset1">
			<data auto_broadcast="numpy"/>
			<input>
				<port id="0" precision="FP16">
					<dim>1</dim>
					<dim>16</dim>
					<dim>480</dim>
					<dim>270</dim>
				</port>
				<port id="1" precision="FP16">
					<dim>1</dim>
					<dim>16</dim>
					<dim>1</dim>
					<dim>1</dim>
				</port>
			</input>
			<output>
				<port id="2" precision="FP16">
					<dim>1</dim>
					<dim>16</dim>
					<dim>480</dim>
					<dim>270</dim>
				</port>
			</output>
		</layer>
		<layer id="317" name="upsample1.conv.2.bias" type="Const" version="opset1">
			<data element_type="f16" shape="1, 16, 1, 1" offset="220594" size="32"/>
			<output>
				<port id="0" precision="FP16" names="upsample1.conv.2.bias">
					<dim>1</dim>
					<dim>16</dim>
					<dim>1</dim>
					<dim>1</dim>
				</port>
			</output>
		</layer>
		<layer id="318" name="InstanceNormalization_61" type="Add" version="opset1">
			<data auto_broadcast="numpy"/>
			<input>
				<port id="0" precision="FP16">
					<dim>1</dim>
					<dim>16</dim>
					<dim>480</dim>
					<dim>270</dim>
				</port>
				<port id="1" precision="FP16">
					<dim>1</dim>
					<dim>16</dim>
					<dim>1</dim>
					<dim>1</dim>
				</port>
			</input>
			<output>
				<port id="2" precision="FP16" names="132">
					<dim>1</dim>
					<dim>16</dim>
					<dim>480</dim>
					<dim>270</dim>
				</port>
			</output>
		</layer>
		<layer id="319" name="Relu_62" type="ReLU" version="opset1">
			<input>
				<port id="0" precision="FP16">
					<dim>1</dim>
					<dim>16</dim>
					<dim>480</dim>
					<dim>270</dim>
				</port>
			</input>
			<output>
				<port id="1" precision="FP16" names="133">
					<dim>1</dim>
					<dim>16</dim>
					<dim>480</dim>
					<dim>270</dim>
				</port>
			</output>
		</layer>
		<layer id="320" name="Concat_63" type="Concat" version="opset1">
			<data axis="1"/>
			<input>
				<port id="0" precision="FP16">
					<dim>1</dim>
					<dim>16</dim>
					<dim>480</dim>
					<dim>270</dim>
				</port>
				<port id="1" precision="FP16">
					<dim>1</dim>
					<dim>16</dim>
					<dim>480</dim>
					<dim>270</dim>
				</port>
			</input>
			<output>
				<port id="2" precision="FP16" names="134">
					<dim>1</dim>
					<dim>32</dim>
					<dim>480</dim>
					<dim>270</dim>
				</port>
			</output>
		</layer>
		<layer id="321" name="Resize_64/ShapeOf" type="ShapeOf" version="opset3">
			<data output_type="i64"/>
			<input>
				<port id="0" precision="FP16">
					<dim>1</dim>
					<dim>32</dim>
					<dim>480</dim>
					<dim>270</dim>
				</port>
			</input>
			<output>
				<port id="1" precision="I64">
					<dim>4</dim>
				</port>
			</output>
		</layer>
		<layer id="322" name="156" type="Convert" version="opset1">
			<data destination_type="f32"/>
			<input>
				<port id="0" precision="I64">
					<dim>4</dim>
				</port>
			</input>
			<output>
				<port id="1" precision="FP32">
					<dim>4</dim>
				</port>
			</output>
		</layer>
		<layer id="323" name="Resize_64/Add" type="Const" version="opset1">
			<data element_type="f32" shape="4" offset="202074" size="16"/>
			<output>
				<port id="0" precision="FP32">
					<dim>4</dim>
				</port>
			</output>
		</layer>
		<layer id="324" name="Resize_64/Mul" type="Multiply" version="opset1">
			<data auto_broadcast="numpy"/>
			<input>
				<port id="0" precision="FP32">
					<dim>4</dim>
				</port>
				<port id="1" precision="FP32">
					<dim>4</dim>
				</port>
			</input>
			<output>
				<port id="2" precision="FP32">
					<dim>4</dim>
				</port>
			</output>
		</layer>
		<layer id="325" name="Resize_64/Floor" type="Floor" version="opset1">
			<input>
				<port id="0" precision="FP32">
					<dim>4</dim>
				</port>
			</input>
			<output>
				<port id="1" precision="FP32">
					<dim>4</dim>
				</port>
			</output>
		</layer>
		<layer id="326" name="159" type="Convert" version="opset1">
			<data destination_type="i64"/>
			<input>
				<port id="0" precision="FP32">
					<dim>4</dim>
				</port>
			</input>
			<output>
				<port id="1" precision="I64">
					<dim>4</dim>
				</port>
			</output>
		</layer>
		<layer id="327" name="Resize_64/sizes_ss_input_port_1/value" type="Const" version="opset1">
			<data element_type="i64" shape="1" offset="3938" size="8"/>
			<output>
				<port id="0" precision="I64">
					<dim>1</dim>
				</port>
			</output>
		</layer>
		<layer id="328" name="Resize_64/sizes_ss_input_port_2/value" type="Const" version="opset1">
			<data element_type="i64" shape="1" offset="3946" size="8"/>
			<output>
				<port id="0" precision="I64">
					<dim>1</dim>
				</port>
			</output>
		</layer>
		<layer id="329" name="Resize_64/sizes_ss_input_port_3/value" type="Const" version="opset1">
			<data element_type="i64" shape="1" offset="3954" size="8"/>
			<output>
				<port id="0" precision="I64">
					<dim>1</dim>
				</port>
			</output>
		</layer>
		<layer id="330" name="Resize_64/sizes_ss" type="StridedSlice" version="opset1">
			<data begin_mask="0" end_mask="1" new_axis_mask="0" shrink_axis_mask="0" ellipsis_mask="0"/>
			<input>
				<port id="0" precision="I64">
					<dim>4</dim>
				</port>
				<port id="1" precision="I64">
					<dim>1</dim>
				</port>
				<port id="2" precision="I64">
					<dim>1</dim>
				</port>
				<port id="3" precision="I64">
					<dim>1</dim>
				</port>
			</input>
			<output>
				<port id="4" precision="I64">
					<dim>2</dim>
				</port>
			</output>
		</layer>
		<layer id="331" name="Resize_64/scales_ss" type="Const" version="opset1">
			<data element_type="f32" shape="2" offset="202090" size="8"/>
			<output>
				<port id="0" precision="FP32">
					<dim>2</dim>
				</port>
			</output>
		</layer>
		<layer id="332" name="Resize_64/axes_input_port_0/value" type="Const" version="opset1">
			<data element_type="i64" shape="" offset="3938" size="8"/>
			<output>
				<port id="0" precision="I64"/>
			</output>
		</layer>
		<layer id="333" name="Resize_64/max_axes/shape_of" type="ShapeOf" version="opset3">
			<data output_type="i64"/>
			<input>
				<port id="0" precision="FP16">
					<dim>1</dim>
					<dim>32</dim>
					<dim>480</dim>
					<dim>270</dim>
				</port>
			</input>
			<output>
				<port id="1" precision="I64">
					<dim>4</dim>
				</port>
			</output>
		</layer>
		<layer id="334" name="Resize_64/max_axes/rank_of" type="ShapeOf" version="opset3">
			<data output_type="i64"/>
			<input>
				<port id="0" precision="I64">
					<dim>4</dim>
				</port>
			</input>
			<output>
				<port id="1" precision="I64">
					<dim>1</dim>
				</port>
			</output>
		</layer>
		<layer id="335" name="Resize_64/max_axes/0d_rank_of/value" type="Const" version="opset1">
			<data element_type="i64" shape="1" offset="3946" size="8"/>
			<output>
				<port id="0" precision="I64">
					<dim>1</dim>
				</port>
			</output>
		</layer>
		<layer id="336" name="Resize_64/max_axes" type="Squeeze" version="opset1">
			<input>
				<port id="0" precision="I64">
					<dim>1</dim>
				</port>
				<port id="1" precision="I64">
					<dim>1</dim>
				</port>
			</input>
			<output>
				<port id="2" precision="I64"/>
			</output>
		</layer>
		<layer id="337" name="Resize_64/axes_input_port_2/value" type="Const" version="opset1">
			<data element_type="i64" shape="" offset="3954" size="8"/>
			<output>
				<port id="0" precision="I64"/>
			</output>
		</layer>
		<layer id="338" name="Resize_64/axes" type="Range" version="opset4">
			<data output_type="i64"/>
			<input>
				<port id="0" precision="I64"/>
				<port id="1" precision="I64"/>
				<port id="2" precision="I64"/>
			</input>
			<output>
				<port id="3" precision="I64">
					<dim>2</dim>
				</port>
			</output>
		</layer>
		<layer id="339" name="Resize_64" type="Interpolate" version="opset4">
			<data mode="nearest" shape_calculation_mode="scales" coordinate_transformation_mode="asymmetric" nearest_mode="simple" antialias="false" pads_begin="0, 0, 0, 0" pads_end="0, 0, 0, 0" cube_coeff="-0.75"/>
			<input>
				<port id="0" precision="FP16">
					<dim>1</dim>
					<dim>32</dim>
					<dim>480</dim>
					<dim>270</dim>
				</port>
				<port id="1" precision="I64">
					<dim>2</dim>
				</port>
				<port id="2" precision="FP32">
					<dim>2</dim>
				</port>
				<port id="3" precision="I64">
					<dim>2</dim>
				</port>
			</input>
			<output>
				<port id="4" precision="FP16" names="143">
					<dim>1</dim>
					<dim>32</dim>
					<dim>960</dim>
					<dim>540</dim>
				</port>
			</output>
		</layer>
		<layer id="340" name="396" type="Const" version="opset1">
			<data element_type="i64" shape="4" offset="3994" size="32"/>
			<output>
				<port id="0" precision="I64">
					<dim>4</dim>
				</port>
			</output>
		</layer>
		<layer id="341" name="397" type="Const" version="opset1">
			<data element_type="i64" shape="4" offset="3994" size="32"/>
			<output>
				<port id="0" precision="I64">
					<dim>4</dim>
				</port>
			</output>
		</layer>
		<layer id="342" name="Constant_707" type="Const" version="opset1">
			<data element_type="f16" shape="" offset="32" size="2"/>
			<output>
				<port id="0" precision="FP16"/>
			</output>
		</layer>
		<layer id="343" name="Pad_65" type="Pad" version="opset1">
			<data pad_mode="reflect"/>
			<input>
				<port id="0" precision="FP16">
					<dim>1</dim>
					<dim>32</dim>
					<dim>960</dim>
					<dim>540</dim>
				</port>
				<port id="1" precision="I64">
					<dim>4</dim>
				</port>
				<port id="2" precision="I64">
					<dim>4</dim>
				</port>
				<port id="3" precision="FP16"/>
			</input>
			<output>
				<port id="4" precision="FP16" names="144">
					<dim>1</dim>
					<dim>32</dim>
					<dim>962</dim>
					<dim>542</dim>
				</port>
			</output>
		</layer>
		<layer id="344" name="upsample2.conv.1.weight" type="Const" version="opset1">
			<data element_type="f16" shape="8, 32, 3, 3" offset="220626" size="4608"/>
			<output>
				<port id="0" precision="FP16" names="upsample2.conv.1.weight">
					<dim>8</dim>
					<dim>32</dim>
					<dim>3</dim>
					<dim>3</dim>
				</port>
			</output>
		</layer>
		<layer id="345" name="Conv_66/WithoutBiases" type="Convolution" version="opset1">
			<data strides="1, 1" dilations="1, 1" pads_begin="0, 0" pads_end="0, 0" auto_pad="explicit"/>
			<input>
				<port id="0" precision="FP16">
					<dim>1</dim>
					<dim>32</dim>
					<dim>962</dim>
					<dim>542</dim>
				</port>
				<port id="1" precision="FP16">
					<dim>8</dim>
					<dim>32</dim>
					<dim>3</dim>
					<dim>3</dim>
				</port>
			</input>
			<output>
				<port id="2" precision="FP16">
					<dim>1</dim>
					<dim>8</dim>
					<dim>960</dim>
					<dim>540</dim>
				</port>
			</output>
		</layer>
		<layer id="346" name="Conv_66/Dims2979" type="Const" version="opset1">
			<data element_type="f16" shape="1, 8, 1, 1" offset="225234" size="16"/>
			<output>
				<port id="0" precision="FP16">
					<dim>1</dim>
					<dim>8</dim>
					<dim>1</dim>
					<dim>1</dim>
				</port>
			</output>
		</layer>
		<layer id="347" name="Conv_66" type="Add" version="opset1">
			<data auto_broadcast="numpy"/>
			<input>
				<port id="0" precision="FP16">
					<dim>1</dim>
					<dim>8</dim>
					<dim>960</dim>
					<dim>540</dim>
				</port>
				<port id="1" precision="FP16">
					<dim>1</dim>
					<dim>8</dim>
					<dim>1</dim>
					<dim>1</dim>
				</port>
			</input>
			<output>
				<port id="2" precision="FP16" names="145">
					<dim>1</dim>
					<dim>8</dim>
					<dim>960</dim>
					<dim>540</dim>
				</port>
			</output>
		</layer>
		<layer id="348" name="InstanceNormalization_67/Range_input_port_0/value" type="Const" version="opset1">
			<data element_type="i64" shape="" offset="3938" size="8"/>
			<output>
				<port id="0" precision="I64"/>
			</output>
		</layer>
		<layer id="349" name="InstanceNormalization_67/Rank/shape_of" type="ShapeOf" version="opset3">
			<data output_type="i64"/>
			<input>
				<port id="0" precision="FP16">
					<dim>1</dim>
					<dim>8</dim>
					<dim>960</dim>
					<dim>540</dim>
				</port>
			</input>
			<output>
				<port id="1" precision="I64">
					<dim>4</dim>
				</port>
			</output>
		</layer>
		<layer id="350" name="InstanceNormalization_67/Rank/rank_of" type="ShapeOf" version="opset3">
			<data output_type="i64"/>
			<input>
				<port id="0" precision="I64">
					<dim>4</dim>
				</port>
			</input>
			<output>
				<port id="1" precision="I64">
					<dim>1</dim>
				</port>
			</output>
		</layer>
		<layer id="351" name="InstanceNormalization_67/Rank/0d_rank_of/value" type="Const" version="opset1">
			<data element_type="i64" shape="1" offset="3946" size="8"/>
			<output>
				<port id="0" precision="I64">
					<dim>1</dim>
				</port>
			</output>
		</layer>
		<layer id="352" name="InstanceNormalization_67/Rank" type="Squeeze" version="opset1">
			<input>
				<port id="0" precision="I64">
					<dim>1</dim>
				</port>
				<port id="1" precision="I64">
					<dim>1</dim>
				</port>
			</input>
			<output>
				<port id="2" precision="I64"/>
			</output>
		</layer>
		<layer id="353" name="InstanceNormalization_67/Range_input_port_2/value" type="Const" version="opset1">
			<data element_type="i64" shape="" offset="3954" size="8"/>
			<output>
				<port id="0" precision="I64"/>
			</output>
		</layer>
		<layer id="354" name="InstanceNormalization_67/Range" type="Range" version="opset4">
			<data output_type="i64"/>
			<input>
				<port id="0" precision="I64"/>
				<port id="1" precision="I64"/>
				<port id="2" precision="I64"/>
			</input>
			<output>
				<port id="3" precision="I64">
					<dim>2</dim>
				</port>
			</output>
		</layer>
		<layer id="355" name="InstanceNormalization_67/Ins_Norm/MVN_" type="MVN" version="opset6">
			<data eps="9.9999997473787516e-06" normalize_variance="true" eps_mode="INSIDE_SQRT"/>
			<input>
				<port id="0" precision="FP16">
					<dim>1</dim>
					<dim>8</dim>
					<dim>960</dim>
					<dim>540</dim>
				</port>
				<port id="1" precision="I64">
					<dim>2</dim>
				</port>
			</input>
			<output>
				<port id="2" precision="FP16">
					<dim>1</dim>
					<dim>8</dim>
					<dim>960</dim>
					<dim>540</dim>
				</port>
			</output>
		</layer>
		<layer id="356" name="upsample2.conv.2.weight" type="Const" version="opset1">
			<data element_type="f16" shape="1, 8, 1, 1" offset="225250" size="16"/>
			<output>
				<port id="0" precision="FP16" names="upsample2.conv.2.weight">
					<dim>1</dim>
					<dim>8</dim>
					<dim>1</dim>
					<dim>1</dim>
				</port>
			</output>
		</layer>
		<layer id="357" name="InstanceNormalization_67/Ins_Norm/mul_" type="Multiply" version="opset1">
			<data auto_broadcast="numpy"/>
			<input>
				<port id="0" precision="FP16">
					<dim>1</dim>
					<dim>8</dim>
					<dim>960</dim>
					<dim>540</dim>
				</port>
				<port id="1" precision="FP16">
					<dim>1</dim>
					<dim>8</dim>
					<dim>1</dim>
					<dim>1</dim>
				</port>
			</input>
			<output>
				<port id="2" precision="FP16">
					<dim>1</dim>
					<dim>8</dim>
					<dim>960</dim>
					<dim>540</dim>
				</port>
			</output>
		</layer>
		<layer id="358" name="upsample2.conv.2.bias" type="Const" version="opset1">
			<data element_type="f16" shape="1, 8, 1, 1" offset="225266" size="16"/>
			<output>
				<port id="0" precision="FP16" names="upsample2.conv.2.bias">
					<dim>1</dim>
					<dim>8</dim>
					<dim>1</dim>
					<dim>1</dim>
				</port>
			</output>
		</layer>
		<layer id="359" name="InstanceNormalization_67" type="Add" version="opset1">
			<data auto_broadcast="numpy"/>
			<input>
				<port id="0" precision="FP16">
					<dim>1</dim>
					<dim>8</dim>
					<dim>960</dim>
					<dim>540</dim>
				</port>
				<port id="1" precision="FP16">
					<dim>1</dim>
					<dim>8</dim>
					<dim>1</dim>
					<dim>1</dim>
				</port>
			</input>
			<output>
				<port id="2" precision="FP16" names="146">
					<dim>1</dim>
					<dim>8</dim>
					<dim>960</dim>
					<dim>540</dim>
				</port>
			</output>
		</layer>
		<layer id="360" name="Relu_68" type="ReLU" version="opset1">
			<input>
				<port id="0" precision="FP16">
					<dim>1</dim>
					<dim>8</dim>
					<dim>960</dim>
					<dim>540</dim>
				</port>
			</input>
			<output>
				<port id="1" precision="FP16" names="147">
					<dim>1</dim>
					<dim>8</dim>
					<dim>960</dim>
					<dim>540</dim>
				</port>
			</output>
		</layer>
		<layer id="361" name="Concat_69" type="Concat" version="opset1">
			<data axis="1"/>
			<input>
				<port id="0" precision="FP16">
					<dim>1</dim>
					<dim>8</dim>
					<dim>960</dim>
					<dim>540</dim>
				</port>
				<port id="1" precision="FP16">
					<dim>1</dim>
					<dim>8</dim>
					<dim>960</dim>
					<dim>540</dim>
				</port>
			</input>
			<output>
				<port id="2" precision="FP16" names="148">
					<dim>1</dim>
					<dim>16</dim>
					<dim>960</dim>
					<dim>540</dim>
				</port>
			</output>
		</layer>
		<layer id="362" name="399" type="Const" version="opset1">
			<data element_type="i64" shape="4" offset="0" size="32"/>
			<output>
				<port id="0" precision="I64">
					<dim>4</dim>
				</port>
			</output>
		</layer>
		<layer id="363" name="400" type="Const" version="opset1">
			<data element_type="i64" shape="4" offset="0" size="32"/>
			<output>
				<port id="0" precision="I64">
					<dim>4</dim>
				</port>
			</output>
		</layer>
		<layer id="364" name="Constant_752" type="Const" version="opset1">
			<data element_type="f16" shape="" offset="32" size="2"/>
			<output>
				<port id="0" precision="FP16"/>
			</output>
		</layer>
		<layer id="365" name="Pad_70" type="Pad" version="opset1">
			<data pad_mode="reflect"/>
			<input>
				<port id="0" precision="FP16">
					<dim>1</dim>
					<dim>16</dim>
					<dim>960</dim>
					<dim>540</dim>
				</port>
				<port id="1" precision="I64">
					<dim>4</dim>
				</port>
				<port id="2" precision="I64">
					<dim>4</dim>
				</port>
				<port id="3" precision="FP16"/>
			</input>
			<output>
				<port id="4" precision="FP16" names="149">
					<dim>1</dim>
					<dim>16</dim>
					<dim>968</dim>
					<dim>548</dim>
				</port>
			</output>
		</layer>
		<layer id="366" name="last_conv.weight" type="Const" version="opset1">
			<data element_type="f16" shape="3, 16, 9, 9" offset="225282" size="7776"/>
			<output>
				<port id="0" precision="FP16" names="last_conv.weight">
					<dim>3</dim>
					<dim>16</dim>
					<dim>9</dim>
					<dim>9</dim>
				</port>
			</output>
		</layer>
		<layer id="367" name="Conv_71/WithoutBiases" type="Convolution" version="opset1">
			<data strides="1, 1" dilations="1, 1" pads_begin="0, 0" pads_end="0, 0" auto_pad="explicit"/>
			<input>
				<port id="0" precision="FP16">
					<dim>1</dim>
					<dim>16</dim>
					<dim>968</dim>
					<dim>548</dim>
				</port>
				<port id="1" precision="FP16">
					<dim>3</dim>
					<dim>16</dim>
					<dim>9</dim>
					<dim>9</dim>
				</port>
			</input>
			<output>
				<port id="2" precision="FP16">
					<dim>1</dim>
					<dim>3</dim>
					<dim>960</dim>
					<dim>540</dim>
				</port>
			</output>
		</layer>
		<layer id="368" name="Conv_71/Dims2931" type="Const" version="opset1">
			<data element_type="f16" shape="1, 3, 1, 1" offset="233058" size="6"/>
			<output>
				<port id="0" precision="FP16">
					<dim>1</dim>
					<dim>3</dim>
					<dim>1</dim>
					<dim>1</dim>
				</port>
			</output>
		</layer>
		<layer id="369" name="150" type="Add" version="opset1">
			<data auto_broadcast="numpy"/>
			<input>
				<port id="0" precision="FP16">
					<dim>1</dim>
					<dim>3</dim>
					<dim>960</dim>
					<dim>540</dim>
				</port>
				<port id="1" precision="FP16">
					<dim>1</dim>
					<dim>3</dim>
					<dim>1</dim>
					<dim>1</dim>
				</port>
			</input>
			<output>
				<port id="2" precision="FP16" names="150">
					<dim>1</dim>
					<dim>3</dim>
					<dim>960</dim>
					<dim>540</dim>
				</port>
			</output>
		</layer>
		<layer id="370" name="150/sink_port_0" type="Result" version="opset1">
			<input>
				<port id="0" precision="FP16">
					<dim>1</dim>
					<dim>3</dim>
					<dim>960</dim>
					<dim>540</dim>
				</port>
			</input>
		</layer>
	</layers>
	<edges>
		<edge from-layer="0" from-port="0" to-layer="4" to-port="0"/>
		<edge from-layer="1" from-port="0" to-layer="4" to-port="1"/>
		<edge from-layer="2" from-port="0" to-layer="4" to-port="2"/>
		<edge from-layer="3" from-port="0" to-layer="4" to-port="3"/>
		<edge from-layer="4" from-port="4" to-layer="6" to-port="0"/>
		<edge from-layer="5" from-port="0" to-layer="6" to-port="1"/>
		<edge from-layer="6" from-port="2" to-layer="8" to-port="0"/>
		<edge from-layer="7" from-port="0" to-layer="8" to-port="1"/>
		<edge from-layer="8" from-port="2" to-layer="10" to-port="0"/>
		<edge from-layer="8" from-port="2" to-layer="16" to-port="0"/>
		<edge from-layer="9" from-port="0" to-layer="15" to-port="0"/>
		<edge from-layer="10" from-port="1" to-layer="11" to-port="0"/>
		<edge from-layer="11" from-port="1" to-layer="13" to-port="0"/>
		<edge from-layer="12" from-port="0" to-layer="13" to-port="1"/>
		<edge from-layer="13" from-port="2" to-layer="15" to-port="1"/>
		<edge from-layer="14" from-port="0" to-layer="15" to-port="2"/>
		<edge from-layer="15" from-port="3" to-layer="16" to-port="1"/>
		<edge from-layer="16" from-port="2" to-layer="18" to-port="0"/>
		<edge from-layer="17" from-port="0" to-layer="18" to-port="1"/>
		<edge from-layer="18" from-port="2" to-layer="20" to-port="0"/>
		<edge from-layer="19" from-port="0" to-layer="20" to-port="1"/>
		<edge from-layer="20" from-port="2" to-layer="21" to-port="0"/>
		<edge from-layer="21" from-port="1" to-layer="25" to-port="0"/>
		<edge from-layer="21" from-port="1" to-layer="361" to-port="0"/>
		<edge from-layer="22" from-port="0" to-layer="25" to-port="1"/>
		<edge from-layer="23" from-port="0" to-layer="25" to-port="2"/>
		<edge from-layer="24" from-port="0" to-layer="25" to-port="3"/>
		<edge from-layer="25" from-port="4" to-layer="27" to-port="0"/>
		<edge from-layer="26" from-port="0" to-layer="27" to-port="1"/>
		<edge from-layer="27" from-port="2" to-layer="29" to-port="0"/>
		<edge from-layer="28" from-port="0" to-layer="29" to-port="1"/>
		<edge from-layer="29" from-port="2" to-layer="31" to-port="0"/>
		<edge from-layer="29" from-port="2" to-layer="37" to-port="0"/>
		<edge from-layer="30" from-port="0" to-layer="36" to-port="0"/>
		<edge from-layer="31" from-port="1" to-layer="32" to-port="0"/>
		<edge from-layer="32" from-port="1" to-layer="34" to-port="0"/>
		<edge from-layer="33" from-port="0" to-layer="34" to-port="1"/>
		<edge from-layer="34" from-port="2" to-layer="36" to-port="1"/>
		<edge from-layer="35" from-port="0" to-layer="36" to-port="2"/>
		<edge from-layer="36" from-port="3" to-layer="37" to-port="1"/>
		<edge from-layer="37" from-port="2" to-layer="39" to-port="0"/>
		<edge from-layer="38" from-port="0" to-layer="39" to-port="1"/>
		<edge from-layer="39" from-port="2" to-layer="41" to-port="0"/>
		<edge from-layer="40" from-port="0" to-layer="41" to-port="1"/>
		<edge from-layer="41" from-port="2" to-layer="42" to-port="0"/>
		<edge from-layer="42" from-port="1" to-layer="46" to-port="0"/>
		<edge from-layer="42" from-port="1" to-layer="320" to-port="0"/>
		<edge from-layer="43" from-port="0" to-layer="46" to-port="1"/>
		<edge from-layer="44" from-port="0" to-layer="46" to-port="2"/>
		<edge from-layer="45" from-port="0" to-layer="46" to-port="3"/>
		<edge from-layer="46" from-port="4" to-layer="48" to-port="0"/>
		<edge from-layer="47" from-port="0" to-layer="48" to-port="1"/>
		<edge from-layer="48" from-port="2" to-layer="50" to-port="0"/>
		<edge from-layer="49" from-port="0" to-layer="50" to-port="1"/>
		<edge from-layer="50" from-port="2" to-layer="52" to-port="0"/>
		<edge from-layer="50" from-port="2" to-layer="58" to-port="0"/>
		<edge from-layer="51" from-port="0" to-layer="57" to-port="0"/>
		<edge from-layer="52" from-port="1" to-layer="53" to-port="0"/>
		<edge from-layer="53" from-port="1" to-layer="55" to-port="0"/>
		<edge from-layer="54" from-port="0" to-layer="55" to-port="1"/>
		<edge from-layer="55" from-port="2" to-layer="57" to-port="1"/>
		<edge from-layer="56" from-port="0" to-layer="57" to-port="2"/>
		<edge from-layer="57" from-port="3" to-layer="58" to-port="1"/>
		<edge from-layer="58" from-port="2" to-layer="60" to-port="0"/>
		<edge from-layer="59" from-port="0" to-layer="60" to-port="1"/>
		<edge from-layer="60" from-port="2" to-layer="62" to-port="0"/>
		<edge from-layer="61" from-port="0" to-layer="62" to-port="1"/>
		<edge from-layer="62" from-port="2" to-layer="63" to-port="0"/>
		<edge from-layer="63" from-port="1" to-layer="67" to-port="0"/>
		<edge from-layer="63" from-port="1" to-layer="106" to-port="0"/>
		<edge from-layer="63" from-port="1" to-layer="279" to-port="0"/>
		<edge from-layer="64" from-port="0" to-layer="67" to-port="1"/>
		<edge from-layer="65" from-port="0" to-layer="67" to-port="2"/>
		<edge from-layer="66" from-port="0" to-layer="67" to-port="3"/>
		<edge from-layer="67" from-port="4" to-layer="69" to-port="0"/>
		<edge from-layer="68" from-port="0" to-layer="69" to-port="1"/>
		<edge from-layer="69" from-port="2" to-layer="71" to-port="0"/>
		<edge from-layer="70" from-port="0" to-layer="71" to-port="1"/>
		<edge from-layer="71" from-port="2" to-layer="73" to-port="0"/>
		<edge from-layer="71" from-port="2" to-layer="79" to-port="0"/>
		<edge from-layer="72" from-port="0" to-layer="78" to-port="0"/>
		<edge from-layer="73" from-port="1" to-layer="74" to-port="0"/>
		<edge from-layer="74" from-port="1" to-layer="76" to-port="0"/>
		<edge from-layer="75" from-port="0" to-layer="76" to-port="1"/>
		<edge from-layer="76" from-port="2" to-layer="78" to-port="1"/>
		<edge from-layer="77" from-port="0" to-layer="78" to-port="2"/>
		<edge from-layer="78" from-port="3" to-layer="79" to-port="1"/>
		<edge from-layer="79" from-port="2" to-layer="81" to-port="0"/>
		<edge from-layer="80" from-port="0" to-layer="81" to-port="1"/>
		<edge from-layer="81" from-port="2" to-layer="83" to-port="0"/>
		<edge from-layer="82" from-port="0" to-layer="83" to-port="1"/>
		<edge from-layer="83" from-port="2" to-layer="84" to-port="0"/>
		<edge from-layer="84" from-port="1" to-layer="88" to-port="0"/>
		<edge from-layer="85" from-port="0" to-layer="88" to-port="1"/>
		<edge from-layer="86" from-port="0" to-layer="88" to-port="2"/>
		<edge from-layer="87" from-port="0" to-layer="88" to-port="3"/>
		<edge from-layer="88" from-port="4" to-layer="90" to-port="0"/>
		<edge from-layer="89" from-port="0" to-layer="90" to-port="1"/>
		<edge from-layer="90" from-port="2" to-layer="92" to-port="0"/>
		<edge from-layer="91" from-port="0" to-layer="92" to-port="1"/>
		<edge from-layer="92" from-port="2" to-layer="94" to-port="0"/>
		<edge from-layer="92" from-port="2" to-layer="100" to-port="0"/>
		<edge from-layer="93" from-port="0" to-layer="99" to-port="0"/>
		<edge from-layer="94" from-port="1" to-layer="95" to-port="0"/>
		<edge from-layer="95" from-port="1" to-layer="97" to-port="0"/>
		<edge from-layer="96" from-port="0" to-layer="97" to-port="1"/>
		<edge from-layer="97" from-port="2" to-layer="99" to-port="1"/>
		<edge from-layer="98" from-port="0" to-layer="99" to-port="2"/>
		<edge from-layer="99" from-port="3" to-layer="100" to-port="1"/>
		<edge from-layer="100" from-port="2" to-layer="102" to-port="0"/>
		<edge from-layer="101" from-port="0" to-layer="102" to-port="1"/>
		<edge from-layer="102" from-port="2" to-layer="104" to-port="0"/>
		<edge from-layer="103" from-port="0" to-layer="104" to-port="1"/>
		<edge from-layer="104" from-port="2" to-layer="105" to-port="0"/>
		<edge from-layer="105" from-port="1" to-layer="106" to-port="1"/>
		<edge from-layer="106" from-port="2" to-layer="110" to-port="0"/>
		<edge from-layer="106" from-port="2" to-layer="149" to-port="0"/>
		<edge from-layer="107" from-port="0" to-layer="110" to-port="1"/>
		<edge from-layer="108" from-port="0" to-layer="110" to-port="2"/>
		<edge from-layer="109" from-port="0" to-layer="110" to-port="3"/>
		<edge from-layer="110" from-port="4" to-layer="112" to-port="0"/>
		<edge from-layer="111" from-port="0" to-layer="112" to-port="1"/>
		<edge from-layer="112" from-port="2" to-layer="114" to-port="0"/>
		<edge from-layer="113" from-port="0" to-layer="114" to-port="1"/>
		<edge from-layer="114" from-port="2" to-layer="116" to-port="0"/>
		<edge from-layer="114" from-port="2" to-layer="122" to-port="0"/>
		<edge from-layer="115" from-port="0" to-layer="121" to-port="0"/>
		<edge from-layer="116" from-port="1" to-layer="117" to-port="0"/>
		<edge from-layer="117" from-port="1" to-layer="119" to-port="0"/>
		<edge from-layer="118" from-port="0" to-layer="119" to-port="1"/>
		<edge from-layer="119" from-port="2" to-layer="121" to-port="1"/>
		<edge from-layer="120" from-port="0" to-layer="121" to-port="2"/>
		<edge from-layer="121" from-port="3" to-layer="122" to-port="1"/>
		<edge from-layer="122" from-port="2" to-layer="124" to-port="0"/>
		<edge from-layer="123" from-port="0" to-layer="124" to-port="1"/>
		<edge from-layer="124" from-port="2" to-layer="126" to-port="0"/>
		<edge from-layer="125" from-port="0" to-layer="126" to-port="1"/>
		<edge from-layer="126" from-port="2" to-layer="127" to-port="0"/>
		<edge from-layer="127" from-port="1" to-layer="131" to-port="0"/>
		<edge from-layer="128" from-port="0" to-layer="131" to-port="1"/>
		<edge from-layer="129" from-port="0" to-layer="131" to-port="2"/>
		<edge from-layer="130" from-port="0" to-layer="131" to-port="3"/>
		<edge from-layer="131" from-port="4" to-layer="133" to-port="0"/>
		<edge from-layer="132" from-port="0" to-layer="133" to-port="1"/>
		<edge from-layer="133" from-port="2" to-layer="135" to-port="0"/>
		<edge from-layer="134" from-port="0" to-layer="135" to-port="1"/>
		<edge from-layer="135" from-port="2" to-layer="143" to-port="0"/>
		<edge from-layer="135" from-port="2" to-layer="137" to-port="0"/>
		<edge from-layer="136" from-port="0" to-layer="142" to-port="0"/>
		<edge from-layer="137" from-port="1" to-layer="138" to-port="0"/>
		<edge from-layer="138" from-port="1" to-layer="140" to-port="0"/>
		<edge from-layer="139" from-port="0" to-layer="140" to-port="1"/>
		<edge from-layer="140" from-port="2" to-layer="142" to-port="1"/>
		<edge from-layer="141" from-port="0" to-layer="142" to-port="2"/>
		<edge from-layer="142" from-port="3" to-layer="143" to-port="1"/>
		<edge from-layer="143" from-port="2" to-layer="145" to-port="0"/>
		<edge from-layer="144" from-port="0" to-layer="145" to-port="1"/>
		<edge from-layer="145" from-port="2" to-layer="147" to-port="0"/>
		<edge from-layer="146" from-port="0" to-layer="147" to-port="1"/>
		<edge from-layer="147" from-port="2" to-layer="148" to-port="0"/>
		<edge from-layer="148" from-port="1" to-layer="149" to-port="1"/>
		<edge from-layer="149" from-port="2" to-layer="192" to-port="0"/>
		<edge from-layer="149" from-port="2" to-layer="153" to-port="0"/>
		<edge from-layer="150" from-port="0" to-layer="153" to-port="1"/>
		<edge from-layer="151" from-port="0" to-layer="153" to-port="2"/>
		<edge from-layer="152" from-port="0" to-layer="153" to-port="3"/>
		<edge from-layer="153" from-port="4" to-layer="155" to-port="0"/>
		<edge from-layer="154" from-port="0" to-layer="155" to-port="1"/>
		<edge from-layer="155" from-port="2" to-layer="157" to-port="0"/>
		<edge from-layer="156" from-port="0" to-layer="157" to-port="1"/>
		<edge from-layer="157" from-port="2" to-layer="159" to-port="0"/>
		<edge from-layer="157" from-port="2" to-layer="165" to-port="0"/>
		<edge from-layer="158" from-port="0" to-layer="164" to-port="0"/>
		<edge from-layer="159" from-port="1" to-layer="160" to-port="0"/>
		<edge from-layer="160" from-port="1" to-layer="162" to-port="0"/>
		<edge from-layer="161" from-port="0" to-layer="162" to-port="1"/>
		<edge from-layer="162" from-port="2" to-layer="164" to-port="1"/>
		<edge from-layer="163" from-port="0" to-layer="164" to-port="2"/>
		<edge from-layer="164" from-port="3" to-layer="165" to-port="1"/>
		<edge from-layer="165" from-port="2" to-layer="167" to-port="0"/>
		<edge from-layer="166" from-port="0" to-layer="167" to-port="1"/>
		<edge from-layer="167" from-port="2" to-layer="169" to-port="0"/>
		<edge from-layer="168" from-port="0" to-layer="169" to-port="1"/>
		<edge from-layer="169" from-port="2" to-layer="170" to-port="0"/>
		<edge from-layer="170" from-port="1" to-layer="174" to-port="0"/>
		<edge from-layer="171" from-port="0" to-layer="174" to-port="1"/>
		<edge from-layer="172" from-port="0" to-layer="174" to-port="2"/>
		<edge from-layer="173" from-port="0" to-layer="174" to-port="3"/>
		<edge from-layer="174" from-port="4" to-layer="176" to-port="0"/>
		<edge from-layer="175" from-port="0" to-layer="176" to-port="1"/>
		<edge from-layer="176" from-port="2" to-layer="178" to-port="0"/>
		<edge from-layer="177" from-port="0" to-layer="178" to-port="1"/>
		<edge from-layer="178" from-port="2" to-layer="180" to-port="0"/>
		<edge from-layer="178" from-port="2" to-layer="186" to-port="0"/>
		<edge from-layer="179" from-port="0" to-layer="185" to-port="0"/>
		<edge from-layer="180" from-port="1" to-layer="181" to-port="0"/>
		<edge from-layer="181" from-port="1" to-layer="183" to-port="0"/>
		<edge from-layer="182" from-port="0" to-layer="183" to-port="1"/>
		<edge from-layer="183" from-port="2" to-layer="185" to-port="1"/>
		<edge from-layer="184" from-port="0" to-layer="185" to-port="2"/>
		<edge from-layer="185" from-port="3" to-layer="186" to-port="1"/>
		<edge from-layer="186" from-port="2" to-layer="188" to-port="0"/>
		<edge from-layer="187" from-port="0" to-layer="188" to-port="1"/>
		<edge from-layer="188" from-port="2" to-layer="190" to-port="0"/>
		<edge from-layer="189" from-port="0" to-layer="190" to-port="1"/>
		<edge from-layer="190" from-port="2" to-layer="191" to-port="0"/>
		<edge from-layer="191" from-port="1" to-layer="192" to-port="1"/>
		<edge from-layer="192" from-port="2" to-layer="196" to-port="0"/>
		<edge from-layer="192" from-port="2" to-layer="235" to-port="0"/>
		<edge from-layer="193" from-port="0" to-layer="196" to-port="1"/>
		<edge from-layer="194" from-port="0" to-layer="196" to-port="2"/>
		<edge from-layer="195" from-port="0" to-layer="196" to-port="3"/>
		<edge from-layer="196" from-port="4" to-layer="198" to-port="0"/>
		<edge from-layer="197" from-port="0" to-layer="198" to-port="1"/>
		<edge from-layer="198" from-port="2" to-layer="200" to-port="0"/>
		<edge from-layer="199" from-port="0" to-layer="200" to-port="1"/>
		<edge from-layer="200" from-port="2" to-layer="202" to-port="0"/>
		<edge from-layer="200" from-port="2" to-layer="208" to-port="0"/>
		<edge from-layer="201" from-port="0" to-layer="207" to-port="0"/>
		<edge from-layer="202" from-port="1" to-layer="203" to-port="0"/>
		<edge from-layer="203" from-port="1" to-layer="205" to-port="0"/>
		<edge from-layer="204" from-port="0" to-layer="205" to-port="1"/>
		<edge from-layer="205" from-port="2" to-layer="207" to-port="1"/>
		<edge from-layer="206" from-port="0" to-layer="207" to-port="2"/>
		<edge from-layer="207" from-port="3" to-layer="208" to-port="1"/>
		<edge from-layer="208" from-port="2" to-layer="210" to-port="0"/>
		<edge from-layer="209" from-port="0" to-layer="210" to-port="1"/>
		<edge from-layer="210" from-port="2" to-layer="212" to-port="0"/>
		<edge from-layer="211" from-port="0" to-layer="212" to-port="1"/>
		<edge from-layer="212" from-port="2" to-layer="213" to-port="0"/>
		<edge from-layer="213" from-port="1" to-layer="217" to-port="0"/>
		<edge from-layer="214" from-port="0" to-layer="217" to-port="1"/>
		<edge from-layer="215" from-port="0" to-layer="217" to-port="2"/>
		<edge from-layer="216" from-port="0" to-layer="217" to-port="3"/>
		<edge from-layer="217" from-port="4" to-layer="219" to-port="0"/>
		<edge from-layer="218" from-port="0" to-layer="219" to-port="1"/>
		<edge from-layer="219" from-port="2" to-layer="221" to-port="0"/>
		<edge from-layer="220" from-port="0" to-layer="221" to-port="1"/>
		<edge from-layer="221" from-port="2" to-layer="229" to-port="0"/>
		<edge from-layer="221" from-port="2" to-layer="223" to-port="0"/>
		<edge from-layer="222" from-port="0" to-layer="228" to-port="0"/>
		<edge from-layer="223" from-port="1" to-layer="224" to-port="0"/>
		<edge from-layer="224" from-port="1" to-layer="226" to-port="0"/>
		<edge from-layer="225" from-port="0" to-layer="226" to-port="1"/>
		<edge from-layer="226" from-port="2" to-layer="228" to-port="1"/>
		<edge from-layer="227" from-port="0" to-layer="228" to-port="2"/>
		<edge from-layer="228" from-port="3" to-layer="229" to-port="1"/>
		<edge from-layer="229" from-port="2" to-layer="231" to-port="0"/>
		<edge from-layer="230" from-port="0" to-layer="231" to-port="1"/>
		<edge from-layer="231" from-port="2" to-layer="233" to-port="0"/>
		<edge from-layer="232" from-port="0" to-layer="233" to-port="1"/>
		<edge from-layer="233" from-port="2" to-layer="234" to-port="0"/>
		<edge from-layer="234" from-port="1" to-layer="235" to-port="1"/>
		<edge from-layer="235" from-port="2" to-layer="278" to-port="0"/>
		<edge from-layer="235" from-port="2" to-layer="239" to-port="0"/>
		<edge from-layer="236" from-port="0" to-layer="239" to-port="1"/>
		<edge from-layer="237" from-port="0" to-layer="239" to-port="2"/>
		<edge from-layer="238" from-port="0" to-layer="239" to-port="3"/>
		<edge from-layer="239" from-port="4" to-layer="241" to-port="0"/>
		<edge from-layer="240" from-port="0" to-layer="241" to-port="1"/>
		<edge from-layer="241" from-port="2" to-layer="243" to-port="0"/>
		<edge from-layer="242" from-port="0" to-layer="243" to-port="1"/>
		<edge from-layer="243" from-port="2" to-layer="245" to-port="0"/>
		<edge from-layer="243" from-port="2" to-layer="251" to-port="0"/>
		<edge from-layer="244" from-port="0" to-layer="250" to-port="0"/>
		<edge from-layer="245" from-port="1" to-layer="246" to-port="0"/>
		<edge from-layer="246" from-port="1" to-layer="248" to-port="0"/>
		<edge from-layer="247" from-port="0" to-layer="248" to-port="1"/>
		<edge from-layer="248" from-port="2" to-layer="250" to-port="1"/>
		<edge from-layer="249" from-port="0" to-layer="250" to-port="2"/>
		<edge from-layer="250" from-port="3" to-layer="251" to-port="1"/>
		<edge from-layer="251" from-port="2" to-layer="253" to-port="0"/>
		<edge from-layer="252" from-port="0" to-layer="253" to-port="1"/>
		<edge from-layer="253" from-port="2" to-layer="255" to-port="0"/>
		<edge from-layer="254" from-port="0" to-layer="255" to-port="1"/>
		<edge from-layer="255" from-port="2" to-layer="256" to-port="0"/>
		<edge from-layer="256" from-port="1" to-layer="260" to-port="0"/>
		<edge from-layer="257" from-port="0" to-layer="260" to-port="1"/>
		<edge from-layer="258" from-port="0" to-layer="260" to-port="2"/>
		<edge from-layer="259" from-port="0" to-layer="260" to-port="3"/>
		<edge from-layer="260" from-port="4" to-layer="262" to-port="0"/>
		<edge from-layer="261" from-port="0" to-layer="262" to-port="1"/>
		<edge from-layer="262" from-port="2" to-layer="264" to-port="0"/>
		<edge from-layer="263" from-port="0" to-layer="264" to-port="1"/>
		<edge from-layer="264" from-port="2" to-layer="266" to-port="0"/>
		<edge from-layer="264" from-port="2" to-layer="272" to-port="0"/>
		<edge from-layer="265" from-port="0" to-layer="271" to-port="0"/>
		<edge from-layer="266" from-port="1" to-layer="267" to-port="0"/>
		<edge from-layer="267" from-port="1" to-layer="269" to-port="0"/>
		<edge from-layer="268" from-port="0" to-layer="269" to-port="1"/>
		<edge from-layer="269" from-port="2" to-layer="271" to-port="1"/>
		<edge from-layer="270" from-port="0" to-layer="271" to-port="2"/>
		<edge from-layer="271" from-port="3" to-layer="272" to-port="1"/>
		<edge from-layer="272" from-port="2" to-layer="274" to-port="0"/>
		<edge from-layer="273" from-port="0" to-layer="274" to-port="1"/>
		<edge from-layer="274" from-port="2" to-layer="276" to-port="0"/>
		<edge from-layer="275" from-port="0" to-layer="276" to-port="1"/>
		<edge from-layer="276" from-port="2" to-layer="277" to-port="0"/>
		<edge from-layer="277" from-port="1" to-layer="278" to-port="1"/>
		<edge from-layer="278" from-port="2" to-layer="279" to-port="1"/>
		<edge from-layer="279" from-port="2" to-layer="292" to-port="0"/>
		<edge from-layer="279" from-port="2" to-layer="298" to-port="0"/>
		<edge from-layer="279" from-port="2" to-layer="280" to-port="0"/>
		<edge from-layer="280" from-port="1" to-layer="281" to-port="0"/>
		<edge from-layer="281" from-port="1" to-layer="283" to-port="0"/>
		<edge from-layer="282" from-port="0" to-layer="283" to-port="1"/>
		<edge from-layer="283" from-port="2" to-layer="284" to-port="0"/>
		<edge from-layer="284" from-port="1" to-layer="285" to-port="0"/>
		<edge from-layer="285" from-port="1" to-layer="289" to-port="0"/>
		<edge from-layer="286" from-port="0" to-layer="289" to-port="1"/>
		<edge from-layer="287" from-port="0" to-layer="289" to-port="2"/>
		<edge from-layer="288" from-port="0" to-layer="289" to-port="3"/>
		<edge from-layer="289" from-port="4" to-layer="298" to-port="1"/>
		<edge from-layer="290" from-port="0" to-layer="298" to-port="2"/>
		<edge from-layer="291" from-port="0" to-layer="297" to-port="0"/>
		<edge from-layer="292" from-port="1" to-layer="293" to-port="0"/>
		<edge from-layer="293" from-port="1" to-layer="295" to-port="0"/>
		<edge from-layer="294" from-port="0" to-layer="295" to-port="1"/>
		<edge from-layer="295" from-port="2" to-layer="297" to-port="1"/>
		<edge from-layer="296" from-port="0" to-layer="297" to-port="2"/>
		<edge from-layer="297" from-port="3" to-layer="298" to-port="3"/>
		<edge from-layer="298" from-port="4" to-layer="302" to-port="0"/>
		<edge from-layer="299" from-port="0" to-layer="302" to-port="1"/>
		<edge from-layer="300" from-port="0" to-layer="302" to-port="2"/>
		<edge from-layer="301" from-port="0" to-layer="302" to-port="3"/>
		<edge from-layer="302" from-port="4" to-layer="304" to-port="0"/>
		<edge from-layer="303" from-port="0" to-layer="304" to-port="1"/>
		<edge from-layer="304" from-port="2" to-layer="306" to-port="0"/>
		<edge from-layer="305" from-port="0" to-layer="306" to-port="1"/>
		<edge from-layer="306" from-port="2" to-layer="308" to-port="0"/>
		<edge from-layer="306" from-port="2" to-layer="314" to-port="0"/>
		<edge from-layer="307" from-port="0" to-layer="313" to-port="0"/>
		<edge from-layer="308" from-port="1" to-layer="309" to-port="0"/>
		<edge from-layer="309" from-port="1" to-layer="311" to-port="0"/>
		<edge from-layer="310" from-port="0" to-layer="311" to-port="1"/>
		<edge from-layer="311" from-port="2" to-layer="313" to-port="1"/>
		<edge from-layer="312" from-port="0" to-layer="313" to-port="2"/>
		<edge from-layer="313" from-port="3" to-layer="314" to-port="1"/>
		<edge from-layer="314" from-port="2" to-layer="316" to-port="0"/>
		<edge from-layer="315" from-port="0" to-layer="316" to-port="1"/>
		<edge from-layer="316" from-port="2" to-layer="318" to-port="0"/>
		<edge from-layer="317" from-port="0" to-layer="318" to-port="1"/>
		<edge from-layer="318" from-port="2" to-layer="319" to-port="0"/>
		<edge from-layer="319" from-port="1" to-layer="320" to-port="1"/>
		<edge from-layer="320" from-port="2" to-layer="321" to-port="0"/>
		<edge from-layer="320" from-port="2" to-layer="333" to-port="0"/>
		<edge from-layer="320" from-port="2" to-layer="339" to-port="0"/>
		<edge from-layer="321" from-port="1" to-layer="322" to-port="0"/>
		<edge from-layer="322" from-port="1" to-layer="324" to-port="0"/>
		<edge from-layer="323" from-port="0" to-layer="324" to-port="1"/>
		<edge from-layer="324" from-port="2" to-layer="325" to-port="0"/>
		<edge from-layer="325" from-port="1" to-layer="326" to-port="0"/>
		<edge from-layer="326" from-port="1" to-layer="330" to-port="0"/>
		<edge from-layer="327" from-port="0" to-layer="330" to-port="1"/>
		<edge from-layer="328" from-port="0" to-layer="330" to-port="2"/>
		<edge from-layer="329" from-port="0" to-layer="330" to-port="3"/>
		<edge from-layer="330" from-port="4" to-layer="339" to-port="1"/>
		<edge from-layer="331" from-port="0" to-layer="339" to-port="2"/>
		<edge from-layer="332" from-port="0" to-layer="338" to-port="0"/>
		<edge from-layer="333" from-port="1" to-layer="334" to-port="0"/>
		<edge from-layer="334" from-port="1" to-layer="336" to-port="0"/>
		<edge from-layer="335" from-port="0" to-layer="336" to-port="1"/>
		<edge from-layer="336" from-port="2" to-layer="338" to-port="1"/>
		<edge from-layer="337" from-port="0" to-layer="338" to-port="2"/>
		<edge from-layer="338" from-port="3" to-layer="339" to-port="3"/>
		<edge from-layer="339" from-port="4" to-layer="343" to-port="0"/>
		<edge from-layer="340" from-port="0" to-layer="343" to-port="1"/>
		<edge from-layer="341" from-port="0" to-layer="343" to-port="2"/>
		<edge from-layer="342" from-port="0" to-layer="343" to-port="3"/>
		<edge from-layer="343" from-port="4" to-layer="345" to-port="0"/>
		<edge from-layer="344" from-port="0" to-layer="345" to-port="1"/>
		<edge from-layer="345" from-port="2" to-layer="347" to-port="0"/>
		<edge from-layer="346" from-port="0" to-layer="347" to-port="1"/>
		<edge from-layer="347" from-port="2" to-layer="349" to-port="0"/>
		<edge from-layer="347" from-port="2" to-layer="355" to-port="0"/>
		<edge from-layer="348" from-port="0" to-layer="354" to-port="0"/>
		<edge from-layer="349" from-port="1" to-layer="350" to-port="0"/>
		<edge from-layer="350" from-port="1" to-layer="352" to-port="0"/>
		<edge from-layer="351" from-port="0" to-layer="352" to-port="1"/>
		<edge from-layer="352" from-port="2" to-layer="354" to-port="1"/>
		<edge from-layer="353" from-port="0" to-layer="354" to-port="2"/>
		<edge from-layer="354" from-port="3" to-layer="355" to-port="1"/>
		<edge from-layer="355" from-port="2" to-layer="357" to-port="0"/>
		<edge from-layer="356" from-port="0" to-layer="357" to-port="1"/>
		<edge from-layer="357" from-port="2" to-layer="359" to-port="0"/>
		<edge from-layer="358" from-port="0" to-layer="359" to-port="1"/>
		<edge from-layer="359" from-port="2" to-layer="360" to-port="0"/>
		<edge from-layer="360" from-port="1" to-layer="361" to-port="1"/>
		<edge from-layer="361" from-port="2" to-layer="365" to-port="0"/>
		<edge from-layer="362" from-port="0" to-layer="365" to-port="1"/>
		<edge from-layer="363" from-port="0" to-layer="365" to-port="2"/>
		<edge from-layer="364" from-port="0" to-layer="365" to-port="3"/>
		<edge from-layer="365" from-port="4" to-layer="367" to-port="0"/>
		<edge from-layer="366" from-port="0" to-layer="367" to-port="1"/>
		<edge from-layer="367" from-port="2" to-layer="369" to-port="0"/>
		<edge from-layer="368" from-port="0" to-layer="369" to-port="1"/>
		<edge from-layer="369" from-port="2" to-layer="370" to-port="0"/>
	</edges>
	<meta_data>
		<MO_version value="2021.4.2-3974-e2a469a3450-releases/2021/4"/>
		<cli_parameters>
			<caffe_parser_path value="DIR"/>
			<data_type value="FP16"/>
			<disable_nhwc_to_nchw value="False"/>
			<disable_omitting_optional value="False"/>
			<disable_resnet_optimization value="False"/>
			<disable_weights_compression value="False"/>
			<enable_concat_optimization value="False"/>
			<enable_flattening_nested_params value="False"/>
			<enable_ssd_gluoncv value="False"/>
			<extensions value="DIR"/>
			<framework value="onnx"/>
			<freeze_placeholder_with_value value="{}"/>
			<generate_deprecated_IR_V7 value="False"/>
			<input_model value="DIR\mosaic_opt_flow_grad_clip_1.onnx"/>
			<input_model_is_text value="False"/>
			<k value="DIR\CustomLayersMapping.xml"/>
			<keep_shape_ops value="True"/>
			<legacy_ir_generation value="False"/>
			<legacy_mxnet_model value="False"/>
			<log_level value="ERROR"/>
			<mean_scale_values value="{}"/>
			<mean_values value="()"/>
			<model_name value="mosaic_opt_flow_grad_clip_1"/>
			<output_dir value="DIR"/>
			<placeholder_data_types value="{}"/>
			<progress value="False"/>
			<remove_memory value="False"/>
			<remove_output_softmax value="False"/>
			<reverse_input_channels value="False"/>
			<save_params_from_nd value="False"/>
			<scale_values value="()"/>
			<silent value="False"/>
			<static_shape value="False"/>
			<stream_output value="False"/>
			<transform value=""/>
			<unset unset_cli_parameters="batch, counts, disable_fusing, disable_gfusing, finegrain_fusing, input, input_checkpoint, input_meta_graph, input_proto, input_shape, input_symbol, mean_file, mean_file_offsets, move_to_preprocess, nd_prefix_name, output, placeholder_shapes, pretrained_model_name, saved_model_dir, saved_model_tags, scale, tensorboard_logdir, tensorflow_custom_layer_libraries, tensorflow_custom_operations_config_update, tensorflow_object_detection_api_pipeline_config, tensorflow_use_custom_operations_config, transformations_config"/>
		</cli_parameters>
	</meta_data>
</net>
