<?xml version="1.0" ?>
<net name="yolox_10" version="10">
	<layers>
		<layer id="0" name="inputs" type="Parameter" version="opset1">
			<data element_type="f16" shape="1, 3, 640, 640"/>
			<output>
				<port id="0" names="inputs" precision="FP16">
					<dim>1</dim>
					<dim>3</dim>
					<dim>640</dim>
					<dim>640</dim>
				</port>
			</output>
		</layer>
		<layer id="1" name="Slice_4/Concat592120366" type="Const" version="opset1">
			<data element_type="i64" offset="0" shape="4" size="32"/>
			<output>
				<port id="0" precision="I64">
					<dim>4</dim>
				</port>
			</output>
		</layer>
		<layer id="2" name="Slice_4/Concat5905592220195" type="Const" version="opset1">
			<data element_type="i64" offset="32" shape="4" size="32"/>
			<output>
				<port id="0" precision="I64">
					<dim>4</dim>
				</port>
			</output>
		</layer>
		<layer id="3" name="Slice_4/Strides592320312" type="Const" version="opset1">
			<data element_type="i64" offset="64" shape="4" size="32"/>
			<output>
				<port id="0" precision="I64">
					<dim>4</dim>
				</port>
			</output>
		</layer>
		<layer id="4" name="Slice_4" type="StridedSlice" version="opset1">
			<data begin_mask="1, 1, 0, 1" ellipsis_mask="0, 0, 0, 0" end_mask="1, 1, 0, 1" new_axis_mask="0, 0, 0, 0" shrink_axis_mask="0, 0, 0, 0"/>
			<input>
				<port id="0" precision="FP16">
					<dim>1</dim>
					<dim>3</dim>
					<dim>640</dim>
					<dim>640</dim>
				</port>
				<port id="1" precision="I64">
					<dim>4</dim>
				</port>
				<port id="2" precision="I64">
					<dim>4</dim>
				</port>
				<port id="3" precision="I64">
					<dim>4</dim>
				</port>
			</input>
			<output>
				<port id="4" names="611" precision="FP16">
					<dim>1</dim>
					<dim>3</dim>
					<dim>320</dim>
					<dim>640</dim>
				</port>
			</output>
		</layer>
		<layer id="5" name="Slice_9/Concat596919967" type="Const" version="opset1">
			<data element_type="i64" offset="0" shape="4" size="32"/>
			<output>
				<port id="0" precision="I64">
					<dim>4</dim>
				</port>
			</output>
		</layer>
		<layer id="6" name="Slice_9/Concat5953597020354" type="Const" version="opset1">
			<data element_type="i64" offset="96" shape="4" size="32"/>
			<output>
				<port id="0" precision="I64">
					<dim>4</dim>
				</port>
			</output>
		</layer>
		<layer id="7" name="Slice_9/Strides597120378" type="Const" version="opset1">
			<data element_type="i64" offset="128" shape="4" size="32"/>
			<output>
				<port id="0" precision="I64">
					<dim>4</dim>
				</port>
			</output>
		</layer>
		<layer id="8" name="Slice_9" type="StridedSlice" version="opset1">
			<data begin_mask="1, 1, 1, 0" ellipsis_mask="0, 0, 0, 0" end_mask="1, 1, 1, 0" new_axis_mask="0, 0, 0, 0" shrink_axis_mask="0, 0, 0, 0"/>
			<input>
				<port id="0" precision="FP16">
					<dim>1</dim>
					<dim>3</dim>
					<dim>320</dim>
					<dim>640</dim>
				</port>
				<port id="1" precision="I64">
					<dim>4</dim>
				</port>
				<port id="2" precision="I64">
					<dim>4</dim>
				</port>
				<port id="3" precision="I64">
					<dim>4</dim>
				</port>
			</input>
			<output>
				<port id="4" names="616" precision="FP16">
					<dim>1</dim>
					<dim>3</dim>
					<dim>320</dim>
					<dim>320</dim>
				</port>
			</output>
		</layer>
		<layer id="9" name="Slice_24/Concat611320555" type="Const" version="opset1">
			<data element_type="i64" offset="160" shape="4" size="32"/>
			<output>
				<port id="0" precision="I64">
					<dim>4</dim>
				</port>
			</output>
		</layer>
		<layer id="10" name="Slice_24/Concat6097611420339" type="Const" version="opset1">
			<data element_type="i64" offset="32" shape="4" size="32"/>
			<output>
				<port id="0" precision="I64">
					<dim>4</dim>
				</port>
			</output>
		</layer>
		<layer id="11" name="Slice_24/Strides611519970" type="Const" version="opset1">
			<data element_type="i64" offset="64" shape="4" size="32"/>
			<output>
				<port id="0" precision="I64">
					<dim>4</dim>
				</port>
			</output>
		</layer>
		<layer id="12" name="Slice_24" type="StridedSlice" version="opset1">
			<data begin_mask="1, 1, 0, 1" ellipsis_mask="0, 0, 0, 0" end_mask="1, 1, 0, 1" new_axis_mask="0, 0, 0, 0" shrink_axis_mask="0, 0, 0, 0"/>
			<input>
				<port id="0" precision="FP16">
					<dim>1</dim>
					<dim>3</dim>
					<dim>640</dim>
					<dim>640</dim>
				</port>
				<port id="1" precision="I64">
					<dim>4</dim>
				</port>
				<port id="2" precision="I64">
					<dim>4</dim>
				</port>
				<port id="3" precision="I64">
					<dim>4</dim>
				</port>
			</input>
			<output>
				<port id="4" names="631" precision="FP16">
					<dim>1</dim>
					<dim>3</dim>
					<dim>320</dim>
					<dim>640</dim>
				</port>
			</output>
		</layer>
		<layer id="13" name="Slice_29/Concat616120594" type="Const" version="opset1">
			<data element_type="i64" offset="0" shape="4" size="32"/>
			<output>
				<port id="0" precision="I64">
					<dim>4</dim>
				</port>
			</output>
		</layer>
		<layer id="14" name="Slice_29/Concat6145616220441" type="Const" version="opset1">
			<data element_type="i64" offset="96" shape="4" size="32"/>
			<output>
				<port id="0" precision="I64">
					<dim>4</dim>
				</port>
			</output>
		</layer>
		<layer id="15" name="Slice_29/Strides616320393" type="Const" version="opset1">
			<data element_type="i64" offset="128" shape="4" size="32"/>
			<output>
				<port id="0" precision="I64">
					<dim>4</dim>
				</port>
			</output>
		</layer>
		<layer id="16" name="Slice_29" type="StridedSlice" version="opset1">
			<data begin_mask="1, 1, 1, 0" ellipsis_mask="0, 0, 0, 0" end_mask="1, 1, 1, 0" new_axis_mask="0, 0, 0, 0" shrink_axis_mask="0, 0, 0, 0"/>
			<input>
				<port id="0" precision="FP16">
					<dim>1</dim>
					<dim>3</dim>
					<dim>320</dim>
					<dim>640</dim>
				</port>
				<port id="1" precision="I64">
					<dim>4</dim>
				</port>
				<port id="2" precision="I64">
					<dim>4</dim>
				</port>
				<port id="3" precision="I64">
					<dim>4</dim>
				</port>
			</input>
			<output>
				<port id="4" names="636" precision="FP16">
					<dim>1</dim>
					<dim>3</dim>
					<dim>320</dim>
					<dim>320</dim>
				</port>
			</output>
		</layer>
		<layer id="17" name="Slice_14/Concat601720585" type="Const" version="opset1">
			<data element_type="i64" offset="0" shape="4" size="32"/>
			<output>
				<port id="0" precision="I64">
					<dim>4</dim>
				</port>
			</output>
		</layer>
		<layer id="18" name="Slice_14/Concat6001601820222" type="Const" version="opset1">
			<data element_type="i64" offset="32" shape="4" size="32"/>
			<output>
				<port id="0" precision="I64">
					<dim>4</dim>
				</port>
			</output>
		</layer>
		<layer id="19" name="Slice_14/Strides601920687" type="Const" version="opset1">
			<data element_type="i64" offset="64" shape="4" size="32"/>
			<output>
				<port id="0" precision="I64">
					<dim>4</dim>
				</port>
			</output>
		</layer>
		<layer id="20" name="Slice_14" type="StridedSlice" version="opset1">
			<data begin_mask="1, 1, 0, 1" ellipsis_mask="0, 0, 0, 0" end_mask="1, 1, 0, 1" new_axis_mask="0, 0, 0, 0" shrink_axis_mask="0, 0, 0, 0"/>
			<input>
				<port id="0" precision="FP16">
					<dim>1</dim>
					<dim>3</dim>
					<dim>640</dim>
					<dim>640</dim>
				</port>
				<port id="1" precision="I64">
					<dim>4</dim>
				</port>
				<port id="2" precision="I64">
					<dim>4</dim>
				</port>
				<port id="3" precision="I64">
					<dim>4</dim>
				</port>
			</input>
			<output>
				<port id="4" names="621" precision="FP16">
					<dim>1</dim>
					<dim>3</dim>
					<dim>320</dim>
					<dim>640</dim>
				</port>
			</output>
		</layer>
		<layer id="21" name="Slice_19/Concat606520105" type="Const" version="opset1">
			<data element_type="i64" offset="192" shape="4" size="32"/>
			<output>
				<port id="0" precision="I64">
					<dim>4</dim>
				</port>
			</output>
		</layer>
		<layer id="22" name="Slice_19/Concat6049606620624" type="Const" version="opset1">
			<data element_type="i64" offset="96" shape="4" size="32"/>
			<output>
				<port id="0" precision="I64">
					<dim>4</dim>
				</port>
			</output>
		</layer>
		<layer id="23" name="Slice_19/Strides606720660" type="Const" version="opset1">
			<data element_type="i64" offset="128" shape="4" size="32"/>
			<output>
				<port id="0" precision="I64">
					<dim>4</dim>
				</port>
			</output>
		</layer>
		<layer id="24" name="Slice_19" type="StridedSlice" version="opset1">
			<data begin_mask="1, 1, 1, 0" ellipsis_mask="0, 0, 0, 0" end_mask="1, 1, 1, 0" new_axis_mask="0, 0, 0, 0" shrink_axis_mask="0, 0, 0, 0"/>
			<input>
				<port id="0" precision="FP16">
					<dim>1</dim>
					<dim>3</dim>
					<dim>320</dim>
					<dim>640</dim>
				</port>
				<port id="1" precision="I64">
					<dim>4</dim>
				</port>
				<port id="2" precision="I64">
					<dim>4</dim>
				</port>
				<port id="3" precision="I64">
					<dim>4</dim>
				</port>
			</input>
			<output>
				<port id="4" names="626" precision="FP16">
					<dim>1</dim>
					<dim>3</dim>
					<dim>320</dim>
					<dim>320</dim>
				</port>
			</output>
		</layer>
		<layer id="25" name="Slice_34/Concat620920213" type="Const" version="opset1">
			<data element_type="i64" offset="160" shape="4" size="32"/>
			<output>
				<port id="0" precision="I64">
					<dim>4</dim>
				</port>
			</output>
		</layer>
		<layer id="26" name="Slice_34/Concat6193621020663" type="Const" version="opset1">
			<data element_type="i64" offset="32" shape="4" size="32"/>
			<output>
				<port id="0" precision="I64">
					<dim>4</dim>
				</port>
			</output>
		</layer>
		<layer id="27" name="Slice_34/Strides621120645" type="Const" version="opset1">
			<data element_type="i64" offset="64" shape="4" size="32"/>
			<output>
				<port id="0" precision="I64">
					<dim>4</dim>
				</port>
			</output>
		</layer>
		<layer id="28" name="Slice_34" type="StridedSlice" version="opset1">
			<data begin_mask="1, 1, 0, 1" ellipsis_mask="0, 0, 0, 0" end_mask="1, 1, 0, 1" new_axis_mask="0, 0, 0, 0" shrink_axis_mask="0, 0, 0, 0"/>
			<input>
				<port id="0" precision="FP16">
					<dim>1</dim>
					<dim>3</dim>
					<dim>640</dim>
					<dim>640</dim>
				</port>
				<port id="1" precision="I64">
					<dim>4</dim>
				</port>
				<port id="2" precision="I64">
					<dim>4</dim>
				</port>
				<port id="3" precision="I64">
					<dim>4</dim>
				</port>
			</input>
			<output>
				<port id="4" names="641" precision="FP16">
					<dim>1</dim>
					<dim>3</dim>
					<dim>320</dim>
					<dim>640</dim>
				</port>
			</output>
		</layer>
		<layer id="29" name="Slice_39/Concat625719979" type="Const" version="opset1">
			<data element_type="i64" offset="192" shape="4" size="32"/>
			<output>
				<port id="0" precision="I64">
					<dim>4</dim>
				</port>
			</output>
		</layer>
		<layer id="30" name="Slice_39/Concat6241625820057" type="Const" version="opset1">
			<data element_type="i64" offset="96" shape="4" size="32"/>
			<output>
				<port id="0" precision="I64">
					<dim>4</dim>
				</port>
			</output>
		</layer>
		<layer id="31" name="Slice_39/Strides625920141" type="Const" version="opset1">
			<data element_type="i64" offset="128" shape="4" size="32"/>
			<output>
				<port id="0" precision="I64">
					<dim>4</dim>
				</port>
			</output>
		</layer>
		<layer id="32" name="Slice_39" type="StridedSlice" version="opset1">
			<data begin_mask="1, 1, 1, 0" ellipsis_mask="0, 0, 0, 0" end_mask="1, 1, 1, 0" new_axis_mask="0, 0, 0, 0" shrink_axis_mask="0, 0, 0, 0"/>
			<input>
				<port id="0" precision="FP16">
					<dim>1</dim>
					<dim>3</dim>
					<dim>320</dim>
					<dim>640</dim>
				</port>
				<port id="1" precision="I64">
					<dim>4</dim>
				</port>
				<port id="2" precision="I64">
					<dim>4</dim>
				</port>
				<port id="3" precision="I64">
					<dim>4</dim>
				</port>
			</input>
			<output>
				<port id="4" names="646" precision="FP16">
					<dim>1</dim>
					<dim>3</dim>
					<dim>320</dim>
					<dim>320</dim>
				</port>
			</output>
		</layer>
		<layer id="33" name="Concat_40" type="Concat" version="opset1">
			<data axis="1"/>
			<input>
				<port id="0" precision="FP16">
					<dim>1</dim>
					<dim>3</dim>
					<dim>320</dim>
					<dim>320</dim>
				</port>
				<port id="1" precision="FP16">
					<dim>1</dim>
					<dim>3</dim>
					<dim>320</dim>
					<dim>320</dim>
				</port>
				<port id="2" precision="FP16">
					<dim>1</dim>
					<dim>3</dim>
					<dim>320</dim>
					<dim>320</dim>
				</port>
				<port id="3" precision="FP16">
					<dim>1</dim>
					<dim>3</dim>
					<dim>320</dim>
					<dim>320</dim>
				</port>
			</input>
			<output>
				<port id="4" names="647" precision="FP16">
					<dim>1</dim>
					<dim>12</dim>
					<dim>320</dim>
					<dim>320</dim>
				</port>
			</output>
		</layer>
		<layer id="34" name="1123" type="Const" version="opset1">
			<data element_type="f16" offset="224" shape="48, 12, 3, 3" size="10368"/>
			<output>
				<port id="0" names="1123" precision="FP16">
					<dim>48</dim>
					<dim>12</dim>
					<dim>3</dim>
					<dim>3</dim>
				</port>
			</output>
		</layer>
		<layer id="35" name="Conv_41/WithoutBiases" type="Convolution" version="opset1">
			<data auto_pad="explicit" dilations="1, 1" pads_begin="1, 1" pads_end="1, 1" strides="1, 1"/>
			<input>
				<port id="0" precision="FP16">
					<dim>1</dim>
					<dim>12</dim>
					<dim>320</dim>
					<dim>320</dim>
				</port>
				<port id="1" precision="FP16">
					<dim>48</dim>
					<dim>12</dim>
					<dim>3</dim>
					<dim>3</dim>
				</port>
			</input>
			<output>
				<port id="2" precision="FP16">
					<dim>1</dim>
					<dim>48</dim>
					<dim>320</dim>
					<dim>320</dim>
				</port>
			</output>
		</layer>
		<layer id="36" name="Conv_41/Dims5538" type="Const" version="opset1">
			<data element_type="f16" offset="10592" shape="1, 48, 1, 1" size="96"/>
			<output>
				<port id="0" precision="FP16">
					<dim>1</dim>
					<dim>48</dim>
					<dim>1</dim>
					<dim>1</dim>
				</port>
			</output>
		</layer>
		<layer id="37" name="Conv_41" type="Add" version="opset1">
			<data auto_broadcast="numpy"/>
			<input>
				<port id="0" precision="FP16">
					<dim>1</dim>
					<dim>48</dim>
					<dim>320</dim>
					<dim>320</dim>
				</port>
				<port id="1" precision="FP16">
					<dim>1</dim>
					<dim>48</dim>
					<dim>1</dim>
					<dim>1</dim>
				</port>
			</input>
			<output>
				<port id="2" names="1122" precision="FP16">
					<dim>1</dim>
					<dim>48</dim>
					<dim>320</dim>
					<dim>320</dim>
				</port>
			</output>
		</layer>
		<layer id="38" name="Mul_43" type="Swish" version="opset4">
			<input>
				<port id="0" precision="FP16">
					<dim>1</dim>
					<dim>48</dim>
					<dim>320</dim>
					<dim>320</dim>
				</port>
			</input>
			<output>
				<port id="1" names="651" precision="FP16">
					<dim>1</dim>
					<dim>48</dim>
					<dim>320</dim>
					<dim>320</dim>
				</port>
			</output>
		</layer>
		<layer id="39" name="1126" type="Const" version="opset1">
			<data element_type="f16" offset="10688" shape="96, 48, 3, 3" size="82944"/>
			<output>
				<port id="0" names="1126" precision="FP16">
					<dim>96</dim>
					<dim>48</dim>
					<dim>3</dim>
					<dim>3</dim>
				</port>
			</output>
		</layer>
		<layer id="40" name="Conv_44/WithoutBiases" type="Convolution" version="opset1">
			<data auto_pad="explicit" dilations="1, 1" pads_begin="1, 1" pads_end="1, 1" strides="2, 2"/>
			<input>
				<port id="0" precision="FP16">
					<dim>1</dim>
					<dim>48</dim>
					<dim>320</dim>
					<dim>320</dim>
				</port>
				<port id="1" precision="FP16">
					<dim>96</dim>
					<dim>48</dim>
					<dim>3</dim>
					<dim>3</dim>
				</port>
			</input>
			<output>
				<port id="2" precision="FP16">
					<dim>1</dim>
					<dim>96</dim>
					<dim>160</dim>
					<dim>160</dim>
				</port>
			</output>
		</layer>
		<layer id="41" name="Conv_44/Dims5190" type="Const" version="opset1">
			<data element_type="f16" offset="93632" shape="1, 96, 1, 1" size="192"/>
			<output>
				<port id="0" precision="FP16">
					<dim>1</dim>
					<dim>96</dim>
					<dim>1</dim>
					<dim>1</dim>
				</port>
			</output>
		</layer>
		<layer id="42" name="Conv_44" type="Add" version="opset1">
			<data auto_broadcast="numpy"/>
			<input>
				<port id="0" precision="FP16">
					<dim>1</dim>
					<dim>96</dim>
					<dim>160</dim>
					<dim>160</dim>
				</port>
				<port id="1" precision="FP16">
					<dim>1</dim>
					<dim>96</dim>
					<dim>1</dim>
					<dim>1</dim>
				</port>
			</input>
			<output>
				<port id="2" names="1125" precision="FP16">
					<dim>1</dim>
					<dim>96</dim>
					<dim>160</dim>
					<dim>160</dim>
				</port>
			</output>
		</layer>
		<layer id="43" name="Mul_46" type="Swish" version="opset4">
			<input>
				<port id="0" precision="FP16">
					<dim>1</dim>
					<dim>96</dim>
					<dim>160</dim>
					<dim>160</dim>
				</port>
			</input>
			<output>
				<port id="1" names="655" precision="FP16">
					<dim>1</dim>
					<dim>96</dim>
					<dim>160</dim>
					<dim>160</dim>
				</port>
			</output>
		</layer>
		<layer id="44" name="1129" type="Const" version="opset1">
			<data element_type="f16" offset="93824" shape="48, 96, 1, 1" size="9216"/>
			<output>
				<port id="0" names="1129" precision="FP16">
					<dim>48</dim>
					<dim>96</dim>
					<dim>1</dim>
					<dim>1</dim>
				</port>
			</output>
		</layer>
		<layer id="45" name="Conv_47/WithoutBiases" type="Convolution" version="opset1">
			<data auto_pad="explicit" dilations="1, 1" pads_begin="0, 0" pads_end="0, 0" strides="1, 1"/>
			<input>
				<port id="0" precision="FP16">
					<dim>1</dim>
					<dim>96</dim>
					<dim>160</dim>
					<dim>160</dim>
				</port>
				<port id="1" precision="FP16">
					<dim>48</dim>
					<dim>96</dim>
					<dim>1</dim>
					<dim>1</dim>
				</port>
			</input>
			<output>
				<port id="2" precision="FP16">
					<dim>1</dim>
					<dim>48</dim>
					<dim>160</dim>
					<dim>160</dim>
				</port>
			</output>
		</layer>
		<layer id="46" name="Conv_47/Dims4980" type="Const" version="opset1">
			<data element_type="f16" offset="103040" shape="1, 48, 1, 1" size="96"/>
			<output>
				<port id="0" precision="FP16">
					<dim>1</dim>
					<dim>48</dim>
					<dim>1</dim>
					<dim>1</dim>
				</port>
			</output>
		</layer>
		<layer id="47" name="Conv_47" type="Add" version="opset1">
			<data auto_broadcast="numpy"/>
			<input>
				<port id="0" precision="FP16">
					<dim>1</dim>
					<dim>48</dim>
					<dim>160</dim>
					<dim>160</dim>
				</port>
				<port id="1" precision="FP16">
					<dim>1</dim>
					<dim>48</dim>
					<dim>1</dim>
					<dim>1</dim>
				</port>
			</input>
			<output>
				<port id="2" names="1128" precision="FP16">
					<dim>1</dim>
					<dim>48</dim>
					<dim>160</dim>
					<dim>160</dim>
				</port>
			</output>
		</layer>
		<layer id="48" name="Mul_49" type="Swish" version="opset4">
			<input>
				<port id="0" precision="FP16">
					<dim>1</dim>
					<dim>48</dim>
					<dim>160</dim>
					<dim>160</dim>
				</port>
			</input>
			<output>
				<port id="1" names="659" precision="FP16">
					<dim>1</dim>
					<dim>48</dim>
					<dim>160</dim>
					<dim>160</dim>
				</port>
			</output>
		</layer>
		<layer id="49" name="1135" type="Const" version="opset1">
			<data element_type="f16" offset="103136" shape="48, 48, 1, 1" size="4608"/>
			<output>
				<port id="0" names="1135" precision="FP16">
					<dim>48</dim>
					<dim>48</dim>
					<dim>1</dim>
					<dim>1</dim>
				</port>
			</output>
		</layer>
		<layer id="50" name="Conv_53/WithoutBiases" type="Convolution" version="opset1">
			<data auto_pad="explicit" dilations="1, 1" pads_begin="0, 0" pads_end="0, 0" strides="1, 1"/>
			<input>
				<port id="0" precision="FP16">
					<dim>1</dim>
					<dim>48</dim>
					<dim>160</dim>
					<dim>160</dim>
				</port>
				<port id="1" precision="FP16">
					<dim>48</dim>
					<dim>48</dim>
					<dim>1</dim>
					<dim>1</dim>
				</port>
			</input>
			<output>
				<port id="2" precision="FP16">
					<dim>1</dim>
					<dim>48</dim>
					<dim>160</dim>
					<dim>160</dim>
				</port>
			</output>
		</layer>
		<layer id="51" name="Conv_53/Dims5556" type="Const" version="opset1">
			<data element_type="f16" offset="107744" shape="1, 48, 1, 1" size="96"/>
			<output>
				<port id="0" precision="FP16">
					<dim>1</dim>
					<dim>48</dim>
					<dim>1</dim>
					<dim>1</dim>
				</port>
			</output>
		</layer>
		<layer id="52" name="Conv_53" type="Add" version="opset1">
			<data auto_broadcast="numpy"/>
			<input>
				<port id="0" precision="FP16">
					<dim>1</dim>
					<dim>48</dim>
					<dim>160</dim>
					<dim>160</dim>
				</port>
				<port id="1" precision="FP16">
					<dim>1</dim>
					<dim>48</dim>
					<dim>1</dim>
					<dim>1</dim>
				</port>
			</input>
			<output>
				<port id="2" names="1134" precision="FP16">
					<dim>1</dim>
					<dim>48</dim>
					<dim>160</dim>
					<dim>160</dim>
				</port>
			</output>
		</layer>
		<layer id="53" name="Mul_55" type="Swish" version="opset4">
			<input>
				<port id="0" precision="FP16">
					<dim>1</dim>
					<dim>48</dim>
					<dim>160</dim>
					<dim>160</dim>
				</port>
			</input>
			<output>
				<port id="1" names="667" precision="FP16">
					<dim>1</dim>
					<dim>48</dim>
					<dim>160</dim>
					<dim>160</dim>
				</port>
			</output>
		</layer>
		<layer id="54" name="1138" type="Const" version="opset1">
			<data element_type="f16" offset="107840" shape="48, 48, 3, 3" size="41472"/>
			<output>
				<port id="0" names="1138" precision="FP16">
					<dim>48</dim>
					<dim>48</dim>
					<dim>3</dim>
					<dim>3</dim>
				</port>
			</output>
		</layer>
		<layer id="55" name="Conv_56/WithoutBiases" type="Convolution" version="opset1">
			<data auto_pad="explicit" dilations="1, 1" pads_begin="1, 1" pads_end="1, 1" strides="1, 1"/>
			<input>
				<port id="0" precision="FP16">
					<dim>1</dim>
					<dim>48</dim>
					<dim>160</dim>
					<dim>160</dim>
				</port>
				<port id="1" precision="FP16">
					<dim>48</dim>
					<dim>48</dim>
					<dim>3</dim>
					<dim>3</dim>
				</port>
			</input>
			<output>
				<port id="2" precision="FP16">
					<dim>1</dim>
					<dim>48</dim>
					<dim>160</dim>
					<dim>160</dim>
				</port>
			</output>
		</layer>
		<layer id="56" name="Conv_56/Dims5442" type="Const" version="opset1">
			<data element_type="f16" offset="149312" shape="1, 48, 1, 1" size="96"/>
			<output>
				<port id="0" precision="FP16">
					<dim>1</dim>
					<dim>48</dim>
					<dim>1</dim>
					<dim>1</dim>
				</port>
			</output>
		</layer>
		<layer id="57" name="Conv_56" type="Add" version="opset1">
			<data auto_broadcast="numpy"/>
			<input>
				<port id="0" precision="FP16">
					<dim>1</dim>
					<dim>48</dim>
					<dim>160</dim>
					<dim>160</dim>
				</port>
				<port id="1" precision="FP16">
					<dim>1</dim>
					<dim>48</dim>
					<dim>1</dim>
					<dim>1</dim>
				</port>
			</input>
			<output>
				<port id="2" names="1137" precision="FP16">
					<dim>1</dim>
					<dim>48</dim>
					<dim>160</dim>
					<dim>160</dim>
				</port>
			</output>
		</layer>
		<layer id="58" name="Mul_58" type="Swish" version="opset4">
			<input>
				<port id="0" precision="FP16">
					<dim>1</dim>
					<dim>48</dim>
					<dim>160</dim>
					<dim>160</dim>
				</port>
			</input>
			<output>
				<port id="1" names="671" precision="FP16">
					<dim>1</dim>
					<dim>48</dim>
					<dim>160</dim>
					<dim>160</dim>
				</port>
			</output>
		</layer>
		<layer id="59" name="Add_59" type="Add" version="opset1">
			<data auto_broadcast="numpy"/>
			<input>
				<port id="0" precision="FP16">
					<dim>1</dim>
					<dim>48</dim>
					<dim>160</dim>
					<dim>160</dim>
				</port>
				<port id="1" precision="FP16">
					<dim>1</dim>
					<dim>48</dim>
					<dim>160</dim>
					<dim>160</dim>
				</port>
			</input>
			<output>
				<port id="2" names="672" precision="FP16">
					<dim>1</dim>
					<dim>48</dim>
					<dim>160</dim>
					<dim>160</dim>
				</port>
			</output>
		</layer>
		<layer id="60" name="1141" type="Const" version="opset1">
			<data element_type="f16" offset="149408" shape="48, 48, 1, 1" size="4608"/>
			<output>
				<port id="0" names="1141" precision="FP16">
					<dim>48</dim>
					<dim>48</dim>
					<dim>1</dim>
					<dim>1</dim>
				</port>
			</output>
		</layer>
		<layer id="61" name="Conv_60/WithoutBiases" type="Convolution" version="opset1">
			<data auto_pad="explicit" dilations="1, 1" pads_begin="0, 0" pads_end="0, 0" strides="1, 1"/>
			<input>
				<port id="0" precision="FP16">
					<dim>1</dim>
					<dim>48</dim>
					<dim>160</dim>
					<dim>160</dim>
				</port>
				<port id="1" precision="FP16">
					<dim>48</dim>
					<dim>48</dim>
					<dim>1</dim>
					<dim>1</dim>
				</port>
			</input>
			<output>
				<port id="2" precision="FP16">
					<dim>1</dim>
					<dim>48</dim>
					<dim>160</dim>
					<dim>160</dim>
				</port>
			</output>
		</layer>
		<layer id="62" name="Conv_60/Dims5592" type="Const" version="opset1">
			<data element_type="f16" offset="154016" shape="1, 48, 1, 1" size="96"/>
			<output>
				<port id="0" precision="FP16">
					<dim>1</dim>
					<dim>48</dim>
					<dim>1</dim>
					<dim>1</dim>
				</port>
			</output>
		</layer>
		<layer id="63" name="Conv_60" type="Add" version="opset1">
			<data auto_broadcast="numpy"/>
			<input>
				<port id="0" precision="FP16">
					<dim>1</dim>
					<dim>48</dim>
					<dim>160</dim>
					<dim>160</dim>
				</port>
				<port id="1" precision="FP16">
					<dim>1</dim>
					<dim>48</dim>
					<dim>1</dim>
					<dim>1</dim>
				</port>
			</input>
			<output>
				<port id="2" names="1140" precision="FP16">
					<dim>1</dim>
					<dim>48</dim>
					<dim>160</dim>
					<dim>160</dim>
				</port>
			</output>
		</layer>
		<layer id="64" name="Mul_62" type="Swish" version="opset4">
			<input>
				<port id="0" precision="FP16">
					<dim>1</dim>
					<dim>48</dim>
					<dim>160</dim>
					<dim>160</dim>
				</port>
			</input>
			<output>
				<port id="1" names="676" precision="FP16">
					<dim>1</dim>
					<dim>48</dim>
					<dim>160</dim>
					<dim>160</dim>
				</port>
			</output>
		</layer>
		<layer id="65" name="1144" type="Const" version="opset1">
			<data element_type="f16" offset="154112" shape="48, 48, 3, 3" size="41472"/>
			<output>
				<port id="0" names="1144" precision="FP16">
					<dim>48</dim>
					<dim>48</dim>
					<dim>3</dim>
					<dim>3</dim>
				</port>
			</output>
		</layer>
		<layer id="66" name="Conv_63/WithoutBiases" type="Convolution" version="opset1">
			<data auto_pad="explicit" dilations="1, 1" pads_begin="1, 1" pads_end="1, 1" strides="1, 1"/>
			<input>
				<port id="0" precision="FP16">
					<dim>1</dim>
					<dim>48</dim>
					<dim>160</dim>
					<dim>160</dim>
				</port>
				<port id="1" precision="FP16">
					<dim>48</dim>
					<dim>48</dim>
					<dim>3</dim>
					<dim>3</dim>
				</port>
			</input>
			<output>
				<port id="2" precision="FP16">
					<dim>1</dim>
					<dim>48</dim>
					<dim>160</dim>
					<dim>160</dim>
				</port>
			</output>
		</layer>
		<layer id="67" name="Conv_63/Dims5178" type="Const" version="opset1">
			<data element_type="f16" offset="195584" shape="1, 48, 1, 1" size="96"/>
			<output>
				<port id="0" precision="FP16">
					<dim>1</dim>
					<dim>48</dim>
					<dim>1</dim>
					<dim>1</dim>
				</port>
			</output>
		</layer>
		<layer id="68" name="Conv_63" type="Add" version="opset1">
			<data auto_broadcast="numpy"/>
			<input>
				<port id="0" precision="FP16">
					<dim>1</dim>
					<dim>48</dim>
					<dim>160</dim>
					<dim>160</dim>
				</port>
				<port id="1" precision="FP16">
					<dim>1</dim>
					<dim>48</dim>
					<dim>1</dim>
					<dim>1</dim>
				</port>
			</input>
			<output>
				<port id="2" names="1143" precision="FP16">
					<dim>1</dim>
					<dim>48</dim>
					<dim>160</dim>
					<dim>160</dim>
				</port>
			</output>
		</layer>
		<layer id="69" name="Mul_65" type="Swish" version="opset4">
			<input>
				<port id="0" precision="FP16">
					<dim>1</dim>
					<dim>48</dim>
					<dim>160</dim>
					<dim>160</dim>
				</port>
			</input>
			<output>
				<port id="1" names="680" precision="FP16">
					<dim>1</dim>
					<dim>48</dim>
					<dim>160</dim>
					<dim>160</dim>
				</port>
			</output>
		</layer>
		<layer id="70" name="Add_66" type="Add" version="opset1">
			<data auto_broadcast="numpy"/>
			<input>
				<port id="0" precision="FP16">
					<dim>1</dim>
					<dim>48</dim>
					<dim>160</dim>
					<dim>160</dim>
				</port>
				<port id="1" precision="FP16">
					<dim>1</dim>
					<dim>48</dim>
					<dim>160</dim>
					<dim>160</dim>
				</port>
			</input>
			<output>
				<port id="2" names="681" precision="FP16">
					<dim>1</dim>
					<dim>48</dim>
					<dim>160</dim>
					<dim>160</dim>
				</port>
			</output>
		</layer>
		<layer id="71" name="1132" type="Const" version="opset1">
			<data element_type="f16" offset="195680" shape="48, 96, 1, 1" size="9216"/>
			<output>
				<port id="0" names="1132" precision="FP16">
					<dim>48</dim>
					<dim>96</dim>
					<dim>1</dim>
					<dim>1</dim>
				</port>
			</output>
		</layer>
		<layer id="72" name="Conv_50/WithoutBiases" type="Convolution" version="opset1">
			<data auto_pad="explicit" dilations="1, 1" pads_begin="0, 0" pads_end="0, 0" strides="1, 1"/>
			<input>
				<port id="0" precision="FP16">
					<dim>1</dim>
					<dim>96</dim>
					<dim>160</dim>
					<dim>160</dim>
				</port>
				<port id="1" precision="FP16">
					<dim>48</dim>
					<dim>96</dim>
					<dim>1</dim>
					<dim>1</dim>
				</port>
			</input>
			<output>
				<port id="2" precision="FP16">
					<dim>1</dim>
					<dim>48</dim>
					<dim>160</dim>
					<dim>160</dim>
				</port>
			</output>
		</layer>
		<layer id="73" name="Conv_50/Dims5508" type="Const" version="opset1">
			<data element_type="f16" offset="204896" shape="1, 48, 1, 1" size="96"/>
			<output>
				<port id="0" precision="FP16">
					<dim>1</dim>
					<dim>48</dim>
					<dim>1</dim>
					<dim>1</dim>
				</port>
			</output>
		</layer>
		<layer id="74" name="Conv_50" type="Add" version="opset1">
			<data auto_broadcast="numpy"/>
			<input>
				<port id="0" precision="FP16">
					<dim>1</dim>
					<dim>48</dim>
					<dim>160</dim>
					<dim>160</dim>
				</port>
				<port id="1" precision="FP16">
					<dim>1</dim>
					<dim>48</dim>
					<dim>1</dim>
					<dim>1</dim>
				</port>
			</input>
			<output>
				<port id="2" names="1131" precision="FP16">
					<dim>1</dim>
					<dim>48</dim>
					<dim>160</dim>
					<dim>160</dim>
				</port>
			</output>
		</layer>
		<layer id="75" name="Mul_52" type="Swish" version="opset4">
			<input>
				<port id="0" precision="FP16">
					<dim>1</dim>
					<dim>48</dim>
					<dim>160</dim>
					<dim>160</dim>
				</port>
			</input>
			<output>
				<port id="1" names="663" precision="FP16">
					<dim>1</dim>
					<dim>48</dim>
					<dim>160</dim>
					<dim>160</dim>
				</port>
			</output>
		</layer>
		<layer id="76" name="Concat_67" type="Concat" version="opset1">
			<data axis="1"/>
			<input>
				<port id="0" precision="FP16">
					<dim>1</dim>
					<dim>48</dim>
					<dim>160</dim>
					<dim>160</dim>
				</port>
				<port id="1" precision="FP16">
					<dim>1</dim>
					<dim>48</dim>
					<dim>160</dim>
					<dim>160</dim>
				</port>
			</input>
			<output>
				<port id="2" names="682" precision="FP16">
					<dim>1</dim>
					<dim>96</dim>
					<dim>160</dim>
					<dim>160</dim>
				</port>
			</output>
		</layer>
		<layer id="77" name="1147" type="Const" version="opset1">
			<data element_type="f16" offset="204992" shape="96, 96, 1, 1" size="18432"/>
			<output>
				<port id="0" names="1147" precision="FP16">
					<dim>96</dim>
					<dim>96</dim>
					<dim>1</dim>
					<dim>1</dim>
				</port>
			</output>
		</layer>
		<layer id="78" name="Conv_68/WithoutBiases" type="Convolution" version="opset1">
			<data auto_pad="explicit" dilations="1, 1" pads_begin="0, 0" pads_end="0, 0" strides="1, 1"/>
			<input>
				<port id="0" precision="FP16">
					<dim>1</dim>
					<dim>96</dim>
					<dim>160</dim>
					<dim>160</dim>
				</port>
				<port id="1" precision="FP16">
					<dim>96</dim>
					<dim>96</dim>
					<dim>1</dim>
					<dim>1</dim>
				</port>
			</input>
			<output>
				<port id="2" precision="FP16">
					<dim>1</dim>
					<dim>96</dim>
					<dim>160</dim>
					<dim>160</dim>
				</port>
			</output>
		</layer>
		<layer id="79" name="Conv_68/Dims5286" type="Const" version="opset1">
			<data element_type="f16" offset="223424" shape="1, 96, 1, 1" size="192"/>
			<output>
				<port id="0" precision="FP16">
					<dim>1</dim>
					<dim>96</dim>
					<dim>1</dim>
					<dim>1</dim>
				</port>
			</output>
		</layer>
		<layer id="80" name="Conv_68" type="Add" version="opset1">
			<data auto_broadcast="numpy"/>
			<input>
				<port id="0" precision="FP16">
					<dim>1</dim>
					<dim>96</dim>
					<dim>160</dim>
					<dim>160</dim>
				</port>
				<port id="1" precision="FP16">
					<dim>1</dim>
					<dim>96</dim>
					<dim>1</dim>
					<dim>1</dim>
				</port>
			</input>
			<output>
				<port id="2" names="1146" precision="FP16">
					<dim>1</dim>
					<dim>96</dim>
					<dim>160</dim>
					<dim>160</dim>
				</port>
			</output>
		</layer>
		<layer id="81" name="Mul_70" type="Swish" version="opset4">
			<input>
				<port id="0" precision="FP16">
					<dim>1</dim>
					<dim>96</dim>
					<dim>160</dim>
					<dim>160</dim>
				</port>
			</input>
			<output>
				<port id="1" names="686" precision="FP16">
					<dim>1</dim>
					<dim>96</dim>
					<dim>160</dim>
					<dim>160</dim>
				</port>
			</output>
		</layer>
		<layer id="82" name="1150" type="Const" version="opset1">
			<data element_type="f16" offset="223616" shape="192, 96, 3, 3" size="331776"/>
			<output>
				<port id="0" names="1150" precision="FP16">
					<dim>192</dim>
					<dim>96</dim>
					<dim>3</dim>
					<dim>3</dim>
				</port>
			</output>
		</layer>
		<layer id="83" name="Conv_71/WithoutBiases" type="Convolution" version="opset1">
			<data auto_pad="explicit" dilations="1, 1" pads_begin="1, 1" pads_end="1, 1" strides="2, 2"/>
			<input>
				<port id="0" precision="FP16">
					<dim>1</dim>
					<dim>96</dim>
					<dim>160</dim>
					<dim>160</dim>
				</port>
				<port id="1" precision="FP16">
					<dim>192</dim>
					<dim>96</dim>
					<dim>3</dim>
					<dim>3</dim>
				</port>
			</input>
			<output>
				<port id="2" precision="FP16">
					<dim>1</dim>
					<dim>192</dim>
					<dim>80</dim>
					<dim>80</dim>
				</port>
			</output>
		</layer>
		<layer id="84" name="Conv_71/Dims5406" type="Const" version="opset1">
			<data element_type="f16" offset="555392" shape="1, 192, 1, 1" size="384"/>
			<output>
				<port id="0" precision="FP16">
					<dim>1</dim>
					<dim>192</dim>
					<dim>1</dim>
					<dim>1</dim>
				</port>
			</output>
		</layer>
		<layer id="85" name="Conv_71" type="Add" version="opset1">
			<data auto_broadcast="numpy"/>
			<input>
				<port id="0" precision="FP16">
					<dim>1</dim>
					<dim>192</dim>
					<dim>80</dim>
					<dim>80</dim>
				</port>
				<port id="1" precision="FP16">
					<dim>1</dim>
					<dim>192</dim>
					<dim>1</dim>
					<dim>1</dim>
				</port>
			</input>
			<output>
				<port id="2" names="1149" precision="FP16">
					<dim>1</dim>
					<dim>192</dim>
					<dim>80</dim>
					<dim>80</dim>
				</port>
			</output>
		</layer>
		<layer id="86" name="Mul_73" type="Swish" version="opset4">
			<input>
				<port id="0" precision="FP16">
					<dim>1</dim>
					<dim>192</dim>
					<dim>80</dim>
					<dim>80</dim>
				</port>
			</input>
			<output>
				<port id="1" names="690" precision="FP16">
					<dim>1</dim>
					<dim>192</dim>
					<dim>80</dim>
					<dim>80</dim>
				</port>
			</output>
		</layer>
		<layer id="87" name="1153" type="Const" version="opset1">
			<data element_type="f16" offset="555776" shape="96, 192, 1, 1" size="36864"/>
			<output>
				<port id="0" names="1153" precision="FP16">
					<dim>96</dim>
					<dim>192</dim>
					<dim>1</dim>
					<dim>1</dim>
				</port>
			</output>
		</layer>
		<layer id="88" name="Conv_74/WithoutBiases" type="Convolution" version="opset1">
			<data auto_pad="explicit" dilations="1, 1" pads_begin="0, 0" pads_end="0, 0" strides="1, 1"/>
			<input>
				<port id="0" precision="FP16">
					<dim>1</dim>
					<dim>192</dim>
					<dim>80</dim>
					<dim>80</dim>
				</port>
				<port id="1" precision="FP16">
					<dim>96</dim>
					<dim>192</dim>
					<dim>1</dim>
					<dim>1</dim>
				</port>
			</input>
			<output>
				<port id="2" precision="FP16">
					<dim>1</dim>
					<dim>96</dim>
					<dim>80</dim>
					<dim>80</dim>
				</port>
			</output>
		</layer>
		<layer id="89" name="Conv_74/Dims5172" type="Const" version="opset1">
			<data element_type="f16" offset="592640" shape="1, 96, 1, 1" size="192"/>
			<output>
				<port id="0" precision="FP16">
					<dim>1</dim>
					<dim>96</dim>
					<dim>1</dim>
					<dim>1</dim>
				</port>
			</output>
		</layer>
		<layer id="90" name="Conv_74" type="Add" version="opset1">
			<data auto_broadcast="numpy"/>
			<input>
				<port id="0" precision="FP16">
					<dim>1</dim>
					<dim>96</dim>
					<dim>80</dim>
					<dim>80</dim>
				</port>
				<port id="1" precision="FP16">
					<dim>1</dim>
					<dim>96</dim>
					<dim>1</dim>
					<dim>1</dim>
				</port>
			</input>
			<output>
				<port id="2" names="1152" precision="FP16">
					<dim>1</dim>
					<dim>96</dim>
					<dim>80</dim>
					<dim>80</dim>
				</port>
			</output>
		</layer>
		<layer id="91" name="Mul_76" type="Swish" version="opset4">
			<input>
				<port id="0" precision="FP16">
					<dim>1</dim>
					<dim>96</dim>
					<dim>80</dim>
					<dim>80</dim>
				</port>
			</input>
			<output>
				<port id="1" names="694" precision="FP16">
					<dim>1</dim>
					<dim>96</dim>
					<dim>80</dim>
					<dim>80</dim>
				</port>
			</output>
		</layer>
		<layer id="92" name="1159" type="Const" version="opset1">
			<data element_type="f16" offset="592832" shape="96, 96, 1, 1" size="18432"/>
			<output>
				<port id="0" names="1159" precision="FP16">
					<dim>96</dim>
					<dim>96</dim>
					<dim>1</dim>
					<dim>1</dim>
				</port>
			</output>
		</layer>
		<layer id="93" name="Conv_80/WithoutBiases" type="Convolution" version="opset1">
			<data auto_pad="explicit" dilations="1, 1" pads_begin="0, 0" pads_end="0, 0" strides="1, 1"/>
			<input>
				<port id="0" precision="FP16">
					<dim>1</dim>
					<dim>96</dim>
					<dim>80</dim>
					<dim>80</dim>
				</port>
				<port id="1" precision="FP16">
					<dim>96</dim>
					<dim>96</dim>
					<dim>1</dim>
					<dim>1</dim>
				</port>
			</input>
			<output>
				<port id="2" precision="FP16">
					<dim>1</dim>
					<dim>96</dim>
					<dim>80</dim>
					<dim>80</dim>
				</port>
			</output>
		</layer>
		<layer id="94" name="Conv_80/Dims5046" type="Const" version="opset1">
			<data element_type="f16" offset="611264" shape="1, 96, 1, 1" size="192"/>
			<output>
				<port id="0" precision="FP16">
					<dim>1</dim>
					<dim>96</dim>
					<dim>1</dim>
					<dim>1</dim>
				</port>
			</output>
		</layer>
		<layer id="95" name="Conv_80" type="Add" version="opset1">
			<data auto_broadcast="numpy"/>
			<input>
				<port id="0" precision="FP16">
					<dim>1</dim>
					<dim>96</dim>
					<dim>80</dim>
					<dim>80</dim>
				</port>
				<port id="1" precision="FP16">
					<dim>1</dim>
					<dim>96</dim>
					<dim>1</dim>
					<dim>1</dim>
				</port>
			</input>
			<output>
				<port id="2" names="1158" precision="FP16">
					<dim>1</dim>
					<dim>96</dim>
					<dim>80</dim>
					<dim>80</dim>
				</port>
			</output>
		</layer>
		<layer id="96" name="Mul_82" type="Swish" version="opset4">
			<input>
				<port id="0" precision="FP16">
					<dim>1</dim>
					<dim>96</dim>
					<dim>80</dim>
					<dim>80</dim>
				</port>
			</input>
			<output>
				<port id="1" names="702" precision="FP16">
					<dim>1</dim>
					<dim>96</dim>
					<dim>80</dim>
					<dim>80</dim>
				</port>
			</output>
		</layer>
		<layer id="97" name="1162" type="Const" version="opset1">
			<data element_type="f16" offset="611456" shape="96, 96, 3, 3" size="165888"/>
			<output>
				<port id="0" names="1162" precision="FP16">
					<dim>96</dim>
					<dim>96</dim>
					<dim>3</dim>
					<dim>3</dim>
				</port>
			</output>
		</layer>
		<layer id="98" name="Conv_83/WithoutBiases" type="Convolution" version="opset1">
			<data auto_pad="explicit" dilations="1, 1" pads_begin="1, 1" pads_end="1, 1" strides="1, 1"/>
			<input>
				<port id="0" precision="FP16">
					<dim>1</dim>
					<dim>96</dim>
					<dim>80</dim>
					<dim>80</dim>
				</port>
				<port id="1" precision="FP16">
					<dim>96</dim>
					<dim>96</dim>
					<dim>3</dim>
					<dim>3</dim>
				</port>
			</input>
			<output>
				<port id="2" precision="FP16">
					<dim>1</dim>
					<dim>96</dim>
					<dim>80</dim>
					<dim>80</dim>
				</port>
			</output>
		</layer>
		<layer id="99" name="Conv_83/Dims5478" type="Const" version="opset1">
			<data element_type="f16" offset="777344" shape="1, 96, 1, 1" size="192"/>
			<output>
				<port id="0" precision="FP16">
					<dim>1</dim>
					<dim>96</dim>
					<dim>1</dim>
					<dim>1</dim>
				</port>
			</output>
		</layer>
		<layer id="100" name="Conv_83" type="Add" version="opset1">
			<data auto_broadcast="numpy"/>
			<input>
				<port id="0" precision="FP16">
					<dim>1</dim>
					<dim>96</dim>
					<dim>80</dim>
					<dim>80</dim>
				</port>
				<port id="1" precision="FP16">
					<dim>1</dim>
					<dim>96</dim>
					<dim>1</dim>
					<dim>1</dim>
				</port>
			</input>
			<output>
				<port id="2" names="1161" precision="FP16">
					<dim>1</dim>
					<dim>96</dim>
					<dim>80</dim>
					<dim>80</dim>
				</port>
			</output>
		</layer>
		<layer id="101" name="Mul_85" type="Swish" version="opset4">
			<input>
				<port id="0" precision="FP16">
					<dim>1</dim>
					<dim>96</dim>
					<dim>80</dim>
					<dim>80</dim>
				</port>
			</input>
			<output>
				<port id="1" names="706" precision="FP16">
					<dim>1</dim>
					<dim>96</dim>
					<dim>80</dim>
					<dim>80</dim>
				</port>
			</output>
		</layer>
		<layer id="102" name="Add_86" type="Add" version="opset1">
			<data auto_broadcast="numpy"/>
			<input>
				<port id="0" precision="FP16">
					<dim>1</dim>
					<dim>96</dim>
					<dim>80</dim>
					<dim>80</dim>
				</port>
				<port id="1" precision="FP16">
					<dim>1</dim>
					<dim>96</dim>
					<dim>80</dim>
					<dim>80</dim>
				</port>
			</input>
			<output>
				<port id="2" names="707" precision="FP16">
					<dim>1</dim>
					<dim>96</dim>
					<dim>80</dim>
					<dim>80</dim>
				</port>
			</output>
		</layer>
		<layer id="103" name="1165" type="Const" version="opset1">
			<data element_type="f16" offset="777536" shape="96, 96, 1, 1" size="18432"/>
			<output>
				<port id="0" names="1165" precision="FP16">
					<dim>96</dim>
					<dim>96</dim>
					<dim>1</dim>
					<dim>1</dim>
				</port>
			</output>
		</layer>
		<layer id="104" name="Conv_87/WithoutBiases" type="Convolution" version="opset1">
			<data auto_pad="explicit" dilations="1, 1" pads_begin="0, 0" pads_end="0, 0" strides="1, 1"/>
			<input>
				<port id="0" precision="FP16">
					<dim>1</dim>
					<dim>96</dim>
					<dim>80</dim>
					<dim>80</dim>
				</port>
				<port id="1" precision="FP16">
					<dim>96</dim>
					<dim>96</dim>
					<dim>1</dim>
					<dim>1</dim>
				</port>
			</input>
			<output>
				<port id="2" precision="FP16">
					<dim>1</dim>
					<dim>96</dim>
					<dim>80</dim>
					<dim>80</dim>
				</port>
			</output>
		</layer>
		<layer id="105" name="Conv_87/Dims5268" type="Const" version="opset1">
			<data element_type="f16" offset="795968" shape="1, 96, 1, 1" size="192"/>
			<output>
				<port id="0" precision="FP16">
					<dim>1</dim>
					<dim>96</dim>
					<dim>1</dim>
					<dim>1</dim>
				</port>
			</output>
		</layer>
		<layer id="106" name="Conv_87" type="Add" version="opset1">
			<data auto_broadcast="numpy"/>
			<input>
				<port id="0" precision="FP16">
					<dim>1</dim>
					<dim>96</dim>
					<dim>80</dim>
					<dim>80</dim>
				</port>
				<port id="1" precision="FP16">
					<dim>1</dim>
					<dim>96</dim>
					<dim>1</dim>
					<dim>1</dim>
				</port>
			</input>
			<output>
				<port id="2" names="1164" precision="FP16">
					<dim>1</dim>
					<dim>96</dim>
					<dim>80</dim>
					<dim>80</dim>
				</port>
			</output>
		</layer>
		<layer id="107" name="Mul_89" type="Swish" version="opset4">
			<input>
				<port id="0" precision="FP16">
					<dim>1</dim>
					<dim>96</dim>
					<dim>80</dim>
					<dim>80</dim>
				</port>
			</input>
			<output>
				<port id="1" names="711" precision="FP16">
					<dim>1</dim>
					<dim>96</dim>
					<dim>80</dim>
					<dim>80</dim>
				</port>
			</output>
		</layer>
		<layer id="108" name="1168" type="Const" version="opset1">
			<data element_type="f16" offset="796160" shape="96, 96, 3, 3" size="165888"/>
			<output>
				<port id="0" names="1168" precision="FP16">
					<dim>96</dim>
					<dim>96</dim>
					<dim>3</dim>
					<dim>3</dim>
				</port>
			</output>
		</layer>
		<layer id="109" name="Conv_90/WithoutBiases" type="Convolution" version="opset1">
			<data auto_pad="explicit" dilations="1, 1" pads_begin="1, 1" pads_end="1, 1" strides="1, 1"/>
			<input>
				<port id="0" precision="FP16">
					<dim>1</dim>
					<dim>96</dim>
					<dim>80</dim>
					<dim>80</dim>
				</port>
				<port id="1" precision="FP16">
					<dim>96</dim>
					<dim>96</dim>
					<dim>3</dim>
					<dim>3</dim>
				</port>
			</input>
			<output>
				<port id="2" precision="FP16">
					<dim>1</dim>
					<dim>96</dim>
					<dim>80</dim>
					<dim>80</dim>
				</port>
			</output>
		</layer>
		<layer id="110" name="Conv_90/Dims5328" type="Const" version="opset1">
			<data element_type="f16" offset="962048" shape="1, 96, 1, 1" size="192"/>
			<output>
				<port id="0" precision="FP16">
					<dim>1</dim>
					<dim>96</dim>
					<dim>1</dim>
					<dim>1</dim>
				</port>
			</output>
		</layer>
		<layer id="111" name="Conv_90" type="Add" version="opset1">
			<data auto_broadcast="numpy"/>
			<input>
				<port id="0" precision="FP16">
					<dim>1</dim>
					<dim>96</dim>
					<dim>80</dim>
					<dim>80</dim>
				</port>
				<port id="1" precision="FP16">
					<dim>1</dim>
					<dim>96</dim>
					<dim>1</dim>
					<dim>1</dim>
				</port>
			</input>
			<output>
				<port id="2" names="1167" precision="FP16">
					<dim>1</dim>
					<dim>96</dim>
					<dim>80</dim>
					<dim>80</dim>
				</port>
			</output>
		</layer>
		<layer id="112" name="Mul_92" type="Swish" version="opset4">
			<input>
				<port id="0" precision="FP16">
					<dim>1</dim>
					<dim>96</dim>
					<dim>80</dim>
					<dim>80</dim>
				</port>
			</input>
			<output>
				<port id="1" names="715" precision="FP16">
					<dim>1</dim>
					<dim>96</dim>
					<dim>80</dim>
					<dim>80</dim>
				</port>
			</output>
		</layer>
		<layer id="113" name="Add_93" type="Add" version="opset1">
			<data auto_broadcast="numpy"/>
			<input>
				<port id="0" precision="FP16">
					<dim>1</dim>
					<dim>96</dim>
					<dim>80</dim>
					<dim>80</dim>
				</port>
				<port id="1" precision="FP16">
					<dim>1</dim>
					<dim>96</dim>
					<dim>80</dim>
					<dim>80</dim>
				</port>
			</input>
			<output>
				<port id="2" names="716" precision="FP16">
					<dim>1</dim>
					<dim>96</dim>
					<dim>80</dim>
					<dim>80</dim>
				</port>
			</output>
		</layer>
		<layer id="114" name="1171" type="Const" version="opset1">
			<data element_type="f16" offset="962240" shape="96, 96, 1, 1" size="18432"/>
			<output>
				<port id="0" names="1171" precision="FP16">
					<dim>96</dim>
					<dim>96</dim>
					<dim>1</dim>
					<dim>1</dim>
				</port>
			</output>
		</layer>
		<layer id="115" name="Conv_94/WithoutBiases" type="Convolution" version="opset1">
			<data auto_pad="explicit" dilations="1, 1" pads_begin="0, 0" pads_end="0, 0" strides="1, 1"/>
			<input>
				<port id="0" precision="FP16">
					<dim>1</dim>
					<dim>96</dim>
					<dim>80</dim>
					<dim>80</dim>
				</port>
				<port id="1" precision="FP16">
					<dim>96</dim>
					<dim>96</dim>
					<dim>1</dim>
					<dim>1</dim>
				</port>
			</input>
			<output>
				<port id="2" precision="FP16">
					<dim>1</dim>
					<dim>96</dim>
					<dim>80</dim>
					<dim>80</dim>
				</port>
			</output>
		</layer>
		<layer id="116" name="Conv_94/Dims5568" type="Const" version="opset1">
			<data element_type="f16" offset="980672" shape="1, 96, 1, 1" size="192"/>
			<output>
				<port id="0" precision="FP16">
					<dim>1</dim>
					<dim>96</dim>
					<dim>1</dim>
					<dim>1</dim>
				</port>
			</output>
		</layer>
		<layer id="117" name="Conv_94" type="Add" version="opset1">
			<data auto_broadcast="numpy"/>
			<input>
				<port id="0" precision="FP16">
					<dim>1</dim>
					<dim>96</dim>
					<dim>80</dim>
					<dim>80</dim>
				</port>
				<port id="1" precision="FP16">
					<dim>1</dim>
					<dim>96</dim>
					<dim>1</dim>
					<dim>1</dim>
				</port>
			</input>
			<output>
				<port id="2" names="1170" precision="FP16">
					<dim>1</dim>
					<dim>96</dim>
					<dim>80</dim>
					<dim>80</dim>
				</port>
			</output>
		</layer>
		<layer id="118" name="Mul_96" type="Swish" version="opset4">
			<input>
				<port id="0" precision="FP16">
					<dim>1</dim>
					<dim>96</dim>
					<dim>80</dim>
					<dim>80</dim>
				</port>
			</input>
			<output>
				<port id="1" names="720" precision="FP16">
					<dim>1</dim>
					<dim>96</dim>
					<dim>80</dim>
					<dim>80</dim>
				</port>
			</output>
		</layer>
		<layer id="119" name="1174" type="Const" version="opset1">
			<data element_type="f16" offset="980864" shape="96, 96, 3, 3" size="165888"/>
			<output>
				<port id="0" names="1174" precision="FP16">
					<dim>96</dim>
					<dim>96</dim>
					<dim>3</dim>
					<dim>3</dim>
				</port>
			</output>
		</layer>
		<layer id="120" name="Conv_97/WithoutBiases" type="Convolution" version="opset1">
			<data auto_pad="explicit" dilations="1, 1" pads_begin="1, 1" pads_end="1, 1" strides="1, 1"/>
			<input>
				<port id="0" precision="FP16">
					<dim>1</dim>
					<dim>96</dim>
					<dim>80</dim>
					<dim>80</dim>
				</port>
				<port id="1" precision="FP16">
					<dim>96</dim>
					<dim>96</dim>
					<dim>3</dim>
					<dim>3</dim>
				</port>
			</input>
			<output>
				<port id="2" precision="FP16">
					<dim>1</dim>
					<dim>96</dim>
					<dim>80</dim>
					<dim>80</dim>
				</port>
			</output>
		</layer>
		<layer id="121" name="Conv_97/Dims5358" type="Const" version="opset1">
			<data element_type="f16" offset="1146752" shape="1, 96, 1, 1" size="192"/>
			<output>
				<port id="0" precision="FP16">
					<dim>1</dim>
					<dim>96</dim>
					<dim>1</dim>
					<dim>1</dim>
				</port>
			</output>
		</layer>
		<layer id="122" name="Conv_97" type="Add" version="opset1">
			<data auto_broadcast="numpy"/>
			<input>
				<port id="0" precision="FP16">
					<dim>1</dim>
					<dim>96</dim>
					<dim>80</dim>
					<dim>80</dim>
				</port>
				<port id="1" precision="FP16">
					<dim>1</dim>
					<dim>96</dim>
					<dim>1</dim>
					<dim>1</dim>
				</port>
			</input>
			<output>
				<port id="2" names="1173" precision="FP16">
					<dim>1</dim>
					<dim>96</dim>
					<dim>80</dim>
					<dim>80</dim>
				</port>
			</output>
		</layer>
		<layer id="123" name="Mul_99" type="Swish" version="opset4">
			<input>
				<port id="0" precision="FP16">
					<dim>1</dim>
					<dim>96</dim>
					<dim>80</dim>
					<dim>80</dim>
				</port>
			</input>
			<output>
				<port id="1" names="724" precision="FP16">
					<dim>1</dim>
					<dim>96</dim>
					<dim>80</dim>
					<dim>80</dim>
				</port>
			</output>
		</layer>
		<layer id="124" name="Add_100" type="Add" version="opset1">
			<data auto_broadcast="numpy"/>
			<input>
				<port id="0" precision="FP16">
					<dim>1</dim>
					<dim>96</dim>
					<dim>80</dim>
					<dim>80</dim>
				</port>
				<port id="1" precision="FP16">
					<dim>1</dim>
					<dim>96</dim>
					<dim>80</dim>
					<dim>80</dim>
				</port>
			</input>
			<output>
				<port id="2" names="725" precision="FP16">
					<dim>1</dim>
					<dim>96</dim>
					<dim>80</dim>
					<dim>80</dim>
				</port>
			</output>
		</layer>
		<layer id="125" name="1177" type="Const" version="opset1">
			<data element_type="f16" offset="1146944" shape="96, 96, 1, 1" size="18432"/>
			<output>
				<port id="0" names="1177" precision="FP16">
					<dim>96</dim>
					<dim>96</dim>
					<dim>1</dim>
					<dim>1</dim>
				</port>
			</output>
		</layer>
		<layer id="126" name="Conv_101/WithoutBiases" type="Convolution" version="opset1">
			<data auto_pad="explicit" dilations="1, 1" pads_begin="0, 0" pads_end="0, 0" strides="1, 1"/>
			<input>
				<port id="0" precision="FP16">
					<dim>1</dim>
					<dim>96</dim>
					<dim>80</dim>
					<dim>80</dim>
				</port>
				<port id="1" precision="FP16">
					<dim>96</dim>
					<dim>96</dim>
					<dim>1</dim>
					<dim>1</dim>
				</port>
			</input>
			<output>
				<port id="2" precision="FP16">
					<dim>1</dim>
					<dim>96</dim>
					<dim>80</dim>
					<dim>80</dim>
				</port>
			</output>
		</layer>
		<layer id="127" name="Conv_101/Dims5256" type="Const" version="opset1">
			<data element_type="f16" offset="1165376" shape="1, 96, 1, 1" size="192"/>
			<output>
				<port id="0" precision="FP16">
					<dim>1</dim>
					<dim>96</dim>
					<dim>1</dim>
					<dim>1</dim>
				</port>
			</output>
		</layer>
		<layer id="128" name="Conv_101" type="Add" version="opset1">
			<data auto_broadcast="numpy"/>
			<input>
				<port id="0" precision="FP16">
					<dim>1</dim>
					<dim>96</dim>
					<dim>80</dim>
					<dim>80</dim>
				</port>
				<port id="1" precision="FP16">
					<dim>1</dim>
					<dim>96</dim>
					<dim>1</dim>
					<dim>1</dim>
				</port>
			</input>
			<output>
				<port id="2" names="1176" precision="FP16">
					<dim>1</dim>
					<dim>96</dim>
					<dim>80</dim>
					<dim>80</dim>
				</port>
			</output>
		</layer>
		<layer id="129" name="Mul_103" type="Swish" version="opset4">
			<input>
				<port id="0" precision="FP16">
					<dim>1</dim>
					<dim>96</dim>
					<dim>80</dim>
					<dim>80</dim>
				</port>
			</input>
			<output>
				<port id="1" names="729" precision="FP16">
					<dim>1</dim>
					<dim>96</dim>
					<dim>80</dim>
					<dim>80</dim>
				</port>
			</output>
		</layer>
		<layer id="130" name="1180" type="Const" version="opset1">
			<data element_type="f16" offset="1165568" shape="96, 96, 3, 3" size="165888"/>
			<output>
				<port id="0" names="1180" precision="FP16">
					<dim>96</dim>
					<dim>96</dim>
					<dim>3</dim>
					<dim>3</dim>
				</port>
			</output>
		</layer>
		<layer id="131" name="Conv_104/WithoutBiases" type="Convolution" version="opset1">
			<data auto_pad="explicit" dilations="1, 1" pads_begin="1, 1" pads_end="1, 1" strides="1, 1"/>
			<input>
				<port id="0" precision="FP16">
					<dim>1</dim>
					<dim>96</dim>
					<dim>80</dim>
					<dim>80</dim>
				</port>
				<port id="1" precision="FP16">
					<dim>96</dim>
					<dim>96</dim>
					<dim>3</dim>
					<dim>3</dim>
				</port>
			</input>
			<output>
				<port id="2" precision="FP16">
					<dim>1</dim>
					<dim>96</dim>
					<dim>80</dim>
					<dim>80</dim>
				</port>
			</output>
		</layer>
		<layer id="132" name="Conv_104/Dims5412" type="Const" version="opset1">
			<data element_type="f16" offset="1331456" shape="1, 96, 1, 1" size="192"/>
			<output>
				<port id="0" precision="FP16">
					<dim>1</dim>
					<dim>96</dim>
					<dim>1</dim>
					<dim>1</dim>
				</port>
			</output>
		</layer>
		<layer id="133" name="Conv_104" type="Add" version="opset1">
			<data auto_broadcast="numpy"/>
			<input>
				<port id="0" precision="FP16">
					<dim>1</dim>
					<dim>96</dim>
					<dim>80</dim>
					<dim>80</dim>
				</port>
				<port id="1" precision="FP16">
					<dim>1</dim>
					<dim>96</dim>
					<dim>1</dim>
					<dim>1</dim>
				</port>
			</input>
			<output>
				<port id="2" names="1179" precision="FP16">
					<dim>1</dim>
					<dim>96</dim>
					<dim>80</dim>
					<dim>80</dim>
				</port>
			</output>
		</layer>
		<layer id="134" name="Mul_106" type="Swish" version="opset4">
			<input>
				<port id="0" precision="FP16">
					<dim>1</dim>
					<dim>96</dim>
					<dim>80</dim>
					<dim>80</dim>
				</port>
			</input>
			<output>
				<port id="1" names="733" precision="FP16">
					<dim>1</dim>
					<dim>96</dim>
					<dim>80</dim>
					<dim>80</dim>
				</port>
			</output>
		</layer>
		<layer id="135" name="Add_107" type="Add" version="opset1">
			<data auto_broadcast="numpy"/>
			<input>
				<port id="0" precision="FP16">
					<dim>1</dim>
					<dim>96</dim>
					<dim>80</dim>
					<dim>80</dim>
				</port>
				<port id="1" precision="FP16">
					<dim>1</dim>
					<dim>96</dim>
					<dim>80</dim>
					<dim>80</dim>
				</port>
			</input>
			<output>
				<port id="2" names="734" precision="FP16">
					<dim>1</dim>
					<dim>96</dim>
					<dim>80</dim>
					<dim>80</dim>
				</port>
			</output>
		</layer>
		<layer id="136" name="1183" type="Const" version="opset1">
			<data element_type="f16" offset="1331648" shape="96, 96, 1, 1" size="18432"/>
			<output>
				<port id="0" names="1183" precision="FP16">
					<dim>96</dim>
					<dim>96</dim>
					<dim>1</dim>
					<dim>1</dim>
				</port>
			</output>
		</layer>
		<layer id="137" name="Conv_108/WithoutBiases" type="Convolution" version="opset1">
			<data auto_pad="explicit" dilations="1, 1" pads_begin="0, 0" pads_end="0, 0" strides="1, 1"/>
			<input>
				<port id="0" precision="FP16">
					<dim>1</dim>
					<dim>96</dim>
					<dim>80</dim>
					<dim>80</dim>
				</port>
				<port id="1" precision="FP16">
					<dim>96</dim>
					<dim>96</dim>
					<dim>1</dim>
					<dim>1</dim>
				</port>
			</input>
			<output>
				<port id="2" precision="FP16">
					<dim>1</dim>
					<dim>96</dim>
					<dim>80</dim>
					<dim>80</dim>
				</port>
			</output>
		</layer>
		<layer id="138" name="Conv_108/Dims4998" type="Const" version="opset1">
			<data element_type="f16" offset="1350080" shape="1, 96, 1, 1" size="192"/>
			<output>
				<port id="0" precision="FP16">
					<dim>1</dim>
					<dim>96</dim>
					<dim>1</dim>
					<dim>1</dim>
				</port>
			</output>
		</layer>
		<layer id="139" name="Conv_108" type="Add" version="opset1">
			<data auto_broadcast="numpy"/>
			<input>
				<port id="0" precision="FP16">
					<dim>1</dim>
					<dim>96</dim>
					<dim>80</dim>
					<dim>80</dim>
				</port>
				<port id="1" precision="FP16">
					<dim>1</dim>
					<dim>96</dim>
					<dim>1</dim>
					<dim>1</dim>
				</port>
			</input>
			<output>
				<port id="2" names="1182" precision="FP16">
					<dim>1</dim>
					<dim>96</dim>
					<dim>80</dim>
					<dim>80</dim>
				</port>
			</output>
		</layer>
		<layer id="140" name="Mul_110" type="Swish" version="opset4">
			<input>
				<port id="0" precision="FP16">
					<dim>1</dim>
					<dim>96</dim>
					<dim>80</dim>
					<dim>80</dim>
				</port>
			</input>
			<output>
				<port id="1" names="738" precision="FP16">
					<dim>1</dim>
					<dim>96</dim>
					<dim>80</dim>
					<dim>80</dim>
				</port>
			</output>
		</layer>
		<layer id="141" name="1186" type="Const" version="opset1">
			<data element_type="f16" offset="1350272" shape="96, 96, 3, 3" size="165888"/>
			<output>
				<port id="0" names="1186" precision="FP16">
					<dim>96</dim>
					<dim>96</dim>
					<dim>3</dim>
					<dim>3</dim>
				</port>
			</output>
		</layer>
		<layer id="142" name="Conv_111/WithoutBiases" type="Convolution" version="opset1">
			<data auto_pad="explicit" dilations="1, 1" pads_begin="1, 1" pads_end="1, 1" strides="1, 1"/>
			<input>
				<port id="0" precision="FP16">
					<dim>1</dim>
					<dim>96</dim>
					<dim>80</dim>
					<dim>80</dim>
				</port>
				<port id="1" precision="FP16">
					<dim>96</dim>
					<dim>96</dim>
					<dim>3</dim>
					<dim>3</dim>
				</port>
			</input>
			<output>
				<port id="2" precision="FP16">
					<dim>1</dim>
					<dim>96</dim>
					<dim>80</dim>
					<dim>80</dim>
				</port>
			</output>
		</layer>
		<layer id="143" name="Conv_111/Dims5454" type="Const" version="opset1">
			<data element_type="f16" offset="1516160" shape="1, 96, 1, 1" size="192"/>
			<output>
				<port id="0" precision="FP16">
					<dim>1</dim>
					<dim>96</dim>
					<dim>1</dim>
					<dim>1</dim>
				</port>
			</output>
		</layer>
		<layer id="144" name="Conv_111" type="Add" version="opset1">
			<data auto_broadcast="numpy"/>
			<input>
				<port id="0" precision="FP16">
					<dim>1</dim>
					<dim>96</dim>
					<dim>80</dim>
					<dim>80</dim>
				</port>
				<port id="1" precision="FP16">
					<dim>1</dim>
					<dim>96</dim>
					<dim>1</dim>
					<dim>1</dim>
				</port>
			</input>
			<output>
				<port id="2" names="1185" precision="FP16">
					<dim>1</dim>
					<dim>96</dim>
					<dim>80</dim>
					<dim>80</dim>
				</port>
			</output>
		</layer>
		<layer id="145" name="Mul_113" type="Swish" version="opset4">
			<input>
				<port id="0" precision="FP16">
					<dim>1</dim>
					<dim>96</dim>
					<dim>80</dim>
					<dim>80</dim>
				</port>
			</input>
			<output>
				<port id="1" names="742" precision="FP16">
					<dim>1</dim>
					<dim>96</dim>
					<dim>80</dim>
					<dim>80</dim>
				</port>
			</output>
		</layer>
		<layer id="146" name="Add_114" type="Add" version="opset1">
			<data auto_broadcast="numpy"/>
			<input>
				<port id="0" precision="FP16">
					<dim>1</dim>
					<dim>96</dim>
					<dim>80</dim>
					<dim>80</dim>
				</port>
				<port id="1" precision="FP16">
					<dim>1</dim>
					<dim>96</dim>
					<dim>80</dim>
					<dim>80</dim>
				</port>
			</input>
			<output>
				<port id="2" names="743" precision="FP16">
					<dim>1</dim>
					<dim>96</dim>
					<dim>80</dim>
					<dim>80</dim>
				</port>
			</output>
		</layer>
		<layer id="147" name="1189" type="Const" version="opset1">
			<data element_type="f16" offset="1516352" shape="96, 96, 1, 1" size="18432"/>
			<output>
				<port id="0" names="1189" precision="FP16">
					<dim>96</dim>
					<dim>96</dim>
					<dim>1</dim>
					<dim>1</dim>
				</port>
			</output>
		</layer>
		<layer id="148" name="Conv_115/WithoutBiases" type="Convolution" version="opset1">
			<data auto_pad="explicit" dilations="1, 1" pads_begin="0, 0" pads_end="0, 0" strides="1, 1"/>
			<input>
				<port id="0" precision="FP16">
					<dim>1</dim>
					<dim>96</dim>
					<dim>80</dim>
					<dim>80</dim>
				</port>
				<port id="1" precision="FP16">
					<dim>96</dim>
					<dim>96</dim>
					<dim>1</dim>
					<dim>1</dim>
				</port>
			</input>
			<output>
				<port id="2" precision="FP16">
					<dim>1</dim>
					<dim>96</dim>
					<dim>80</dim>
					<dim>80</dim>
				</port>
			</output>
		</layer>
		<layer id="149" name="Conv_115/Dims5460" type="Const" version="opset1">
			<data element_type="f16" offset="1534784" shape="1, 96, 1, 1" size="192"/>
			<output>
				<port id="0" precision="FP16">
					<dim>1</dim>
					<dim>96</dim>
					<dim>1</dim>
					<dim>1</dim>
				</port>
			</output>
		</layer>
		<layer id="150" name="Conv_115" type="Add" version="opset1">
			<data auto_broadcast="numpy"/>
			<input>
				<port id="0" precision="FP16">
					<dim>1</dim>
					<dim>96</dim>
					<dim>80</dim>
					<dim>80</dim>
				</port>
				<port id="1" precision="FP16">
					<dim>1</dim>
					<dim>96</dim>
					<dim>1</dim>
					<dim>1</dim>
				</port>
			</input>
			<output>
				<port id="2" names="1188" precision="FP16">
					<dim>1</dim>
					<dim>96</dim>
					<dim>80</dim>
					<dim>80</dim>
				</port>
			</output>
		</layer>
		<layer id="151" name="Mul_117" type="Swish" version="opset4">
			<input>
				<port id="0" precision="FP16">
					<dim>1</dim>
					<dim>96</dim>
					<dim>80</dim>
					<dim>80</dim>
				</port>
			</input>
			<output>
				<port id="1" names="747" precision="FP16">
					<dim>1</dim>
					<dim>96</dim>
					<dim>80</dim>
					<dim>80</dim>
				</port>
			</output>
		</layer>
		<layer id="152" name="1192" type="Const" version="opset1">
			<data element_type="f16" offset="1534976" shape="96, 96, 3, 3" size="165888"/>
			<output>
				<port id="0" names="1192" precision="FP16">
					<dim>96</dim>
					<dim>96</dim>
					<dim>3</dim>
					<dim>3</dim>
				</port>
			</output>
		</layer>
		<layer id="153" name="Conv_118/WithoutBiases" type="Convolution" version="opset1">
			<data auto_pad="explicit" dilations="1, 1" pads_begin="1, 1" pads_end="1, 1" strides="1, 1"/>
			<input>
				<port id="0" precision="FP16">
					<dim>1</dim>
					<dim>96</dim>
					<dim>80</dim>
					<dim>80</dim>
				</port>
				<port id="1" precision="FP16">
					<dim>96</dim>
					<dim>96</dim>
					<dim>3</dim>
					<dim>3</dim>
				</port>
			</input>
			<output>
				<port id="2" precision="FP16">
					<dim>1</dim>
					<dim>96</dim>
					<dim>80</dim>
					<dim>80</dim>
				</port>
			</output>
		</layer>
		<layer id="154" name="Conv_118/Dims5448" type="Const" version="opset1">
			<data element_type="f16" offset="1700864" shape="1, 96, 1, 1" size="192"/>
			<output>
				<port id="0" precision="FP16">
					<dim>1</dim>
					<dim>96</dim>
					<dim>1</dim>
					<dim>1</dim>
				</port>
			</output>
		</layer>
		<layer id="155" name="Conv_118" type="Add" version="opset1">
			<data auto_broadcast="numpy"/>
			<input>
				<port id="0" precision="FP16">
					<dim>1</dim>
					<dim>96</dim>
					<dim>80</dim>
					<dim>80</dim>
				</port>
				<port id="1" precision="FP16">
					<dim>1</dim>
					<dim>96</dim>
					<dim>1</dim>
					<dim>1</dim>
				</port>
			</input>
			<output>
				<port id="2" names="1191" precision="FP16">
					<dim>1</dim>
					<dim>96</dim>
					<dim>80</dim>
					<dim>80</dim>
				</port>
			</output>
		</layer>
		<layer id="156" name="Mul_120" type="Swish" version="opset4">
			<input>
				<port id="0" precision="FP16">
					<dim>1</dim>
					<dim>96</dim>
					<dim>80</dim>
					<dim>80</dim>
				</port>
			</input>
			<output>
				<port id="1" names="751" precision="FP16">
					<dim>1</dim>
					<dim>96</dim>
					<dim>80</dim>
					<dim>80</dim>
				</port>
			</output>
		</layer>
		<layer id="157" name="Add_121" type="Add" version="opset1">
			<data auto_broadcast="numpy"/>
			<input>
				<port id="0" precision="FP16">
					<dim>1</dim>
					<dim>96</dim>
					<dim>80</dim>
					<dim>80</dim>
				</port>
				<port id="1" precision="FP16">
					<dim>1</dim>
					<dim>96</dim>
					<dim>80</dim>
					<dim>80</dim>
				</port>
			</input>
			<output>
				<port id="2" names="752" precision="FP16">
					<dim>1</dim>
					<dim>96</dim>
					<dim>80</dim>
					<dim>80</dim>
				</port>
			</output>
		</layer>
		<layer id="158" name="1156" type="Const" version="opset1">
			<data element_type="f16" offset="1701056" shape="96, 192, 1, 1" size="36864"/>
			<output>
				<port id="0" names="1156" precision="FP16">
					<dim>96</dim>
					<dim>192</dim>
					<dim>1</dim>
					<dim>1</dim>
				</port>
			</output>
		</layer>
		<layer id="159" name="Conv_77/WithoutBiases" type="Convolution" version="opset1">
			<data auto_pad="explicit" dilations="1, 1" pads_begin="0, 0" pads_end="0, 0" strides="1, 1"/>
			<input>
				<port id="0" precision="FP16">
					<dim>1</dim>
					<dim>192</dim>
					<dim>80</dim>
					<dim>80</dim>
				</port>
				<port id="1" precision="FP16">
					<dim>96</dim>
					<dim>192</dim>
					<dim>1</dim>
					<dim>1</dim>
				</port>
			</input>
			<output>
				<port id="2" precision="FP16">
					<dim>1</dim>
					<dim>96</dim>
					<dim>80</dim>
					<dim>80</dim>
				</port>
			</output>
		</layer>
		<layer id="160" name="Conv_77/Dims5424" type="Const" version="opset1">
			<data element_type="f16" offset="1737920" shape="1, 96, 1, 1" size="192"/>
			<output>
				<port id="0" precision="FP16">
					<dim>1</dim>
					<dim>96</dim>
					<dim>1</dim>
					<dim>1</dim>
				</port>
			</output>
		</layer>
		<layer id="161" name="Conv_77" type="Add" version="opset1">
			<data auto_broadcast="numpy"/>
			<input>
				<port id="0" precision="FP16">
					<dim>1</dim>
					<dim>96</dim>
					<dim>80</dim>
					<dim>80</dim>
				</port>
				<port id="1" precision="FP16">
					<dim>1</dim>
					<dim>96</dim>
					<dim>1</dim>
					<dim>1</dim>
				</port>
			</input>
			<output>
				<port id="2" names="1155" precision="FP16">
					<dim>1</dim>
					<dim>96</dim>
					<dim>80</dim>
					<dim>80</dim>
				</port>
			</output>
		</layer>
		<layer id="162" name="Mul_79" type="Swish" version="opset4">
			<input>
				<port id="0" precision="FP16">
					<dim>1</dim>
					<dim>96</dim>
					<dim>80</dim>
					<dim>80</dim>
				</port>
			</input>
			<output>
				<port id="1" names="698" precision="FP16">
					<dim>1</dim>
					<dim>96</dim>
					<dim>80</dim>
					<dim>80</dim>
				</port>
			</output>
		</layer>
		<layer id="163" name="Concat_122" type="Concat" version="opset1">
			<data axis="1"/>
			<input>
				<port id="0" precision="FP16">
					<dim>1</dim>
					<dim>96</dim>
					<dim>80</dim>
					<dim>80</dim>
				</port>
				<port id="1" precision="FP16">
					<dim>1</dim>
					<dim>96</dim>
					<dim>80</dim>
					<dim>80</dim>
				</port>
			</input>
			<output>
				<port id="2" names="753" precision="FP16">
					<dim>1</dim>
					<dim>192</dim>
					<dim>80</dim>
					<dim>80</dim>
				</port>
			</output>
		</layer>
		<layer id="164" name="1195" type="Const" version="opset1">
			<data element_type="f16" offset="1738112" shape="192, 192, 1, 1" size="73728"/>
			<output>
				<port id="0" names="1195" precision="FP16">
					<dim>192</dim>
					<dim>192</dim>
					<dim>1</dim>
					<dim>1</dim>
				</port>
			</output>
		</layer>
		<layer id="165" name="Conv_123/WithoutBiases" type="Convolution" version="opset1">
			<data auto_pad="explicit" dilations="1, 1" pads_begin="0, 0" pads_end="0, 0" strides="1, 1"/>
			<input>
				<port id="0" precision="FP16">
					<dim>1</dim>
					<dim>192</dim>
					<dim>80</dim>
					<dim>80</dim>
				</port>
				<port id="1" precision="FP16">
					<dim>192</dim>
					<dim>192</dim>
					<dim>1</dim>
					<dim>1</dim>
				</port>
			</input>
			<output>
				<port id="2" precision="FP16">
					<dim>1</dim>
					<dim>192</dim>
					<dim>80</dim>
					<dim>80</dim>
				</port>
			</output>
		</layer>
		<layer id="166" name="Conv_123/Dims5502" type="Const" version="opset1">
			<data element_type="f16" offset="1811840" shape="1, 192, 1, 1" size="384"/>
			<output>
				<port id="0" precision="FP16">
					<dim>1</dim>
					<dim>192</dim>
					<dim>1</dim>
					<dim>1</dim>
				</port>
			</output>
		</layer>
		<layer id="167" name="Conv_123" type="Add" version="opset1">
			<data auto_broadcast="numpy"/>
			<input>
				<port id="0" precision="FP16">
					<dim>1</dim>
					<dim>192</dim>
					<dim>80</dim>
					<dim>80</dim>
				</port>
				<port id="1" precision="FP16">
					<dim>1</dim>
					<dim>192</dim>
					<dim>1</dim>
					<dim>1</dim>
				</port>
			</input>
			<output>
				<port id="2" names="1194" precision="FP16">
					<dim>1</dim>
					<dim>192</dim>
					<dim>80</dim>
					<dim>80</dim>
				</port>
			</output>
		</layer>
		<layer id="168" name="Mul_125" type="Swish" version="opset4">
			<input>
				<port id="0" precision="FP16">
					<dim>1</dim>
					<dim>192</dim>
					<dim>80</dim>
					<dim>80</dim>
				</port>
			</input>
			<output>
				<port id="1" names="757" precision="FP16">
					<dim>1</dim>
					<dim>192</dim>
					<dim>80</dim>
					<dim>80</dim>
				</port>
			</output>
		</layer>
		<layer id="169" name="1198" type="Const" version="opset1">
			<data element_type="f16" offset="1812224" shape="384, 192, 3, 3" size="1327104"/>
			<output>
				<port id="0" names="1198" precision="FP16">
					<dim>384</dim>
					<dim>192</dim>
					<dim>3</dim>
					<dim>3</dim>
				</port>
			</output>
		</layer>
		<layer id="170" name="Conv_126/WithoutBiases" type="Convolution" version="opset1">
			<data auto_pad="explicit" dilations="1, 1" pads_begin="1, 1" pads_end="1, 1" strides="2, 2"/>
			<input>
				<port id="0" precision="FP16">
					<dim>1</dim>
					<dim>192</dim>
					<dim>80</dim>
					<dim>80</dim>
				</port>
				<port id="1" precision="FP16">
					<dim>384</dim>
					<dim>192</dim>
					<dim>3</dim>
					<dim>3</dim>
				</port>
			</input>
			<output>
				<port id="2" precision="FP16">
					<dim>1</dim>
					<dim>384</dim>
					<dim>40</dim>
					<dim>40</dim>
				</port>
			</output>
		</layer>
		<layer id="171" name="Conv_126/Dims5544" type="Const" version="opset1">
			<data element_type="f16" offset="3139328" shape="1, 384, 1, 1" size="768"/>
			<output>
				<port id="0" precision="FP16">
					<dim>1</dim>
					<dim>384</dim>
					<dim>1</dim>
					<dim>1</dim>
				</port>
			</output>
		</layer>
		<layer id="172" name="Conv_126" type="Add" version="opset1">
			<data auto_broadcast="numpy"/>
			<input>
				<port id="0" precision="FP16">
					<dim>1</dim>
					<dim>384</dim>
					<dim>40</dim>
					<dim>40</dim>
				</port>
				<port id="1" precision="FP16">
					<dim>1</dim>
					<dim>384</dim>
					<dim>1</dim>
					<dim>1</dim>
				</port>
			</input>
			<output>
				<port id="2" names="1197" precision="FP16">
					<dim>1</dim>
					<dim>384</dim>
					<dim>40</dim>
					<dim>40</dim>
				</port>
			</output>
		</layer>
		<layer id="173" name="Mul_128" type="Swish" version="opset4">
			<input>
				<port id="0" precision="FP16">
					<dim>1</dim>
					<dim>384</dim>
					<dim>40</dim>
					<dim>40</dim>
				</port>
			</input>
			<output>
				<port id="1" names="761" precision="FP16">
					<dim>1</dim>
					<dim>384</dim>
					<dim>40</dim>
					<dim>40</dim>
				</port>
			</output>
		</layer>
		<layer id="174" name="1201" type="Const" version="opset1">
			<data element_type="f16" offset="3140096" shape="192, 384, 1, 1" size="147456"/>
			<output>
				<port id="0" names="1201" precision="FP16">
					<dim>192</dim>
					<dim>384</dim>
					<dim>1</dim>
					<dim>1</dim>
				</port>
			</output>
		</layer>
		<layer id="175" name="Conv_129/WithoutBiases" type="Convolution" version="opset1">
			<data auto_pad="explicit" dilations="1, 1" pads_begin="0, 0" pads_end="0, 0" strides="1, 1"/>
			<input>
				<port id="0" precision="FP16">
					<dim>1</dim>
					<dim>384</dim>
					<dim>40</dim>
					<dim>40</dim>
				</port>
				<port id="1" precision="FP16">
					<dim>192</dim>
					<dim>384</dim>
					<dim>1</dim>
					<dim>1</dim>
				</port>
			</input>
			<output>
				<port id="2" precision="FP16">
					<dim>1</dim>
					<dim>192</dim>
					<dim>40</dim>
					<dim>40</dim>
				</port>
			</output>
		</layer>
		<layer id="176" name="Conv_129/Dims5586" type="Const" version="opset1">
			<data element_type="f16" offset="3287552" shape="1, 192, 1, 1" size="384"/>
			<output>
				<port id="0" precision="FP16">
					<dim>1</dim>
					<dim>192</dim>
					<dim>1</dim>
					<dim>1</dim>
				</port>
			</output>
		</layer>
		<layer id="177" name="Conv_129" type="Add" version="opset1">
			<data auto_broadcast="numpy"/>
			<input>
				<port id="0" precision="FP16">
					<dim>1</dim>
					<dim>192</dim>
					<dim>40</dim>
					<dim>40</dim>
				</port>
				<port id="1" precision="FP16">
					<dim>1</dim>
					<dim>192</dim>
					<dim>1</dim>
					<dim>1</dim>
				</port>
			</input>
			<output>
				<port id="2" names="1200" precision="FP16">
					<dim>1</dim>
					<dim>192</dim>
					<dim>40</dim>
					<dim>40</dim>
				</port>
			</output>
		</layer>
		<layer id="178" name="Mul_131" type="Swish" version="opset4">
			<input>
				<port id="0" precision="FP16">
					<dim>1</dim>
					<dim>192</dim>
					<dim>40</dim>
					<dim>40</dim>
				</port>
			</input>
			<output>
				<port id="1" names="765" precision="FP16">
					<dim>1</dim>
					<dim>192</dim>
					<dim>40</dim>
					<dim>40</dim>
				</port>
			</output>
		</layer>
		<layer id="179" name="1207" type="Const" version="opset1">
			<data element_type="f16" offset="3287936" shape="192, 192, 1, 1" size="73728"/>
			<output>
				<port id="0" names="1207" precision="FP16">
					<dim>192</dim>
					<dim>192</dim>
					<dim>1</dim>
					<dim>1</dim>
				</port>
			</output>
		</layer>
		<layer id="180" name="Conv_135/WithoutBiases" type="Convolution" version="opset1">
			<data auto_pad="explicit" dilations="1, 1" pads_begin="0, 0" pads_end="0, 0" strides="1, 1"/>
			<input>
				<port id="0" precision="FP16">
					<dim>1</dim>
					<dim>192</dim>
					<dim>40</dim>
					<dim>40</dim>
				</port>
				<port id="1" precision="FP16">
					<dim>192</dim>
					<dim>192</dim>
					<dim>1</dim>
					<dim>1</dim>
				</port>
			</input>
			<output>
				<port id="2" precision="FP16">
					<dim>1</dim>
					<dim>192</dim>
					<dim>40</dim>
					<dim>40</dim>
				</port>
			</output>
		</layer>
		<layer id="181" name="Conv_135/Dims5388" type="Const" version="opset1">
			<data element_type="f16" offset="3361664" shape="1, 192, 1, 1" size="384"/>
			<output>
				<port id="0" precision="FP16">
					<dim>1</dim>
					<dim>192</dim>
					<dim>1</dim>
					<dim>1</dim>
				</port>
			</output>
		</layer>
		<layer id="182" name="Conv_135" type="Add" version="opset1">
			<data auto_broadcast="numpy"/>
			<input>
				<port id="0" precision="FP16">
					<dim>1</dim>
					<dim>192</dim>
					<dim>40</dim>
					<dim>40</dim>
				</port>
				<port id="1" precision="FP16">
					<dim>1</dim>
					<dim>192</dim>
					<dim>1</dim>
					<dim>1</dim>
				</port>
			</input>
			<output>
				<port id="2" names="1206" precision="FP16">
					<dim>1</dim>
					<dim>192</dim>
					<dim>40</dim>
					<dim>40</dim>
				</port>
			</output>
		</layer>
		<layer id="183" name="Mul_137" type="Swish" version="opset4">
			<input>
				<port id="0" precision="FP16">
					<dim>1</dim>
					<dim>192</dim>
					<dim>40</dim>
					<dim>40</dim>
				</port>
			</input>
			<output>
				<port id="1" names="773" precision="FP16">
					<dim>1</dim>
					<dim>192</dim>
					<dim>40</dim>
					<dim>40</dim>
				</port>
			</output>
		</layer>
		<layer id="184" name="1210" type="Const" version="opset1">
			<data element_type="f16" offset="3362048" shape="192, 192, 3, 3" size="663552"/>
			<output>
				<port id="0" names="1210" precision="FP16">
					<dim>192</dim>
					<dim>192</dim>
					<dim>3</dim>
					<dim>3</dim>
				</port>
			</output>
		</layer>
		<layer id="185" name="Conv_138/WithoutBiases" type="Convolution" version="opset1">
			<data auto_pad="explicit" dilations="1, 1" pads_begin="1, 1" pads_end="1, 1" strides="1, 1"/>
			<input>
				<port id="0" precision="FP16">
					<dim>1</dim>
					<dim>192</dim>
					<dim>40</dim>
					<dim>40</dim>
				</port>
				<port id="1" precision="FP16">
					<dim>192</dim>
					<dim>192</dim>
					<dim>3</dim>
					<dim>3</dim>
				</port>
			</input>
			<output>
				<port id="2" precision="FP16">
					<dim>1</dim>
					<dim>192</dim>
					<dim>40</dim>
					<dim>40</dim>
				</port>
			</output>
		</layer>
		<layer id="186" name="Conv_138/Dims5262" type="Const" version="opset1">
			<data element_type="f16" offset="4025600" shape="1, 192, 1, 1" size="384"/>
			<output>
				<port id="0" precision="FP16">
					<dim>1</dim>
					<dim>192</dim>
					<dim>1</dim>
					<dim>1</dim>
				</port>
			</output>
		</layer>
		<layer id="187" name="Conv_138" type="Add" version="opset1">
			<data auto_broadcast="numpy"/>
			<input>
				<port id="0" precision="FP16">
					<dim>1</dim>
					<dim>192</dim>
					<dim>40</dim>
					<dim>40</dim>
				</port>
				<port id="1" precision="FP16">
					<dim>1</dim>
					<dim>192</dim>
					<dim>1</dim>
					<dim>1</dim>
				</port>
			</input>
			<output>
				<port id="2" names="1209" precision="FP16">
					<dim>1</dim>
					<dim>192</dim>
					<dim>40</dim>
					<dim>40</dim>
				</port>
			</output>
		</layer>
		<layer id="188" name="Mul_140" type="Swish" version="opset4">
			<input>
				<port id="0" precision="FP16">
					<dim>1</dim>
					<dim>192</dim>
					<dim>40</dim>
					<dim>40</dim>
				</port>
			</input>
			<output>
				<port id="1" names="777" precision="FP16">
					<dim>1</dim>
					<dim>192</dim>
					<dim>40</dim>
					<dim>40</dim>
				</port>
			</output>
		</layer>
		<layer id="189" name="Add_141" type="Add" version="opset1">
			<data auto_broadcast="numpy"/>
			<input>
				<port id="0" precision="FP16">
					<dim>1</dim>
					<dim>192</dim>
					<dim>40</dim>
					<dim>40</dim>
				</port>
				<port id="1" precision="FP16">
					<dim>1</dim>
					<dim>192</dim>
					<dim>40</dim>
					<dim>40</dim>
				</port>
			</input>
			<output>
				<port id="2" names="778" precision="FP16">
					<dim>1</dim>
					<dim>192</dim>
					<dim>40</dim>
					<dim>40</dim>
				</port>
			</output>
		</layer>
		<layer id="190" name="1213" type="Const" version="opset1">
			<data element_type="f16" offset="4025984" shape="192, 192, 1, 1" size="73728"/>
			<output>
				<port id="0" names="1213" precision="FP16">
					<dim>192</dim>
					<dim>192</dim>
					<dim>1</dim>
					<dim>1</dim>
				</port>
			</output>
		</layer>
		<layer id="191" name="Conv_142/WithoutBiases" type="Convolution" version="opset1">
			<data auto_pad="explicit" dilations="1, 1" pads_begin="0, 0" pads_end="0, 0" strides="1, 1"/>
			<input>
				<port id="0" precision="FP16">
					<dim>1</dim>
					<dim>192</dim>
					<dim>40</dim>
					<dim>40</dim>
				</port>
				<port id="1" precision="FP16">
					<dim>192</dim>
					<dim>192</dim>
					<dim>1</dim>
					<dim>1</dim>
				</port>
			</input>
			<output>
				<port id="2" precision="FP16">
					<dim>1</dim>
					<dim>192</dim>
					<dim>40</dim>
					<dim>40</dim>
				</port>
			</output>
		</layer>
		<layer id="192" name="Conv_142/Dims5610" type="Const" version="opset1">
			<data element_type="f16" offset="4099712" shape="1, 192, 1, 1" size="384"/>
			<output>
				<port id="0" precision="FP16">
					<dim>1</dim>
					<dim>192</dim>
					<dim>1</dim>
					<dim>1</dim>
				</port>
			</output>
		</layer>
		<layer id="193" name="Conv_142" type="Add" version="opset1">
			<data auto_broadcast="numpy"/>
			<input>
				<port id="0" precision="FP16">
					<dim>1</dim>
					<dim>192</dim>
					<dim>40</dim>
					<dim>40</dim>
				</port>
				<port id="1" precision="FP16">
					<dim>1</dim>
					<dim>192</dim>
					<dim>1</dim>
					<dim>1</dim>
				</port>
			</input>
			<output>
				<port id="2" names="1212" precision="FP16">
					<dim>1</dim>
					<dim>192</dim>
					<dim>40</dim>
					<dim>40</dim>
				</port>
			</output>
		</layer>
		<layer id="194" name="Mul_144" type="Swish" version="opset4">
			<input>
				<port id="0" precision="FP16">
					<dim>1</dim>
					<dim>192</dim>
					<dim>40</dim>
					<dim>40</dim>
				</port>
			</input>
			<output>
				<port id="1" names="782" precision="FP16">
					<dim>1</dim>
					<dim>192</dim>
					<dim>40</dim>
					<dim>40</dim>
				</port>
			</output>
		</layer>
		<layer id="195" name="1216" type="Const" version="opset1">
			<data element_type="f16" offset="4100096" shape="192, 192, 3, 3" size="663552"/>
			<output>
				<port id="0" names="1216" precision="FP16">
					<dim>192</dim>
					<dim>192</dim>
					<dim>3</dim>
					<dim>3</dim>
				</port>
			</output>
		</layer>
		<layer id="196" name="Conv_145/WithoutBiases" type="Convolution" version="opset1">
			<data auto_pad="explicit" dilations="1, 1" pads_begin="1, 1" pads_end="1, 1" strides="1, 1"/>
			<input>
				<port id="0" precision="FP16">
					<dim>1</dim>
					<dim>192</dim>
					<dim>40</dim>
					<dim>40</dim>
				</port>
				<port id="1" precision="FP16">
					<dim>192</dim>
					<dim>192</dim>
					<dim>3</dim>
					<dim>3</dim>
				</port>
			</input>
			<output>
				<port id="2" precision="FP16">
					<dim>1</dim>
					<dim>192</dim>
					<dim>40</dim>
					<dim>40</dim>
				</port>
			</output>
		</layer>
		<layer id="197" name="Conv_145/Dims5148" type="Const" version="opset1">
			<data element_type="f16" offset="4763648" shape="1, 192, 1, 1" size="384"/>
			<output>
				<port id="0" precision="FP16">
					<dim>1</dim>
					<dim>192</dim>
					<dim>1</dim>
					<dim>1</dim>
				</port>
			</output>
		</layer>
		<layer id="198" name="Conv_145" type="Add" version="opset1">
			<data auto_broadcast="numpy"/>
			<input>
				<port id="0" precision="FP16">
					<dim>1</dim>
					<dim>192</dim>
					<dim>40</dim>
					<dim>40</dim>
				</port>
				<port id="1" precision="FP16">
					<dim>1</dim>
					<dim>192</dim>
					<dim>1</dim>
					<dim>1</dim>
				</port>
			</input>
			<output>
				<port id="2" names="1215" precision="FP16">
					<dim>1</dim>
					<dim>192</dim>
					<dim>40</dim>
					<dim>40</dim>
				</port>
			</output>
		</layer>
		<layer id="199" name="Mul_147" type="Swish" version="opset4">
			<input>
				<port id="0" precision="FP16">
					<dim>1</dim>
					<dim>192</dim>
					<dim>40</dim>
					<dim>40</dim>
				</port>
			</input>
			<output>
				<port id="1" names="786" precision="FP16">
					<dim>1</dim>
					<dim>192</dim>
					<dim>40</dim>
					<dim>40</dim>
				</port>
			</output>
		</layer>
		<layer id="200" name="Add_148" type="Add" version="opset1">
			<data auto_broadcast="numpy"/>
			<input>
				<port id="0" precision="FP16">
					<dim>1</dim>
					<dim>192</dim>
					<dim>40</dim>
					<dim>40</dim>
				</port>
				<port id="1" precision="FP16">
					<dim>1</dim>
					<dim>192</dim>
					<dim>40</dim>
					<dim>40</dim>
				</port>
			</input>
			<output>
				<port id="2" names="787" precision="FP16">
					<dim>1</dim>
					<dim>192</dim>
					<dim>40</dim>
					<dim>40</dim>
				</port>
			</output>
		</layer>
		<layer id="201" name="1219" type="Const" version="opset1">
			<data element_type="f16" offset="4764032" shape="192, 192, 1, 1" size="73728"/>
			<output>
				<port id="0" names="1219" precision="FP16">
					<dim>192</dim>
					<dim>192</dim>
					<dim>1</dim>
					<dim>1</dim>
				</port>
			</output>
		</layer>
		<layer id="202" name="Conv_149/WithoutBiases" type="Convolution" version="opset1">
			<data auto_pad="explicit" dilations="1, 1" pads_begin="0, 0" pads_end="0, 0" strides="1, 1"/>
			<input>
				<port id="0" precision="FP16">
					<dim>1</dim>
					<dim>192</dim>
					<dim>40</dim>
					<dim>40</dim>
				</port>
				<port id="1" precision="FP16">
					<dim>192</dim>
					<dim>192</dim>
					<dim>1</dim>
					<dim>1</dim>
				</port>
			</input>
			<output>
				<port id="2" precision="FP16">
					<dim>1</dim>
					<dim>192</dim>
					<dim>40</dim>
					<dim>40</dim>
				</port>
			</output>
		</layer>
		<layer id="203" name="Conv_149/Dims5214" type="Const" version="opset1">
			<data element_type="f16" offset="4837760" shape="1, 192, 1, 1" size="384"/>
			<output>
				<port id="0" precision="FP16">
					<dim>1</dim>
					<dim>192</dim>
					<dim>1</dim>
					<dim>1</dim>
				</port>
			</output>
		</layer>
		<layer id="204" name="Conv_149" type="Add" version="opset1">
			<data auto_broadcast="numpy"/>
			<input>
				<port id="0" precision="FP16">
					<dim>1</dim>
					<dim>192</dim>
					<dim>40</dim>
					<dim>40</dim>
				</port>
				<port id="1" precision="FP16">
					<dim>1</dim>
					<dim>192</dim>
					<dim>1</dim>
					<dim>1</dim>
				</port>
			</input>
			<output>
				<port id="2" names="1218" precision="FP16">
					<dim>1</dim>
					<dim>192</dim>
					<dim>40</dim>
					<dim>40</dim>
				</port>
			</output>
		</layer>
		<layer id="205" name="Mul_151" type="Swish" version="opset4">
			<input>
				<port id="0" precision="FP16">
					<dim>1</dim>
					<dim>192</dim>
					<dim>40</dim>
					<dim>40</dim>
				</port>
			</input>
			<output>
				<port id="1" names="791" precision="FP16">
					<dim>1</dim>
					<dim>192</dim>
					<dim>40</dim>
					<dim>40</dim>
				</port>
			</output>
		</layer>
		<layer id="206" name="1222" type="Const" version="opset1">
			<data element_type="f16" offset="4838144" shape="192, 192, 3, 3" size="663552"/>
			<output>
				<port id="0" names="1222" precision="FP16">
					<dim>192</dim>
					<dim>192</dim>
					<dim>3</dim>
					<dim>3</dim>
				</port>
			</output>
		</layer>
		<layer id="207" name="Conv_152/WithoutBiases" type="Convolution" version="opset1">
			<data auto_pad="explicit" dilations="1, 1" pads_begin="1, 1" pads_end="1, 1" strides="1, 1"/>
			<input>
				<port id="0" precision="FP16">
					<dim>1</dim>
					<dim>192</dim>
					<dim>40</dim>
					<dim>40</dim>
				</port>
				<port id="1" precision="FP16">
					<dim>192</dim>
					<dim>192</dim>
					<dim>3</dim>
					<dim>3</dim>
				</port>
			</input>
			<output>
				<port id="2" precision="FP16">
					<dim>1</dim>
					<dim>192</dim>
					<dim>40</dim>
					<dim>40</dim>
				</port>
			</output>
		</layer>
		<layer id="208" name="Conv_152/Dims5334" type="Const" version="opset1">
			<data element_type="f16" offset="5501696" shape="1, 192, 1, 1" size="384"/>
			<output>
				<port id="0" precision="FP16">
					<dim>1</dim>
					<dim>192</dim>
					<dim>1</dim>
					<dim>1</dim>
				</port>
			</output>
		</layer>
		<layer id="209" name="Conv_152" type="Add" version="opset1">
			<data auto_broadcast="numpy"/>
			<input>
				<port id="0" precision="FP16">
					<dim>1</dim>
					<dim>192</dim>
					<dim>40</dim>
					<dim>40</dim>
				</port>
				<port id="1" precision="FP16">
					<dim>1</dim>
					<dim>192</dim>
					<dim>1</dim>
					<dim>1</dim>
				</port>
			</input>
			<output>
				<port id="2" names="1221" precision="FP16">
					<dim>1</dim>
					<dim>192</dim>
					<dim>40</dim>
					<dim>40</dim>
				</port>
			</output>
		</layer>
		<layer id="210" name="Mul_154" type="Swish" version="opset4">
			<input>
				<port id="0" precision="FP16">
					<dim>1</dim>
					<dim>192</dim>
					<dim>40</dim>
					<dim>40</dim>
				</port>
			</input>
			<output>
				<port id="1" names="795" precision="FP16">
					<dim>1</dim>
					<dim>192</dim>
					<dim>40</dim>
					<dim>40</dim>
				</port>
			</output>
		</layer>
		<layer id="211" name="Add_155" type="Add" version="opset1">
			<data auto_broadcast="numpy"/>
			<input>
				<port id="0" precision="FP16">
					<dim>1</dim>
					<dim>192</dim>
					<dim>40</dim>
					<dim>40</dim>
				</port>
				<port id="1" precision="FP16">
					<dim>1</dim>
					<dim>192</dim>
					<dim>40</dim>
					<dim>40</dim>
				</port>
			</input>
			<output>
				<port id="2" names="796" precision="FP16">
					<dim>1</dim>
					<dim>192</dim>
					<dim>40</dim>
					<dim>40</dim>
				</port>
			</output>
		</layer>
		<layer id="212" name="1225" type="Const" version="opset1">
			<data element_type="f16" offset="5502080" shape="192, 192, 1, 1" size="73728"/>
			<output>
				<port id="0" names="1225" precision="FP16">
					<dim>192</dim>
					<dim>192</dim>
					<dim>1</dim>
					<dim>1</dim>
				</port>
			</output>
		</layer>
		<layer id="213" name="Conv_156/WithoutBiases" type="Convolution" version="opset1">
			<data auto_pad="explicit" dilations="1, 1" pads_begin="0, 0" pads_end="0, 0" strides="1, 1"/>
			<input>
				<port id="0" precision="FP16">
					<dim>1</dim>
					<dim>192</dim>
					<dim>40</dim>
					<dim>40</dim>
				</port>
				<port id="1" precision="FP16">
					<dim>192</dim>
					<dim>192</dim>
					<dim>1</dim>
					<dim>1</dim>
				</port>
			</input>
			<output>
				<port id="2" precision="FP16">
					<dim>1</dim>
					<dim>192</dim>
					<dim>40</dim>
					<dim>40</dim>
				</port>
			</output>
		</layer>
		<layer id="214" name="Conv_156/Dims5352" type="Const" version="opset1">
			<data element_type="f16" offset="5575808" shape="1, 192, 1, 1" size="384"/>
			<output>
				<port id="0" precision="FP16">
					<dim>1</dim>
					<dim>192</dim>
					<dim>1</dim>
					<dim>1</dim>
				</port>
			</output>
		</layer>
		<layer id="215" name="Conv_156" type="Add" version="opset1">
			<data auto_broadcast="numpy"/>
			<input>
				<port id="0" precision="FP16">
					<dim>1</dim>
					<dim>192</dim>
					<dim>40</dim>
					<dim>40</dim>
				</port>
				<port id="1" precision="FP16">
					<dim>1</dim>
					<dim>192</dim>
					<dim>1</dim>
					<dim>1</dim>
				</port>
			</input>
			<output>
				<port id="2" names="1224" precision="FP16">
					<dim>1</dim>
					<dim>192</dim>
					<dim>40</dim>
					<dim>40</dim>
				</port>
			</output>
		</layer>
		<layer id="216" name="Mul_158" type="Swish" version="opset4">
			<input>
				<port id="0" precision="FP16">
					<dim>1</dim>
					<dim>192</dim>
					<dim>40</dim>
					<dim>40</dim>
				</port>
			</input>
			<output>
				<port id="1" names="800" precision="FP16">
					<dim>1</dim>
					<dim>192</dim>
					<dim>40</dim>
					<dim>40</dim>
				</port>
			</output>
		</layer>
		<layer id="217" name="1228" type="Const" version="opset1">
			<data element_type="f16" offset="5576192" shape="192, 192, 3, 3" size="663552"/>
			<output>
				<port id="0" names="1228" precision="FP16">
					<dim>192</dim>
					<dim>192</dim>
					<dim>3</dim>
					<dim>3</dim>
				</port>
			</output>
		</layer>
		<layer id="218" name="Conv_159/WithoutBiases" type="Convolution" version="opset1">
			<data auto_pad="explicit" dilations="1, 1" pads_begin="1, 1" pads_end="1, 1" strides="1, 1"/>
			<input>
				<port id="0" precision="FP16">
					<dim>1</dim>
					<dim>192</dim>
					<dim>40</dim>
					<dim>40</dim>
				</port>
				<port id="1" precision="FP16">
					<dim>192</dim>
					<dim>192</dim>
					<dim>3</dim>
					<dim>3</dim>
				</port>
			</input>
			<output>
				<port id="2" precision="FP16">
					<dim>1</dim>
					<dim>192</dim>
					<dim>40</dim>
					<dim>40</dim>
				</port>
			</output>
		</layer>
		<layer id="219" name="Conv_159/Dims4974" type="Const" version="opset1">
			<data element_type="f16" offset="6239744" shape="1, 192, 1, 1" size="384"/>
			<output>
				<port id="0" precision="FP16">
					<dim>1</dim>
					<dim>192</dim>
					<dim>1</dim>
					<dim>1</dim>
				</port>
			</output>
		</layer>
		<layer id="220" name="Conv_159" type="Add" version="opset1">
			<data auto_broadcast="numpy"/>
			<input>
				<port id="0" precision="FP16">
					<dim>1</dim>
					<dim>192</dim>
					<dim>40</dim>
					<dim>40</dim>
				</port>
				<port id="1" precision="FP16">
					<dim>1</dim>
					<dim>192</dim>
					<dim>1</dim>
					<dim>1</dim>
				</port>
			</input>
			<output>
				<port id="2" names="1227" precision="FP16">
					<dim>1</dim>
					<dim>192</dim>
					<dim>40</dim>
					<dim>40</dim>
				</port>
			</output>
		</layer>
		<layer id="221" name="Mul_161" type="Swish" version="opset4">
			<input>
				<port id="0" precision="FP16">
					<dim>1</dim>
					<dim>192</dim>
					<dim>40</dim>
					<dim>40</dim>
				</port>
			</input>
			<output>
				<port id="1" names="804" precision="FP16">
					<dim>1</dim>
					<dim>192</dim>
					<dim>40</dim>
					<dim>40</dim>
				</port>
			</output>
		</layer>
		<layer id="222" name="Add_162" type="Add" version="opset1">
			<data auto_broadcast="numpy"/>
			<input>
				<port id="0" precision="FP16">
					<dim>1</dim>
					<dim>192</dim>
					<dim>40</dim>
					<dim>40</dim>
				</port>
				<port id="1" precision="FP16">
					<dim>1</dim>
					<dim>192</dim>
					<dim>40</dim>
					<dim>40</dim>
				</port>
			</input>
			<output>
				<port id="2" names="805" precision="FP16">
					<dim>1</dim>
					<dim>192</dim>
					<dim>40</dim>
					<dim>40</dim>
				</port>
			</output>
		</layer>
		<layer id="223" name="1231" type="Const" version="opset1">
			<data element_type="f16" offset="6240128" shape="192, 192, 1, 1" size="73728"/>
			<output>
				<port id="0" names="1231" precision="FP16">
					<dim>192</dim>
					<dim>192</dim>
					<dim>1</dim>
					<dim>1</dim>
				</port>
			</output>
		</layer>
		<layer id="224" name="Conv_163/WithoutBiases" type="Convolution" version="opset1">
			<data auto_pad="explicit" dilations="1, 1" pads_begin="0, 0" pads_end="0, 0" strides="1, 1"/>
			<input>
				<port id="0" precision="FP16">
					<dim>1</dim>
					<dim>192</dim>
					<dim>40</dim>
					<dim>40</dim>
				</port>
				<port id="1" precision="FP16">
					<dim>192</dim>
					<dim>192</dim>
					<dim>1</dim>
					<dim>1</dim>
				</port>
			</input>
			<output>
				<port id="2" precision="FP16">
					<dim>1</dim>
					<dim>192</dim>
					<dim>40</dim>
					<dim>40</dim>
				</port>
			</output>
		</layer>
		<layer id="225" name="Conv_163/Dims5394" type="Const" version="opset1">
			<data element_type="f16" offset="6313856" shape="1, 192, 1, 1" size="384"/>
			<output>
				<port id="0" precision="FP16">
					<dim>1</dim>
					<dim>192</dim>
					<dim>1</dim>
					<dim>1</dim>
				</port>
			</output>
		</layer>
		<layer id="226" name="Conv_163" type="Add" version="opset1">
			<data auto_broadcast="numpy"/>
			<input>
				<port id="0" precision="FP16">
					<dim>1</dim>
					<dim>192</dim>
					<dim>40</dim>
					<dim>40</dim>
				</port>
				<port id="1" precision="FP16">
					<dim>1</dim>
					<dim>192</dim>
					<dim>1</dim>
					<dim>1</dim>
				</port>
			</input>
			<output>
				<port id="2" names="1230" precision="FP16">
					<dim>1</dim>
					<dim>192</dim>
					<dim>40</dim>
					<dim>40</dim>
				</port>
			</output>
		</layer>
		<layer id="227" name="Mul_165" type="Swish" version="opset4">
			<input>
				<port id="0" precision="FP16">
					<dim>1</dim>
					<dim>192</dim>
					<dim>40</dim>
					<dim>40</dim>
				</port>
			</input>
			<output>
				<port id="1" names="809" precision="FP16">
					<dim>1</dim>
					<dim>192</dim>
					<dim>40</dim>
					<dim>40</dim>
				</port>
			</output>
		</layer>
		<layer id="228" name="1234" type="Const" version="opset1">
			<data element_type="f16" offset="6314240" shape="192, 192, 3, 3" size="663552"/>
			<output>
				<port id="0" names="1234" precision="FP16">
					<dim>192</dim>
					<dim>192</dim>
					<dim>3</dim>
					<dim>3</dim>
				</port>
			</output>
		</layer>
		<layer id="229" name="Conv_166/WithoutBiases" type="Convolution" version="opset1">
			<data auto_pad="explicit" dilations="1, 1" pads_begin="1, 1" pads_end="1, 1" strides="1, 1"/>
			<input>
				<port id="0" precision="FP16">
					<dim>1</dim>
					<dim>192</dim>
					<dim>40</dim>
					<dim>40</dim>
				</port>
				<port id="1" precision="FP16">
					<dim>192</dim>
					<dim>192</dim>
					<dim>3</dim>
					<dim>3</dim>
				</port>
			</input>
			<output>
				<port id="2" precision="FP16">
					<dim>1</dim>
					<dim>192</dim>
					<dim>40</dim>
					<dim>40</dim>
				</port>
			</output>
		</layer>
		<layer id="230" name="Conv_166/Dims5220" type="Const" version="opset1">
			<data element_type="f16" offset="6977792" shape="1, 192, 1, 1" size="384"/>
			<output>
				<port id="0" precision="FP16">
					<dim>1</dim>
					<dim>192</dim>
					<dim>1</dim>
					<dim>1</dim>
				</port>
			</output>
		</layer>
		<layer id="231" name="Conv_166" type="Add" version="opset1">
			<data auto_broadcast="numpy"/>
			<input>
				<port id="0" precision="FP16">
					<dim>1</dim>
					<dim>192</dim>
					<dim>40</dim>
					<dim>40</dim>
				</port>
				<port id="1" precision="FP16">
					<dim>1</dim>
					<dim>192</dim>
					<dim>1</dim>
					<dim>1</dim>
				</port>
			</input>
			<output>
				<port id="2" names="1233" precision="FP16">
					<dim>1</dim>
					<dim>192</dim>
					<dim>40</dim>
					<dim>40</dim>
				</port>
			</output>
		</layer>
		<layer id="232" name="Mul_168" type="Swish" version="opset4">
			<input>
				<port id="0" precision="FP16">
					<dim>1</dim>
					<dim>192</dim>
					<dim>40</dim>
					<dim>40</dim>
				</port>
			</input>
			<output>
				<port id="1" names="813" precision="FP16">
					<dim>1</dim>
					<dim>192</dim>
					<dim>40</dim>
					<dim>40</dim>
				</port>
			</output>
		</layer>
		<layer id="233" name="Add_169" type="Add" version="opset1">
			<data auto_broadcast="numpy"/>
			<input>
				<port id="0" precision="FP16">
					<dim>1</dim>
					<dim>192</dim>
					<dim>40</dim>
					<dim>40</dim>
				</port>
				<port id="1" precision="FP16">
					<dim>1</dim>
					<dim>192</dim>
					<dim>40</dim>
					<dim>40</dim>
				</port>
			</input>
			<output>
				<port id="2" names="814" precision="FP16">
					<dim>1</dim>
					<dim>192</dim>
					<dim>40</dim>
					<dim>40</dim>
				</port>
			</output>
		</layer>
		<layer id="234" name="1237" type="Const" version="opset1">
			<data element_type="f16" offset="6978176" shape="192, 192, 1, 1" size="73728"/>
			<output>
				<port id="0" names="1237" precision="FP16">
					<dim>192</dim>
					<dim>192</dim>
					<dim>1</dim>
					<dim>1</dim>
				</port>
			</output>
		</layer>
		<layer id="235" name="Conv_170/WithoutBiases" type="Convolution" version="opset1">
			<data auto_pad="explicit" dilations="1, 1" pads_begin="0, 0" pads_end="0, 0" strides="1, 1"/>
			<input>
				<port id="0" precision="FP16">
					<dim>1</dim>
					<dim>192</dim>
					<dim>40</dim>
					<dim>40</dim>
				</port>
				<port id="1" precision="FP16">
					<dim>192</dim>
					<dim>192</dim>
					<dim>1</dim>
					<dim>1</dim>
				</port>
			</input>
			<output>
				<port id="2" precision="FP16">
					<dim>1</dim>
					<dim>192</dim>
					<dim>40</dim>
					<dim>40</dim>
				</port>
			</output>
		</layer>
		<layer id="236" name="Conv_170/Dims5034" type="Const" version="opset1">
			<data element_type="f16" offset="7051904" shape="1, 192, 1, 1" size="384"/>
			<output>
				<port id="0" precision="FP16">
					<dim>1</dim>
					<dim>192</dim>
					<dim>1</dim>
					<dim>1</dim>
				</port>
			</output>
		</layer>
		<layer id="237" name="Conv_170" type="Add" version="opset1">
			<data auto_broadcast="numpy"/>
			<input>
				<port id="0" precision="FP16">
					<dim>1</dim>
					<dim>192</dim>
					<dim>40</dim>
					<dim>40</dim>
				</port>
				<port id="1" precision="FP16">
					<dim>1</dim>
					<dim>192</dim>
					<dim>1</dim>
					<dim>1</dim>
				</port>
			</input>
			<output>
				<port id="2" names="1236" precision="FP16">
					<dim>1</dim>
					<dim>192</dim>
					<dim>40</dim>
					<dim>40</dim>
				</port>
			</output>
		</layer>
		<layer id="238" name="Mul_172" type="Swish" version="opset4">
			<input>
				<port id="0" precision="FP16">
					<dim>1</dim>
					<dim>192</dim>
					<dim>40</dim>
					<dim>40</dim>
				</port>
			</input>
			<output>
				<port id="1" names="818" precision="FP16">
					<dim>1</dim>
					<dim>192</dim>
					<dim>40</dim>
					<dim>40</dim>
				</port>
			</output>
		</layer>
		<layer id="239" name="1240" type="Const" version="opset1">
			<data element_type="f16" offset="7052288" shape="192, 192, 3, 3" size="663552"/>
			<output>
				<port id="0" names="1240" precision="FP16">
					<dim>192</dim>
					<dim>192</dim>
					<dim>3</dim>
					<dim>3</dim>
				</port>
			</output>
		</layer>
		<layer id="240" name="Conv_173/WithoutBiases" type="Convolution" version="opset1">
			<data auto_pad="explicit" dilations="1, 1" pads_begin="1, 1" pads_end="1, 1" strides="1, 1"/>
			<input>
				<port id="0" precision="FP16">
					<dim>1</dim>
					<dim>192</dim>
					<dim>40</dim>
					<dim>40</dim>
				</port>
				<port id="1" precision="FP16">
					<dim>192</dim>
					<dim>192</dim>
					<dim>3</dim>
					<dim>3</dim>
				</port>
			</input>
			<output>
				<port id="2" precision="FP16">
					<dim>1</dim>
					<dim>192</dim>
					<dim>40</dim>
					<dim>40</dim>
				</port>
			</output>
		</layer>
		<layer id="241" name="Conv_173/Dims4992" type="Const" version="opset1">
			<data element_type="f16" offset="7715840" shape="1, 192, 1, 1" size="384"/>
			<output>
				<port id="0" precision="FP16">
					<dim>1</dim>
					<dim>192</dim>
					<dim>1</dim>
					<dim>1</dim>
				</port>
			</output>
		</layer>
		<layer id="242" name="Conv_173" type="Add" version="opset1">
			<data auto_broadcast="numpy"/>
			<input>
				<port id="0" precision="FP16">
					<dim>1</dim>
					<dim>192</dim>
					<dim>40</dim>
					<dim>40</dim>
				</port>
				<port id="1" precision="FP16">
					<dim>1</dim>
					<dim>192</dim>
					<dim>1</dim>
					<dim>1</dim>
				</port>
			</input>
			<output>
				<port id="2" names="1239" precision="FP16">
					<dim>1</dim>
					<dim>192</dim>
					<dim>40</dim>
					<dim>40</dim>
				</port>
			</output>
		</layer>
		<layer id="243" name="Mul_175" type="Swish" version="opset4">
			<input>
				<port id="0" precision="FP16">
					<dim>1</dim>
					<dim>192</dim>
					<dim>40</dim>
					<dim>40</dim>
				</port>
			</input>
			<output>
				<port id="1" names="822" precision="FP16">
					<dim>1</dim>
					<dim>192</dim>
					<dim>40</dim>
					<dim>40</dim>
				</port>
			</output>
		</layer>
		<layer id="244" name="Add_176" type="Add" version="opset1">
			<data auto_broadcast="numpy"/>
			<input>
				<port id="0" precision="FP16">
					<dim>1</dim>
					<dim>192</dim>
					<dim>40</dim>
					<dim>40</dim>
				</port>
				<port id="1" precision="FP16">
					<dim>1</dim>
					<dim>192</dim>
					<dim>40</dim>
					<dim>40</dim>
				</port>
			</input>
			<output>
				<port id="2" names="823" precision="FP16">
					<dim>1</dim>
					<dim>192</dim>
					<dim>40</dim>
					<dim>40</dim>
				</port>
			</output>
		</layer>
		<layer id="245" name="1204" type="Const" version="opset1">
			<data element_type="f16" offset="7716224" shape="192, 384, 1, 1" size="147456"/>
			<output>
				<port id="0" names="1204" precision="FP16">
					<dim>192</dim>
					<dim>384</dim>
					<dim>1</dim>
					<dim>1</dim>
				</port>
			</output>
		</layer>
		<layer id="246" name="Conv_132/WithoutBiases" type="Convolution" version="opset1">
			<data auto_pad="explicit" dilations="1, 1" pads_begin="0, 0" pads_end="0, 0" strides="1, 1"/>
			<input>
				<port id="0" precision="FP16">
					<dim>1</dim>
					<dim>384</dim>
					<dim>40</dim>
					<dim>40</dim>
				</port>
				<port id="1" precision="FP16">
					<dim>192</dim>
					<dim>384</dim>
					<dim>1</dim>
					<dim>1</dim>
				</port>
			</input>
			<output>
				<port id="2" precision="FP16">
					<dim>1</dim>
					<dim>192</dim>
					<dim>40</dim>
					<dim>40</dim>
				</port>
			</output>
		</layer>
		<layer id="247" name="Conv_132/Dims5550" type="Const" version="opset1">
			<data element_type="f16" offset="7863680" shape="1, 192, 1, 1" size="384"/>
			<output>
				<port id="0" precision="FP16">
					<dim>1</dim>
					<dim>192</dim>
					<dim>1</dim>
					<dim>1</dim>
				</port>
			</output>
		</layer>
		<layer id="248" name="Conv_132" type="Add" version="opset1">
			<data auto_broadcast="numpy"/>
			<input>
				<port id="0" precision="FP16">
					<dim>1</dim>
					<dim>192</dim>
					<dim>40</dim>
					<dim>40</dim>
				</port>
				<port id="1" precision="FP16">
					<dim>1</dim>
					<dim>192</dim>
					<dim>1</dim>
					<dim>1</dim>
				</port>
			</input>
			<output>
				<port id="2" names="1203" precision="FP16">
					<dim>1</dim>
					<dim>192</dim>
					<dim>40</dim>
					<dim>40</dim>
				</port>
			</output>
		</layer>
		<layer id="249" name="Mul_134" type="Swish" version="opset4">
			<input>
				<port id="0" precision="FP16">
					<dim>1</dim>
					<dim>192</dim>
					<dim>40</dim>
					<dim>40</dim>
				</port>
			</input>
			<output>
				<port id="1" names="769" precision="FP16">
					<dim>1</dim>
					<dim>192</dim>
					<dim>40</dim>
					<dim>40</dim>
				</port>
			</output>
		</layer>
		<layer id="250" name="Concat_177" type="Concat" version="opset1">
			<data axis="1"/>
			<input>
				<port id="0" precision="FP16">
					<dim>1</dim>
					<dim>192</dim>
					<dim>40</dim>
					<dim>40</dim>
				</port>
				<port id="1" precision="FP16">
					<dim>1</dim>
					<dim>192</dim>
					<dim>40</dim>
					<dim>40</dim>
				</port>
			</input>
			<output>
				<port id="2" names="824" precision="FP16">
					<dim>1</dim>
					<dim>384</dim>
					<dim>40</dim>
					<dim>40</dim>
				</port>
			</output>
		</layer>
		<layer id="251" name="1243" type="Const" version="opset1">
			<data element_type="f16" offset="7864064" shape="384, 384, 1, 1" size="294912"/>
			<output>
				<port id="0" names="1243" precision="FP16">
					<dim>384</dim>
					<dim>384</dim>
					<dim>1</dim>
					<dim>1</dim>
				</port>
			</output>
		</layer>
		<layer id="252" name="Conv_178/WithoutBiases" type="Convolution" version="opset1">
			<data auto_pad="explicit" dilations="1, 1" pads_begin="0, 0" pads_end="0, 0" strides="1, 1"/>
			<input>
				<port id="0" precision="FP16">
					<dim>1</dim>
					<dim>384</dim>
					<dim>40</dim>
					<dim>40</dim>
				</port>
				<port id="1" precision="FP16">
					<dim>384</dim>
					<dim>384</dim>
					<dim>1</dim>
					<dim>1</dim>
				</port>
			</input>
			<output>
				<port id="2" precision="FP16">
					<dim>1</dim>
					<dim>384</dim>
					<dim>40</dim>
					<dim>40</dim>
				</port>
			</output>
		</layer>
		<layer id="253" name="Conv_178/Dims5580" type="Const" version="opset1">
			<data element_type="f16" offset="8158976" shape="1, 384, 1, 1" size="768"/>
			<output>
				<port id="0" precision="FP16">
					<dim>1</dim>
					<dim>384</dim>
					<dim>1</dim>
					<dim>1</dim>
				</port>
			</output>
		</layer>
		<layer id="254" name="Conv_178" type="Add" version="opset1">
			<data auto_broadcast="numpy"/>
			<input>
				<port id="0" precision="FP16">
					<dim>1</dim>
					<dim>384</dim>
					<dim>40</dim>
					<dim>40</dim>
				</port>
				<port id="1" precision="FP16">
					<dim>1</dim>
					<dim>384</dim>
					<dim>1</dim>
					<dim>1</dim>
				</port>
			</input>
			<output>
				<port id="2" names="1242" precision="FP16">
					<dim>1</dim>
					<dim>384</dim>
					<dim>40</dim>
					<dim>40</dim>
				</port>
			</output>
		</layer>
		<layer id="255" name="Mul_180" type="Swish" version="opset4">
			<input>
				<port id="0" precision="FP16">
					<dim>1</dim>
					<dim>384</dim>
					<dim>40</dim>
					<dim>40</dim>
				</port>
			</input>
			<output>
				<port id="1" names="828" precision="FP16">
					<dim>1</dim>
					<dim>384</dim>
					<dim>40</dim>
					<dim>40</dim>
				</port>
			</output>
		</layer>
		<layer id="256" name="1246" type="Const" version="opset1">
			<data element_type="f16" offset="8159744" shape="768, 384, 3, 3" size="5308416"/>
			<output>
				<port id="0" names="1246" precision="FP16">
					<dim>768</dim>
					<dim>384</dim>
					<dim>3</dim>
					<dim>3</dim>
				</port>
			</output>
		</layer>
		<layer id="257" name="Conv_181/WithoutBiases" type="Convolution" version="opset1">
			<data auto_pad="explicit" dilations="1, 1" pads_begin="1, 1" pads_end="1, 1" strides="2, 2"/>
			<input>
				<port id="0" precision="FP16">
					<dim>1</dim>
					<dim>384</dim>
					<dim>40</dim>
					<dim>40</dim>
				</port>
				<port id="1" precision="FP16">
					<dim>768</dim>
					<dim>384</dim>
					<dim>3</dim>
					<dim>3</dim>
				</port>
			</input>
			<output>
				<port id="2" precision="FP16">
					<dim>1</dim>
					<dim>768</dim>
					<dim>20</dim>
					<dim>20</dim>
				</port>
			</output>
		</layer>
		<layer id="258" name="Conv_181/Dims5490" type="Const" version="opset1">
			<data element_type="f16" offset="13468160" shape="1, 768, 1, 1" size="1536"/>
			<output>
				<port id="0" precision="FP16">
					<dim>1</dim>
					<dim>768</dim>
					<dim>1</dim>
					<dim>1</dim>
				</port>
			</output>
		</layer>
		<layer id="259" name="Conv_181" type="Add" version="opset1">
			<data auto_broadcast="numpy"/>
			<input>
				<port id="0" precision="FP16">
					<dim>1</dim>
					<dim>768</dim>
					<dim>20</dim>
					<dim>20</dim>
				</port>
				<port id="1" precision="FP16">
					<dim>1</dim>
					<dim>768</dim>
					<dim>1</dim>
					<dim>1</dim>
				</port>
			</input>
			<output>
				<port id="2" names="1245" precision="FP16">
					<dim>1</dim>
					<dim>768</dim>
					<dim>20</dim>
					<dim>20</dim>
				</port>
			</output>
		</layer>
		<layer id="260" name="Mul_183" type="Swish" version="opset4">
			<input>
				<port id="0" precision="FP16">
					<dim>1</dim>
					<dim>768</dim>
					<dim>20</dim>
					<dim>20</dim>
				</port>
			</input>
			<output>
				<port id="1" names="832" precision="FP16">
					<dim>1</dim>
					<dim>768</dim>
					<dim>20</dim>
					<dim>20</dim>
				</port>
			</output>
		</layer>
		<layer id="261" name="1249" type="Const" version="opset1">
			<data element_type="f16" offset="13469696" shape="384, 768, 1, 1" size="589824"/>
			<output>
				<port id="0" names="1249" precision="FP16">
					<dim>384</dim>
					<dim>768</dim>
					<dim>1</dim>
					<dim>1</dim>
				</port>
			</output>
		</layer>
		<layer id="262" name="Conv_184/WithoutBiases" type="Convolution" version="opset1">
			<data auto_pad="explicit" dilations="1, 1" pads_begin="0, 0" pads_end="0, 0" strides="1, 1"/>
			<input>
				<port id="0" precision="FP16">
					<dim>1</dim>
					<dim>768</dim>
					<dim>20</dim>
					<dim>20</dim>
				</port>
				<port id="1" precision="FP16">
					<dim>384</dim>
					<dim>768</dim>
					<dim>1</dim>
					<dim>1</dim>
				</port>
			</input>
			<output>
				<port id="2" precision="FP16">
					<dim>1</dim>
					<dim>384</dim>
					<dim>20</dim>
					<dim>20</dim>
				</port>
			</output>
		</layer>
		<layer id="263" name="Conv_184/Dims5082" type="Const" version="opset1">
			<data element_type="f16" offset="14059520" shape="1, 384, 1, 1" size="768"/>
			<output>
				<port id="0" precision="FP16">
					<dim>1</dim>
					<dim>384</dim>
					<dim>1</dim>
					<dim>1</dim>
				</port>
			</output>
		</layer>
		<layer id="264" name="Conv_184" type="Add" version="opset1">
			<data auto_broadcast="numpy"/>
			<input>
				<port id="0" precision="FP16">
					<dim>1</dim>
					<dim>384</dim>
					<dim>20</dim>
					<dim>20</dim>
				</port>
				<port id="1" precision="FP16">
					<dim>1</dim>
					<dim>384</dim>
					<dim>1</dim>
					<dim>1</dim>
				</port>
			</input>
			<output>
				<port id="2" names="1248" precision="FP16">
					<dim>1</dim>
					<dim>384</dim>
					<dim>20</dim>
					<dim>20</dim>
				</port>
			</output>
		</layer>
		<layer id="265" name="Mul_186" type="Swish" version="opset4">
			<input>
				<port id="0" precision="FP16">
					<dim>1</dim>
					<dim>384</dim>
					<dim>20</dim>
					<dim>20</dim>
				</port>
			</input>
			<output>
				<port id="1" names="836" precision="FP16">
					<dim>1</dim>
					<dim>384</dim>
					<dim>20</dim>
					<dim>20</dim>
				</port>
			</output>
		</layer>
		<layer id="266" name="MaxPool_187" type="MaxPool" version="opset1">
			<data auto_pad="explicit" kernel="5, 5" pads_begin="2, 2" pads_end="2, 2" rounding_type="floor" strides="1, 1"/>
			<input>
				<port id="0" precision="FP16">
					<dim>1</dim>
					<dim>384</dim>
					<dim>20</dim>
					<dim>20</dim>
				</port>
			</input>
			<output>
				<port id="1" names="837" precision="FP16">
					<dim>1</dim>
					<dim>384</dim>
					<dim>20</dim>
					<dim>20</dim>
				</port>
			</output>
		</layer>
		<layer id="267" name="MaxPool_188" type="MaxPool" version="opset1">
			<data auto_pad="explicit" kernel="9, 9" pads_begin="4, 4" pads_end="4, 4" rounding_type="floor" strides="1, 1"/>
			<input>
				<port id="0" precision="FP16">
					<dim>1</dim>
					<dim>384</dim>
					<dim>20</dim>
					<dim>20</dim>
				</port>
			</input>
			<output>
				<port id="1" names="838" precision="FP16">
					<dim>1</dim>
					<dim>384</dim>
					<dim>20</dim>
					<dim>20</dim>
				</port>
			</output>
		</layer>
		<layer id="268" name="MaxPool_189" type="MaxPool" version="opset1">
			<data auto_pad="explicit" kernel="13, 13" pads_begin="6, 6" pads_end="6, 6" rounding_type="floor" strides="1, 1"/>
			<input>
				<port id="0" precision="FP16">
					<dim>1</dim>
					<dim>384</dim>
					<dim>20</dim>
					<dim>20</dim>
				</port>
			</input>
			<output>
				<port id="1" names="839" precision="FP16">
					<dim>1</dim>
					<dim>384</dim>
					<dim>20</dim>
					<dim>20</dim>
				</port>
			</output>
		</layer>
		<layer id="269" name="Concat_190" type="Concat" version="opset1">
			<data axis="1"/>
			<input>
				<port id="0" precision="FP16">
					<dim>1</dim>
					<dim>384</dim>
					<dim>20</dim>
					<dim>20</dim>
				</port>
				<port id="1" precision="FP16">
					<dim>1</dim>
					<dim>384</dim>
					<dim>20</dim>
					<dim>20</dim>
				</port>
				<port id="2" precision="FP16">
					<dim>1</dim>
					<dim>384</dim>
					<dim>20</dim>
					<dim>20</dim>
				</port>
				<port id="3" precision="FP16">
					<dim>1</dim>
					<dim>384</dim>
					<dim>20</dim>
					<dim>20</dim>
				</port>
			</input>
			<output>
				<port id="4" names="840" precision="FP16">
					<dim>1</dim>
					<dim>1536</dim>
					<dim>20</dim>
					<dim>20</dim>
				</port>
			</output>
		</layer>
		<layer id="270" name="1252" type="Const" version="opset1">
			<data element_type="f16" offset="14060288" shape="768, 1536, 1, 1" size="2359296"/>
			<output>
				<port id="0" names="1252" precision="FP16">
					<dim>768</dim>
					<dim>1536</dim>
					<dim>1</dim>
					<dim>1</dim>
				</port>
			</output>
		</layer>
		<layer id="271" name="Conv_191/WithoutBiases" type="Convolution" version="opset1">
			<data auto_pad="explicit" dilations="1, 1" pads_begin="0, 0" pads_end="0, 0" strides="1, 1"/>
			<input>
				<port id="0" precision="FP16">
					<dim>1</dim>
					<dim>1536</dim>
					<dim>20</dim>
					<dim>20</dim>
				</port>
				<port id="1" precision="FP16">
					<dim>768</dim>
					<dim>1536</dim>
					<dim>1</dim>
					<dim>1</dim>
				</port>
			</input>
			<output>
				<port id="2" precision="FP16">
					<dim>1</dim>
					<dim>768</dim>
					<dim>20</dim>
					<dim>20</dim>
				</port>
			</output>
		</layer>
		<layer id="272" name="Conv_191/Dims5574" type="Const" version="opset1">
			<data element_type="f16" offset="16419584" shape="1, 768, 1, 1" size="1536"/>
			<output>
				<port id="0" precision="FP16">
					<dim>1</dim>
					<dim>768</dim>
					<dim>1</dim>
					<dim>1</dim>
				</port>
			</output>
		</layer>
		<layer id="273" name="Conv_191" type="Add" version="opset1">
			<data auto_broadcast="numpy"/>
			<input>
				<port id="0" precision="FP16">
					<dim>1</dim>
					<dim>768</dim>
					<dim>20</dim>
					<dim>20</dim>
				</port>
				<port id="1" precision="FP16">
					<dim>1</dim>
					<dim>768</dim>
					<dim>1</dim>
					<dim>1</dim>
				</port>
			</input>
			<output>
				<port id="2" names="1251" precision="FP16">
					<dim>1</dim>
					<dim>768</dim>
					<dim>20</dim>
					<dim>20</dim>
				</port>
			</output>
		</layer>
		<layer id="274" name="Mul_193" type="Swish" version="opset4">
			<input>
				<port id="0" precision="FP16">
					<dim>1</dim>
					<dim>768</dim>
					<dim>20</dim>
					<dim>20</dim>
				</port>
			</input>
			<output>
				<port id="1" names="844" precision="FP16">
					<dim>1</dim>
					<dim>768</dim>
					<dim>20</dim>
					<dim>20</dim>
				</port>
			</output>
		</layer>
		<layer id="275" name="1255" type="Const" version="opset1">
			<data element_type="f16" offset="16421120" shape="384, 768, 1, 1" size="589824"/>
			<output>
				<port id="0" names="1255" precision="FP16">
					<dim>384</dim>
					<dim>768</dim>
					<dim>1</dim>
					<dim>1</dim>
				</port>
			</output>
		</layer>
		<layer id="276" name="Conv_194/WithoutBiases" type="Convolution" version="opset1">
			<data auto_pad="explicit" dilations="1, 1" pads_begin="0, 0" pads_end="0, 0" strides="1, 1"/>
			<input>
				<port id="0" precision="FP16">
					<dim>1</dim>
					<dim>768</dim>
					<dim>20</dim>
					<dim>20</dim>
				</port>
				<port id="1" precision="FP16">
					<dim>384</dim>
					<dim>768</dim>
					<dim>1</dim>
					<dim>1</dim>
				</port>
			</input>
			<output>
				<port id="2" precision="FP16">
					<dim>1</dim>
					<dim>384</dim>
					<dim>20</dim>
					<dim>20</dim>
				</port>
			</output>
		</layer>
		<layer id="277" name="Conv_194/Dims5532" type="Const" version="opset1">
			<data element_type="f16" offset="17010944" shape="1, 384, 1, 1" size="768"/>
			<output>
				<port id="0" precision="FP16">
					<dim>1</dim>
					<dim>384</dim>
					<dim>1</dim>
					<dim>1</dim>
				</port>
			</output>
		</layer>
		<layer id="278" name="Conv_194" type="Add" version="opset1">
			<data auto_broadcast="numpy"/>
			<input>
				<port id="0" precision="FP16">
					<dim>1</dim>
					<dim>384</dim>
					<dim>20</dim>
					<dim>20</dim>
				</port>
				<port id="1" precision="FP16">
					<dim>1</dim>
					<dim>384</dim>
					<dim>1</dim>
					<dim>1</dim>
				</port>
			</input>
			<output>
				<port id="2" names="1254" precision="FP16">
					<dim>1</dim>
					<dim>384</dim>
					<dim>20</dim>
					<dim>20</dim>
				</port>
			</output>
		</layer>
		<layer id="279" name="Mul_196" type="Swish" version="opset4">
			<input>
				<port id="0" precision="FP16">
					<dim>1</dim>
					<dim>384</dim>
					<dim>20</dim>
					<dim>20</dim>
				</port>
			</input>
			<output>
				<port id="1" names="848" precision="FP16">
					<dim>1</dim>
					<dim>384</dim>
					<dim>20</dim>
					<dim>20</dim>
				</port>
			</output>
		</layer>
		<layer id="280" name="1261" type="Const" version="opset1">
			<data element_type="f16" offset="17011712" shape="384, 384, 1, 1" size="294912"/>
			<output>
				<port id="0" names="1261" precision="FP16">
					<dim>384</dim>
					<dim>384</dim>
					<dim>1</dim>
					<dim>1</dim>
				</port>
			</output>
		</layer>
		<layer id="281" name="Conv_200/WithoutBiases" type="Convolution" version="opset1">
			<data auto_pad="explicit" dilations="1, 1" pads_begin="0, 0" pads_end="0, 0" strides="1, 1"/>
			<input>
				<port id="0" precision="FP16">
					<dim>1</dim>
					<dim>384</dim>
					<dim>20</dim>
					<dim>20</dim>
				</port>
				<port id="1" precision="FP16">
					<dim>384</dim>
					<dim>384</dim>
					<dim>1</dim>
					<dim>1</dim>
				</port>
			</input>
			<output>
				<port id="2" precision="FP16">
					<dim>1</dim>
					<dim>384</dim>
					<dim>20</dim>
					<dim>20</dim>
				</port>
			</output>
		</layer>
		<layer id="282" name="Conv_200/Dims5094" type="Const" version="opset1">
			<data element_type="f16" offset="17306624" shape="1, 384, 1, 1" size="768"/>
			<output>
				<port id="0" precision="FP16">
					<dim>1</dim>
					<dim>384</dim>
					<dim>1</dim>
					<dim>1</dim>
				</port>
			</output>
		</layer>
		<layer id="283" name="Conv_200" type="Add" version="opset1">
			<data auto_broadcast="numpy"/>
			<input>
				<port id="0" precision="FP16">
					<dim>1</dim>
					<dim>384</dim>
					<dim>20</dim>
					<dim>20</dim>
				</port>
				<port id="1" precision="FP16">
					<dim>1</dim>
					<dim>384</dim>
					<dim>1</dim>
					<dim>1</dim>
				</port>
			</input>
			<output>
				<port id="2" names="1260" precision="FP16">
					<dim>1</dim>
					<dim>384</dim>
					<dim>20</dim>
					<dim>20</dim>
				</port>
			</output>
		</layer>
		<layer id="284" name="Mul_202" type="Swish" version="opset4">
			<input>
				<port id="0" precision="FP16">
					<dim>1</dim>
					<dim>384</dim>
					<dim>20</dim>
					<dim>20</dim>
				</port>
			</input>
			<output>
				<port id="1" names="856" precision="FP16">
					<dim>1</dim>
					<dim>384</dim>
					<dim>20</dim>
					<dim>20</dim>
				</port>
			</output>
		</layer>
		<layer id="285" name="1264" type="Const" version="opset1">
			<data element_type="f16" offset="17307392" shape="384, 384, 3, 3" size="2654208"/>
			<output>
				<port id="0" names="1264" precision="FP16">
					<dim>384</dim>
					<dim>384</dim>
					<dim>3</dim>
					<dim>3</dim>
				</port>
			</output>
		</layer>
		<layer id="286" name="Conv_203/WithoutBiases" type="Convolution" version="opset1">
			<data auto_pad="explicit" dilations="1, 1" pads_begin="1, 1" pads_end="1, 1" strides="1, 1"/>
			<input>
				<port id="0" precision="FP16">
					<dim>1</dim>
					<dim>384</dim>
					<dim>20</dim>
					<dim>20</dim>
				</port>
				<port id="1" precision="FP16">
					<dim>384</dim>
					<dim>384</dim>
					<dim>3</dim>
					<dim>3</dim>
				</port>
			</input>
			<output>
				<port id="2" precision="FP16">
					<dim>1</dim>
					<dim>384</dim>
					<dim>20</dim>
					<dim>20</dim>
				</port>
			</output>
		</layer>
		<layer id="287" name="Conv_203/Dims5154" type="Const" version="opset1">
			<data element_type="f16" offset="19961600" shape="1, 384, 1, 1" size="768"/>
			<output>
				<port id="0" precision="FP16">
					<dim>1</dim>
					<dim>384</dim>
					<dim>1</dim>
					<dim>1</dim>
				</port>
			</output>
		</layer>
		<layer id="288" name="Conv_203" type="Add" version="opset1">
			<data auto_broadcast="numpy"/>
			<input>
				<port id="0" precision="FP16">
					<dim>1</dim>
					<dim>384</dim>
					<dim>20</dim>
					<dim>20</dim>
				</port>
				<port id="1" precision="FP16">
					<dim>1</dim>
					<dim>384</dim>
					<dim>1</dim>
					<dim>1</dim>
				</port>
			</input>
			<output>
				<port id="2" names="1263" precision="FP16">
					<dim>1</dim>
					<dim>384</dim>
					<dim>20</dim>
					<dim>20</dim>
				</port>
			</output>
		</layer>
		<layer id="289" name="Mul_205" type="Swish" version="opset4">
			<input>
				<port id="0" precision="FP16">
					<dim>1</dim>
					<dim>384</dim>
					<dim>20</dim>
					<dim>20</dim>
				</port>
			</input>
			<output>
				<port id="1" names="860" precision="FP16">
					<dim>1</dim>
					<dim>384</dim>
					<dim>20</dim>
					<dim>20</dim>
				</port>
			</output>
		</layer>
		<layer id="290" name="1267" type="Const" version="opset1">
			<data element_type="f16" offset="19962368" shape="384, 384, 1, 1" size="294912"/>
			<output>
				<port id="0" names="1267" precision="FP16">
					<dim>384</dim>
					<dim>384</dim>
					<dim>1</dim>
					<dim>1</dim>
				</port>
			</output>
		</layer>
		<layer id="291" name="Conv_206/WithoutBiases" type="Convolution" version="opset1">
			<data auto_pad="explicit" dilations="1, 1" pads_begin="0, 0" pads_end="0, 0" strides="1, 1"/>
			<input>
				<port id="0" precision="FP16">
					<dim>1</dim>
					<dim>384</dim>
					<dim>20</dim>
					<dim>20</dim>
				</port>
				<port id="1" precision="FP16">
					<dim>384</dim>
					<dim>384</dim>
					<dim>1</dim>
					<dim>1</dim>
				</port>
			</input>
			<output>
				<port id="2" precision="FP16">
					<dim>1</dim>
					<dim>384</dim>
					<dim>20</dim>
					<dim>20</dim>
				</port>
			</output>
		</layer>
		<layer id="292" name="Conv_206/Dims5364" type="Const" version="opset1">
			<data element_type="f16" offset="20257280" shape="1, 384, 1, 1" size="768"/>
			<output>
				<port id="0" precision="FP16">
					<dim>1</dim>
					<dim>384</dim>
					<dim>1</dim>
					<dim>1</dim>
				</port>
			</output>
		</layer>
		<layer id="293" name="Conv_206" type="Add" version="opset1">
			<data auto_broadcast="numpy"/>
			<input>
				<port id="0" precision="FP16">
					<dim>1</dim>
					<dim>384</dim>
					<dim>20</dim>
					<dim>20</dim>
				</port>
				<port id="1" precision="FP16">
					<dim>1</dim>
					<dim>384</dim>
					<dim>1</dim>
					<dim>1</dim>
				</port>
			</input>
			<output>
				<port id="2" names="1266" precision="FP16">
					<dim>1</dim>
					<dim>384</dim>
					<dim>20</dim>
					<dim>20</dim>
				</port>
			</output>
		</layer>
		<layer id="294" name="Mul_208" type="Swish" version="opset4">
			<input>
				<port id="0" precision="FP16">
					<dim>1</dim>
					<dim>384</dim>
					<dim>20</dim>
					<dim>20</dim>
				</port>
			</input>
			<output>
				<port id="1" names="864" precision="FP16">
					<dim>1</dim>
					<dim>384</dim>
					<dim>20</dim>
					<dim>20</dim>
				</port>
			</output>
		</layer>
		<layer id="295" name="1270" type="Const" version="opset1">
			<data element_type="f16" offset="20258048" shape="384, 384, 3, 3" size="2654208"/>
			<output>
				<port id="0" names="1270" precision="FP16">
					<dim>384</dim>
					<dim>384</dim>
					<dim>3</dim>
					<dim>3</dim>
				</port>
			</output>
		</layer>
		<layer id="296" name="Conv_209/WithoutBiases" type="Convolution" version="opset1">
			<data auto_pad="explicit" dilations="1, 1" pads_begin="1, 1" pads_end="1, 1" strides="1, 1"/>
			<input>
				<port id="0" precision="FP16">
					<dim>1</dim>
					<dim>384</dim>
					<dim>20</dim>
					<dim>20</dim>
				</port>
				<port id="1" precision="FP16">
					<dim>384</dim>
					<dim>384</dim>
					<dim>3</dim>
					<dim>3</dim>
				</port>
			</input>
			<output>
				<port id="2" precision="FP16">
					<dim>1</dim>
					<dim>384</dim>
					<dim>20</dim>
					<dim>20</dim>
				</port>
			</output>
		</layer>
		<layer id="297" name="Conv_209/Dims5208" type="Const" version="opset1">
			<data element_type="f16" offset="22912256" shape="1, 384, 1, 1" size="768"/>
			<output>
				<port id="0" precision="FP16">
					<dim>1</dim>
					<dim>384</dim>
					<dim>1</dim>
					<dim>1</dim>
				</port>
			</output>
		</layer>
		<layer id="298" name="Conv_209" type="Add" version="opset1">
			<data auto_broadcast="numpy"/>
			<input>
				<port id="0" precision="FP16">
					<dim>1</dim>
					<dim>384</dim>
					<dim>20</dim>
					<dim>20</dim>
				</port>
				<port id="1" precision="FP16">
					<dim>1</dim>
					<dim>384</dim>
					<dim>1</dim>
					<dim>1</dim>
				</port>
			</input>
			<output>
				<port id="2" names="1269" precision="FP16">
					<dim>1</dim>
					<dim>384</dim>
					<dim>20</dim>
					<dim>20</dim>
				</port>
			</output>
		</layer>
		<layer id="299" name="Mul_211" type="Swish" version="opset4">
			<input>
				<port id="0" precision="FP16">
					<dim>1</dim>
					<dim>384</dim>
					<dim>20</dim>
					<dim>20</dim>
				</port>
			</input>
			<output>
				<port id="1" names="868" precision="FP16">
					<dim>1</dim>
					<dim>384</dim>
					<dim>20</dim>
					<dim>20</dim>
				</port>
			</output>
		</layer>
		<layer id="300" name="1258" type="Const" version="opset1">
			<data element_type="f16" offset="22913024" shape="384, 768, 1, 1" size="589824"/>
			<output>
				<port id="0" names="1258" precision="FP16">
					<dim>384</dim>
					<dim>768</dim>
					<dim>1</dim>
					<dim>1</dim>
				</port>
			</output>
		</layer>
		<layer id="301" name="Conv_197/WithoutBiases" type="Convolution" version="opset1">
			<data auto_pad="explicit" dilations="1, 1" pads_begin="0, 0" pads_end="0, 0" strides="1, 1"/>
			<input>
				<port id="0" precision="FP16">
					<dim>1</dim>
					<dim>768</dim>
					<dim>20</dim>
					<dim>20</dim>
				</port>
				<port id="1" precision="FP16">
					<dim>384</dim>
					<dim>768</dim>
					<dim>1</dim>
					<dim>1</dim>
				</port>
			</input>
			<output>
				<port id="2" precision="FP16">
					<dim>1</dim>
					<dim>384</dim>
					<dim>20</dim>
					<dim>20</dim>
				</port>
			</output>
		</layer>
		<layer id="302" name="Conv_197/Dims5250" type="Const" version="opset1">
			<data element_type="f16" offset="23502848" shape="1, 384, 1, 1" size="768"/>
			<output>
				<port id="0" precision="FP16">
					<dim>1</dim>
					<dim>384</dim>
					<dim>1</dim>
					<dim>1</dim>
				</port>
			</output>
		</layer>
		<layer id="303" name="Conv_197" type="Add" version="opset1">
			<data auto_broadcast="numpy"/>
			<input>
				<port id="0" precision="FP16">
					<dim>1</dim>
					<dim>384</dim>
					<dim>20</dim>
					<dim>20</dim>
				</port>
				<port id="1" precision="FP16">
					<dim>1</dim>
					<dim>384</dim>
					<dim>1</dim>
					<dim>1</dim>
				</port>
			</input>
			<output>
				<port id="2" names="1257" precision="FP16">
					<dim>1</dim>
					<dim>384</dim>
					<dim>20</dim>
					<dim>20</dim>
				</port>
			</output>
		</layer>
		<layer id="304" name="Mul_199" type="Swish" version="opset4">
			<input>
				<port id="0" precision="FP16">
					<dim>1</dim>
					<dim>384</dim>
					<dim>20</dim>
					<dim>20</dim>
				</port>
			</input>
			<output>
				<port id="1" names="852" precision="FP16">
					<dim>1</dim>
					<dim>384</dim>
					<dim>20</dim>
					<dim>20</dim>
				</port>
			</output>
		</layer>
		<layer id="305" name="Concat_212" type="Concat" version="opset1">
			<data axis="1"/>
			<input>
				<port id="0" precision="FP16">
					<dim>1</dim>
					<dim>384</dim>
					<dim>20</dim>
					<dim>20</dim>
				</port>
				<port id="1" precision="FP16">
					<dim>1</dim>
					<dim>384</dim>
					<dim>20</dim>
					<dim>20</dim>
				</port>
			</input>
			<output>
				<port id="2" names="869" precision="FP16">
					<dim>1</dim>
					<dim>768</dim>
					<dim>20</dim>
					<dim>20</dim>
				</port>
			</output>
		</layer>
		<layer id="306" name="1273" type="Const" version="opset1">
			<data element_type="f16" offset="23503616" shape="768, 768, 1, 1" size="1179648"/>
			<output>
				<port id="0" names="1273" precision="FP16">
					<dim>768</dim>
					<dim>768</dim>
					<dim>1</dim>
					<dim>1</dim>
				</port>
			</output>
		</layer>
		<layer id="307" name="Conv_213/WithoutBiases" type="Convolution" version="opset1">
			<data auto_pad="explicit" dilations="1, 1" pads_begin="0, 0" pads_end="0, 0" strides="1, 1"/>
			<input>
				<port id="0" precision="FP16">
					<dim>1</dim>
					<dim>768</dim>
					<dim>20</dim>
					<dim>20</dim>
				</port>
				<port id="1" precision="FP16">
					<dim>768</dim>
					<dim>768</dim>
					<dim>1</dim>
					<dim>1</dim>
				</port>
			</input>
			<output>
				<port id="2" precision="FP16">
					<dim>1</dim>
					<dim>768</dim>
					<dim>20</dim>
					<dim>20</dim>
				</port>
			</output>
		</layer>
		<layer id="308" name="Conv_213/Dims5232" type="Const" version="opset1">
			<data element_type="f16" offset="24683264" shape="1, 768, 1, 1" size="1536"/>
			<output>
				<port id="0" precision="FP16">
					<dim>1</dim>
					<dim>768</dim>
					<dim>1</dim>
					<dim>1</dim>
				</port>
			</output>
		</layer>
		<layer id="309" name="Conv_213" type="Add" version="opset1">
			<data auto_broadcast="numpy"/>
			<input>
				<port id="0" precision="FP16">
					<dim>1</dim>
					<dim>768</dim>
					<dim>20</dim>
					<dim>20</dim>
				</port>
				<port id="1" precision="FP16">
					<dim>1</dim>
					<dim>768</dim>
					<dim>1</dim>
					<dim>1</dim>
				</port>
			</input>
			<output>
				<port id="2" names="1272" precision="FP16">
					<dim>1</dim>
					<dim>768</dim>
					<dim>20</dim>
					<dim>20</dim>
				</port>
			</output>
		</layer>
		<layer id="310" name="Mul_215" type="Swish" version="opset4">
			<input>
				<port id="0" precision="FP16">
					<dim>1</dim>
					<dim>768</dim>
					<dim>20</dim>
					<dim>20</dim>
				</port>
			</input>
			<output>
				<port id="1" names="873" precision="FP16">
					<dim>1</dim>
					<dim>768</dim>
					<dim>20</dim>
					<dim>20</dim>
				</port>
			</output>
		</layer>
		<layer id="311" name="1276" type="Const" version="opset1">
			<data element_type="f16" offset="24684800" shape="384, 768, 1, 1" size="589824"/>
			<output>
				<port id="0" names="1276" precision="FP16">
					<dim>384</dim>
					<dim>768</dim>
					<dim>1</dim>
					<dim>1</dim>
				</port>
			</output>
		</layer>
		<layer id="312" name="Conv_216/WithoutBiases" type="Convolution" version="opset1">
			<data auto_pad="explicit" dilations="1, 1" pads_begin="0, 0" pads_end="0, 0" strides="1, 1"/>
			<input>
				<port id="0" precision="FP16">
					<dim>1</dim>
					<dim>768</dim>
					<dim>20</dim>
					<dim>20</dim>
				</port>
				<port id="1" precision="FP16">
					<dim>384</dim>
					<dim>768</dim>
					<dim>1</dim>
					<dim>1</dim>
				</port>
			</input>
			<output>
				<port id="2" precision="FP16">
					<dim>1</dim>
					<dim>384</dim>
					<dim>20</dim>
					<dim>20</dim>
				</port>
			</output>
		</layer>
		<layer id="313" name="Conv_216/Dims5088" type="Const" version="opset1">
			<data element_type="f16" offset="25274624" shape="1, 384, 1, 1" size="768"/>
			<output>
				<port id="0" precision="FP16">
					<dim>1</dim>
					<dim>384</dim>
					<dim>1</dim>
					<dim>1</dim>
				</port>
			</output>
		</layer>
		<layer id="314" name="Conv_216" type="Add" version="opset1">
			<data auto_broadcast="numpy"/>
			<input>
				<port id="0" precision="FP16">
					<dim>1</dim>
					<dim>384</dim>
					<dim>20</dim>
					<dim>20</dim>
				</port>
				<port id="1" precision="FP16">
					<dim>1</dim>
					<dim>384</dim>
					<dim>1</dim>
					<dim>1</dim>
				</port>
			</input>
			<output>
				<port id="2" names="1275" precision="FP16">
					<dim>1</dim>
					<dim>384</dim>
					<dim>20</dim>
					<dim>20</dim>
				</port>
			</output>
		</layer>
		<layer id="315" name="Mul_218" type="Swish" version="opset4">
			<input>
				<port id="0" precision="FP16">
					<dim>1</dim>
					<dim>384</dim>
					<dim>20</dim>
					<dim>20</dim>
				</port>
			</input>
			<output>
				<port id="1" names="877" precision="FP16">
					<dim>1</dim>
					<dim>384</dim>
					<dim>20</dim>
					<dim>20</dim>
				</port>
			</output>
		</layer>
		<layer id="316" name="Resize_219/ShapeOf" type="ShapeOf" version="opset3">
			<data output_type="i64"/>
			<input>
				<port id="0" precision="FP16">
					<dim>1</dim>
					<dim>384</dim>
					<dim>20</dim>
					<dim>20</dim>
				</port>
			</input>
			<output>
				<port id="1" precision="I64">
					<dim>4</dim>
				</port>
			</output>
		</layer>
		<layer id="317" name="705" type="Convert" version="opset1">
			<data destination_type="f32"/>
			<input>
				<port id="0" precision="I64">
					<dim>4</dim>
				</port>
			</input>
			<output>
				<port id="1" precision="FP32">
					<dim>4</dim>
				</port>
			</output>
		</layer>
		<layer id="318" name="Resize_219/Add" type="Const" version="opset1">
			<data element_type="f32" offset="25275392" shape="4" size="16"/>
			<output>
				<port id="0" precision="FP32">
					<dim>4</dim>
				</port>
			</output>
		</layer>
		<layer id="319" name="Resize_219/Mul" type="Multiply" version="opset1">
			<data auto_broadcast="numpy"/>
			<input>
				<port id="0" precision="FP32">
					<dim>4</dim>
				</port>
				<port id="1" precision="FP32">
					<dim>4</dim>
				</port>
			</input>
			<output>
				<port id="2" precision="FP32">
					<dim>4</dim>
				</port>
			</output>
		</layer>
		<layer id="320" name="Resize_219/Floor" type="Floor" version="opset1">
			<input>
				<port id="0" precision="FP32">
					<dim>4</dim>
				</port>
			</input>
			<output>
				<port id="1" precision="FP32">
					<dim>4</dim>
				</port>
			</output>
		</layer>
		<layer id="321" name="708" type="Convert" version="opset1">
			<data destination_type="i64"/>
			<input>
				<port id="0" precision="FP32">
					<dim>4</dim>
				</port>
			</input>
			<output>
				<port id="1" precision="I64">
					<dim>4</dim>
				</port>
			</output>
		</layer>
		<layer id="322" name="Resize_219/sizes_ss_input_port_1/value" type="Const" version="opset1">
			<data element_type="i64" offset="25275408" shape="1" size="8"/>
			<output>
				<port id="0" precision="I64">
					<dim>1</dim>
				</port>
			</output>
		</layer>
		<layer id="323" name="Resize_219/sizes_ss_input_port_2/value" type="Const" version="opset1">
			<data element_type="i64" offset="25275416" shape="1" size="8"/>
			<output>
				<port id="0" precision="I64">
					<dim>1</dim>
				</port>
			</output>
		</layer>
		<layer id="324" name="Resize_219/sizes_ss_input_port_3/value" type="Const" version="opset1">
			<data element_type="i64" offset="25275424" shape="1" size="8"/>
			<output>
				<port id="0" precision="I64">
					<dim>1</dim>
				</port>
			</output>
		</layer>
		<layer id="325" name="Resize_219/sizes_ss" type="StridedSlice" version="opset1">
			<data begin_mask="0" ellipsis_mask="0" end_mask="1" new_axis_mask="0" shrink_axis_mask="0"/>
			<input>
				<port id="0" precision="I64">
					<dim>4</dim>
				</port>
				<port id="1" precision="I64">
					<dim>1</dim>
				</port>
				<port id="2" precision="I64">
					<dim>1</dim>
				</port>
				<port id="3" precision="I64">
					<dim>1</dim>
				</port>
			</input>
			<output>
				<port id="4" precision="I64">
					<dim>2</dim>
				</port>
			</output>
		</layer>
		<layer id="326" name="Resize_219/scales_ss" type="Const" version="opset1">
			<data element_type="f32" offset="25275432" shape="2" size="8"/>
			<output>
				<port id="0" precision="FP32">
					<dim>2</dim>
				</port>
			</output>
		</layer>
		<layer id="327" name="Resize_219/axes_input_port_0/value" type="Const" version="opset1">
			<data element_type="i64" offset="25275408" shape="" size="8"/>
			<output>
				<port id="0" precision="I64"/>
			</output>
		</layer>
		<layer id="328" name="Resize_219/max_axes/shape_of" type="ShapeOf" version="opset3">
			<data output_type="i64"/>
			<input>
				<port id="0" precision="FP16">
					<dim>1</dim>
					<dim>384</dim>
					<dim>20</dim>
					<dim>20</dim>
				</port>
			</input>
			<output>
				<port id="1" precision="I64">
					<dim>4</dim>
				</port>
			</output>
		</layer>
		<layer id="329" name="Resize_219/max_axes/rank_of" type="ShapeOf" version="opset3">
			<data output_type="i64"/>
			<input>
				<port id="0" precision="I64">
					<dim>4</dim>
				</port>
			</input>
			<output>
				<port id="1" precision="I64">
					<dim>1</dim>
				</port>
			</output>
		</layer>
		<layer id="330" name="Resize_219/max_axes/0d_rank_of/value" type="Const" version="opset1">
			<data element_type="i64" offset="25275416" shape="1" size="8"/>
			<output>
				<port id="0" precision="I64">
					<dim>1</dim>
				</port>
			</output>
		</layer>
		<layer id="331" name="Resize_219/max_axes" type="Squeeze" version="opset1">
			<input>
				<port id="0" precision="I64">
					<dim>1</dim>
				</port>
				<port id="1" precision="I64">
					<dim>1</dim>
				</port>
			</input>
			<output>
				<port id="2" precision="I64"/>
			</output>
		</layer>
		<layer id="332" name="Resize_219/axes_input_port_2/value" type="Const" version="opset1">
			<data element_type="i64" offset="25275424" shape="" size="8"/>
			<output>
				<port id="0" precision="I64"/>
			</output>
		</layer>
		<layer id="333" name="Resize_219/axes" type="Range" version="opset4">
			<data output_type="i64"/>
			<input>
				<port id="0" precision="I64"/>
				<port id="1" precision="I64"/>
				<port id="2" precision="I64"/>
			</input>
			<output>
				<port id="3" precision="I64">
					<dim>2</dim>
				</port>
			</output>
		</layer>
		<layer id="334" name="Resize_219" type="Interpolate" version="opset4">
			<data antialias="false" coordinate_transformation_mode="asymmetric" cube_coeff="-0.75" mode="nearest" nearest_mode="simple" pads_begin="0, 0, 0, 0" pads_end="0, 0, 0, 0" shape_calculation_mode="scales"/>
			<input>
				<port id="0" precision="FP16">
					<dim>1</dim>
					<dim>384</dim>
					<dim>20</dim>
					<dim>20</dim>
				</port>
				<port id="1" precision="I64">
					<dim>2</dim>
				</port>
				<port id="2" precision="FP32">
					<dim>2</dim>
				</port>
				<port id="3" precision="I64">
					<dim>2</dim>
				</port>
			</input>
			<output>
				<port id="4" names="881" precision="FP16">
					<dim>1</dim>
					<dim>384</dim>
					<dim>40</dim>
					<dim>40</dim>
				</port>
			</output>
		</layer>
		<layer id="335" name="Concat_220" type="Concat" version="opset1">
			<data axis="1"/>
			<input>
				<port id="0" precision="FP16">
					<dim>1</dim>
					<dim>384</dim>
					<dim>40</dim>
					<dim>40</dim>
				</port>
				<port id="1" precision="FP16">
					<dim>1</dim>
					<dim>384</dim>
					<dim>40</dim>
					<dim>40</dim>
				</port>
			</input>
			<output>
				<port id="2" names="882" precision="FP16">
					<dim>1</dim>
					<dim>768</dim>
					<dim>40</dim>
					<dim>40</dim>
				</port>
			</output>
		</layer>
		<layer id="336" name="1279" type="Const" version="opset1">
			<data element_type="f16" offset="25275440" shape="192, 768, 1, 1" size="294912"/>
			<output>
				<port id="0" names="1279" precision="FP16">
					<dim>192</dim>
					<dim>768</dim>
					<dim>1</dim>
					<dim>1</dim>
				</port>
			</output>
		</layer>
		<layer id="337" name="Conv_221/WithoutBiases" type="Convolution" version="opset1">
			<data auto_pad="explicit" dilations="1, 1" pads_begin="0, 0" pads_end="0, 0" strides="1, 1"/>
			<input>
				<port id="0" precision="FP16">
					<dim>1</dim>
					<dim>768</dim>
					<dim>40</dim>
					<dim>40</dim>
				</port>
				<port id="1" precision="FP16">
					<dim>192</dim>
					<dim>768</dim>
					<dim>1</dim>
					<dim>1</dim>
				</port>
			</input>
			<output>
				<port id="2" precision="FP16">
					<dim>1</dim>
					<dim>192</dim>
					<dim>40</dim>
					<dim>40</dim>
				</port>
			</output>
		</layer>
		<layer id="338" name="Conv_221/Dims5400" type="Const" version="opset1">
			<data element_type="f16" offset="25570352" shape="1, 192, 1, 1" size="384"/>
			<output>
				<port id="0" precision="FP16">
					<dim>1</dim>
					<dim>192</dim>
					<dim>1</dim>
					<dim>1</dim>
				</port>
			</output>
		</layer>
		<layer id="339" name="Conv_221" type="Add" version="opset1">
			<data auto_broadcast="numpy"/>
			<input>
				<port id="0" precision="FP16">
					<dim>1</dim>
					<dim>192</dim>
					<dim>40</dim>
					<dim>40</dim>
				</port>
				<port id="1" precision="FP16">
					<dim>1</dim>
					<dim>192</dim>
					<dim>1</dim>
					<dim>1</dim>
				</port>
			</input>
			<output>
				<port id="2" names="1278" precision="FP16">
					<dim>1</dim>
					<dim>192</dim>
					<dim>40</dim>
					<dim>40</dim>
				</port>
			</output>
		</layer>
		<layer id="340" name="Mul_223" type="Swish" version="opset4">
			<input>
				<port id="0" precision="FP16">
					<dim>1</dim>
					<dim>192</dim>
					<dim>40</dim>
					<dim>40</dim>
				</port>
			</input>
			<output>
				<port id="1" names="886" precision="FP16">
					<dim>1</dim>
					<dim>192</dim>
					<dim>40</dim>
					<dim>40</dim>
				</port>
			</output>
		</layer>
		<layer id="341" name="1285" type="Const" version="opset1">
			<data element_type="f16" offset="25570736" shape="192, 192, 1, 1" size="73728"/>
			<output>
				<port id="0" names="1285" precision="FP16">
					<dim>192</dim>
					<dim>192</dim>
					<dim>1</dim>
					<dim>1</dim>
				</port>
			</output>
		</layer>
		<layer id="342" name="Conv_227/WithoutBiases" type="Convolution" version="opset1">
			<data auto_pad="explicit" dilations="1, 1" pads_begin="0, 0" pads_end="0, 0" strides="1, 1"/>
			<input>
				<port id="0" precision="FP16">
					<dim>1</dim>
					<dim>192</dim>
					<dim>40</dim>
					<dim>40</dim>
				</port>
				<port id="1" precision="FP16">
					<dim>192</dim>
					<dim>192</dim>
					<dim>1</dim>
					<dim>1</dim>
				</port>
			</input>
			<output>
				<port id="2" precision="FP16">
					<dim>1</dim>
					<dim>192</dim>
					<dim>40</dim>
					<dim>40</dim>
				</port>
			</output>
		</layer>
		<layer id="343" name="Conv_227/Dims5376" type="Const" version="opset1">
			<data element_type="f16" offset="25644464" shape="1, 192, 1, 1" size="384"/>
			<output>
				<port id="0" precision="FP16">
					<dim>1</dim>
					<dim>192</dim>
					<dim>1</dim>
					<dim>1</dim>
				</port>
			</output>
		</layer>
		<layer id="344" name="Conv_227" type="Add" version="opset1">
			<data auto_broadcast="numpy"/>
			<input>
				<port id="0" precision="FP16">
					<dim>1</dim>
					<dim>192</dim>
					<dim>40</dim>
					<dim>40</dim>
				</port>
				<port id="1" precision="FP16">
					<dim>1</dim>
					<dim>192</dim>
					<dim>1</dim>
					<dim>1</dim>
				</port>
			</input>
			<output>
				<port id="2" names="1284" precision="FP16">
					<dim>1</dim>
					<dim>192</dim>
					<dim>40</dim>
					<dim>40</dim>
				</port>
			</output>
		</layer>
		<layer id="345" name="Mul_229" type="Swish" version="opset4">
			<input>
				<port id="0" precision="FP16">
					<dim>1</dim>
					<dim>192</dim>
					<dim>40</dim>
					<dim>40</dim>
				</port>
			</input>
			<output>
				<port id="1" names="894" precision="FP16">
					<dim>1</dim>
					<dim>192</dim>
					<dim>40</dim>
					<dim>40</dim>
				</port>
			</output>
		</layer>
		<layer id="346" name="1288" type="Const" version="opset1">
			<data element_type="f16" offset="25644848" shape="192, 192, 3, 3" size="663552"/>
			<output>
				<port id="0" names="1288" precision="FP16">
					<dim>192</dim>
					<dim>192</dim>
					<dim>3</dim>
					<dim>3</dim>
				</port>
			</output>
		</layer>
		<layer id="347" name="Conv_230/WithoutBiases" type="Convolution" version="opset1">
			<data auto_pad="explicit" dilations="1, 1" pads_begin="1, 1" pads_end="1, 1" strides="1, 1"/>
			<input>
				<port id="0" precision="FP16">
					<dim>1</dim>
					<dim>192</dim>
					<dim>40</dim>
					<dim>40</dim>
				</port>
				<port id="1" precision="FP16">
					<dim>192</dim>
					<dim>192</dim>
					<dim>3</dim>
					<dim>3</dim>
				</port>
			</input>
			<output>
				<port id="2" precision="FP16">
					<dim>1</dim>
					<dim>192</dim>
					<dim>40</dim>
					<dim>40</dim>
				</port>
			</output>
		</layer>
		<layer id="348" name="Conv_230/Dims5310" type="Const" version="opset1">
			<data element_type="f16" offset="26308400" shape="1, 192, 1, 1" size="384"/>
			<output>
				<port id="0" precision="FP16">
					<dim>1</dim>
					<dim>192</dim>
					<dim>1</dim>
					<dim>1</dim>
				</port>
			</output>
		</layer>
		<layer id="349" name="Conv_230" type="Add" version="opset1">
			<data auto_broadcast="numpy"/>
			<input>
				<port id="0" precision="FP16">
					<dim>1</dim>
					<dim>192</dim>
					<dim>40</dim>
					<dim>40</dim>
				</port>
				<port id="1" precision="FP16">
					<dim>1</dim>
					<dim>192</dim>
					<dim>1</dim>
					<dim>1</dim>
				</port>
			</input>
			<output>
				<port id="2" names="1287" precision="FP16">
					<dim>1</dim>
					<dim>192</dim>
					<dim>40</dim>
					<dim>40</dim>
				</port>
			</output>
		</layer>
		<layer id="350" name="Mul_232" type="Swish" version="opset4">
			<input>
				<port id="0" precision="FP16">
					<dim>1</dim>
					<dim>192</dim>
					<dim>40</dim>
					<dim>40</dim>
				</port>
			</input>
			<output>
				<port id="1" names="898" precision="FP16">
					<dim>1</dim>
					<dim>192</dim>
					<dim>40</dim>
					<dim>40</dim>
				</port>
			</output>
		</layer>
		<layer id="351" name="1291" type="Const" version="opset1">
			<data element_type="f16" offset="26308784" shape="192, 192, 1, 1" size="73728"/>
			<output>
				<port id="0" names="1291" precision="FP16">
					<dim>192</dim>
					<dim>192</dim>
					<dim>1</dim>
					<dim>1</dim>
				</port>
			</output>
		</layer>
		<layer id="352" name="Conv_233/WithoutBiases" type="Convolution" version="opset1">
			<data auto_pad="explicit" dilations="1, 1" pads_begin="0, 0" pads_end="0, 0" strides="1, 1"/>
			<input>
				<port id="0" precision="FP16">
					<dim>1</dim>
					<dim>192</dim>
					<dim>40</dim>
…
					<dim>85</dim>
					<dim>6400</dim>
				</port>
				<port id="1" precision="FP16">
					<dim>1</dim>
					<dim>85</dim>
					<dim>1600</dim>
				</port>
				<port id="2" precision="FP16">
					<dim>1</dim>
					<dim>85</dim>
					<dim>400</dim>
				</port>
			</input>
			<output>
				<port id="3" names="1120" precision="FP16">
					<dim>1</dim>
					<dim>85</dim>
					<dim>8400</dim>
				</port>
			</output>
		</layer>
		<layer id="644" name="585" type="Const" version="opset1">
			<data element_type="i64" offset="50609990" shape="3" size="24"/>
			<output>
				<port id="0" precision="I64">
					<dim>3</dim>
				</port>
			</output>
		</layer>
		<layer id="645" name="outputs" type="Transpose" version="opset1">
			<input>
				<port id="0" precision="FP16">
					<dim>1</dim>
					<dim>85</dim>
					<dim>8400</dim>
				</port>
				<port id="1" precision="I64">
					<dim>3</dim>
				</port>
			</input>
			<output>
				<port id="2" names="outputs" precision="FP16">
					<dim>1</dim>
					<dim>8400</dim>
					<dim>85</dim>
				</port>
			</output>
		</layer>
		<layer id="646" name="outputs/sink_port_0" type="Result" version="opset1">
			<input>
				<port id="0" precision="FP16">
					<dim>1</dim>
					<dim>8400</dim>
					<dim>85</dim>
				</port>
			</input>
		</layer>
	</layers>
	<edges>
		<edge from-layer="0" from-port="0" to-layer="4" to-port="0"/>
		<edge from-layer="0" from-port="0" to-layer="12" to-port="0"/>
		<edge from-layer="0" from-port="0" to-layer="20" to-port="0"/>
		<edge from-layer="0" from-port="0" to-layer="28" to-port="0"/>
		<edge from-layer="1" from-port="0" to-layer="4" to-port="1"/>
		<edge from-layer="2" from-port="0" to-layer="4" to-port="2"/>
		<edge from-layer="3" from-port="0" to-layer="4" to-port="3"/>
		<edge from-layer="4" from-port="4" to-layer="8" to-port="0"/>
		<edge from-layer="5" from-port="0" to-layer="8" to-port="1"/>
		<edge from-layer="6" from-port="0" to-layer="8" to-port="2"/>
		<edge from-layer="7" from-port="0" to-layer="8" to-port="3"/>
		<edge from-layer="8" from-port="4" to-layer="33" to-port="0"/>
		<edge from-layer="9" from-port="0" to-layer="12" to-port="1"/>
		<edge from-layer="10" from-port="0" to-layer="12" to-port="2"/>
		<edge from-layer="11" from-port="0" to-layer="12" to-port="3"/>
		<edge from-layer="12" from-port="4" to-layer="16" to-port="0"/>
		<edge from-layer="13" from-port="0" to-layer="16" to-port="1"/>
		<edge from-layer="14" from-port="0" to-layer="16" to-port="2"/>
		<edge from-layer="15" from-port="0" to-layer="16" to-port="3"/>
		<edge from-layer="16" from-port="4" to-layer="33" to-port="1"/>
		<edge from-layer="17" from-port="0" to-layer="20" to-port="1"/>
		<edge from-layer="18" from-port="0" to-layer="20" to-port="2"/>
		<edge from-layer="19" from-port="0" to-layer="20" to-port="3"/>
		<edge from-layer="20" from-port="4" to-layer="24" to-port="0"/>
		<edge from-layer="21" from-port="0" to-layer="24" to-port="1"/>
		<edge from-layer="22" from-port="0" to-layer="24" to-port="2"/>
		<edge from-layer="23" from-port="0" to-layer="24" to-port="3"/>
		<edge from-layer="24" from-port="4" to-layer="33" to-port="2"/>
		<edge from-layer="25" from-port="0" to-layer="28" to-port="1"/>
		<edge from-layer="26" from-port="0" to-layer="28" to-port="2"/>
		<edge from-layer="27" from-port="0" to-layer="28" to-port="3"/>
		<edge from-layer="28" from-port="4" to-layer="32" to-port="0"/>
		<edge from-layer="29" from-port="0" to-layer="32" to-port="1"/>
		<edge from-layer="30" from-port="0" to-layer="32" to-port="2"/>
		<edge from-layer="31" from-port="0" to-layer="32" to-port="3"/>
		<edge from-layer="32" from-port="4" to-layer="33" to-port="3"/>
		<edge from-layer="33" from-port="4" to-layer="35" to-port="0"/>
		<edge from-layer="34" from-port="0" to-layer="35" to-port="1"/>
		<edge from-layer="35" from-port="2" to-layer="37" to-port="0"/>
		<edge from-layer="36" from-port="0" to-layer="37" to-port="1"/>
		<edge from-layer="37" from-port="2" to-layer="38" to-port="0"/>
		<edge from-layer="38" from-port="1" to-layer="40" to-port="0"/>
		<edge from-layer="39" from-port="0" to-layer="40" to-port="1"/>
		<edge from-layer="40" from-port="2" to-layer="42" to-port="0"/>
		<edge from-layer="41" from-port="0" to-layer="42" to-port="1"/>
		<edge from-layer="42" from-port="2" to-layer="43" to-port="0"/>
		<edge from-layer="43" from-port="1" to-layer="45" to-port="0"/>
		<edge from-layer="43" from-port="1" to-layer="72" to-port="0"/>
		<edge from-layer="44" from-port="0" to-layer="45" to-port="1"/>
		<edge from-layer="45" from-port="2" to-layer="47" to-port="0"/>
		<edge from-layer="46" from-port="0" to-layer="47" to-port="1"/>
		<edge from-layer="47" from-port="2" to-layer="48" to-port="0"/>
		<edge from-layer="48" from-port="1" to-layer="50" to-port="0"/>
		<edge from-layer="48" from-port="1" to-layer="59" to-port="1"/>
		<edge from-layer="49" from-port="0" to-layer="50" to-port="1"/>
		<edge from-layer="50" from-port="2" to-layer="52" to-port="0"/>
		<edge from-layer="51" from-port="0" to-layer="52" to-port="1"/>
		<edge from-layer="52" from-port="2" to-layer="53" to-port="0"/>
		<edge from-layer="53" from-port="1" to-layer="55" to-port="0"/>
		<edge from-layer="54" from-port="0" to-layer="55" to-port="1"/>
		<edge from-layer="55" from-port="2" to-layer="57" to-port="0"/>
		<edge from-layer="56" from-port="0" to-layer="57" to-port="1"/>
		<edge from-layer="57" from-port="2" to-layer="58" to-port="0"/>
		<edge from-layer="58" from-port="1" to-layer="59" to-port="0"/>
		<edge from-layer="59" from-port="2" to-layer="61" to-port="0"/>
		<edge from-layer="59" from-port="2" to-layer="70" to-port="1"/>
		<edge from-layer="60" from-port="0" to-layer="61" to-port="1"/>
		<edge from-layer="61" from-port="2" to-layer="63" to-port="0"/>
		<edge from-layer="62" from-port="0" to-layer="63" to-port="1"/>
		<edge from-layer="63" from-port="2" to-layer="64" to-port="0"/>
		<edge from-layer="64" from-port="1" to-layer="66" to-port="0"/>
		<edge from-layer="65" from-port="0" to-layer="66" to-port="1"/>
		<edge from-layer="66" from-port="2" to-layer="68" to-port="0"/>
		<edge from-layer="67" from-port="0" to-layer="68" to-port="1"/>
		<edge from-layer="68" from-port="2" to-layer="69" to-port="0"/>
		<edge from-layer="69" from-port="1" to-layer="70" to-port="0"/>
		<edge from-layer="70" from-port="2" to-layer="76" to-port="0"/>
		<edge from-layer="71" from-port="0" to-layer="72" to-port="1"/>
		<edge from-layer="72" from-port="2" to-layer="74" to-port="0"/>
		<edge from-layer="73" from-port="0" to-layer="74" to-port="1"/>
		<edge from-layer="74" from-port="2" to-layer="75" to-port="0"/>
		<edge from-layer="75" from-port="1" to-layer="76" to-port="1"/>
		<edge from-layer="76" from-port="2" to-layer="78" to-port="0"/>
		<edge from-layer="77" from-port="0" to-layer="78" to-port="1"/>
		<edge from-layer="78" from-port="2" to-layer="80" to-port="0"/>
		<edge from-layer="79" from-port="0" to-layer="80" to-port="1"/>
		<edge from-layer="80" from-port="2" to-layer="81" to-port="0"/>
		<edge from-layer="81" from-port="1" to-layer="83" to-port="0"/>
		<edge from-layer="82" from-port="0" to-layer="83" to-port="1"/>
		<edge from-layer="83" from-port="2" to-layer="85" to-port="0"/>
		<edge from-layer="84" from-port="0" to-layer="85" to-port="1"/>
		<edge from-layer="85" from-port="2" to-layer="86" to-port="0"/>
		<edge from-layer="86" from-port="1" to-layer="88" to-port="0"/>
		<edge from-layer="86" from-port="1" to-layer="159" to-port="0"/>
		<edge from-layer="87" from-port="0" to-layer="88" to-port="1"/>
		<edge from-layer="88" from-port="2" to-layer="90" to-port="0"/>
		<edge from-layer="89" from-port="0" to-layer="90" to-port="1"/>
		<edge from-layer="90" from-port="2" to-layer="91" to-port="0"/>
		<edge from-layer="91" from-port="1" to-layer="93" to-port="0"/>
		<edge from-layer="91" from-port="1" to-layer="102" to-port="1"/>
		<edge from-layer="92" from-port="0" to-layer="93" to-port="1"/>
		<edge from-layer="93" from-port="2" to-layer="95" to-port="0"/>
		<edge from-layer="94" from-port="0" to-layer="95" to-port="1"/>
		<edge from-layer="95" from-port="2" to-layer="96" to-port="0"/>
		<edge from-layer="96" from-port="1" to-layer="98" to-port="0"/>
		<edge from-layer="97" from-port="0" to-layer="98" to-port="1"/>
		<edge from-layer="98" from-port="2" to-layer="100" to-port="0"/>
		<edge from-layer="99" from-port="0" to-layer="100" to-port="1"/>
		<edge from-layer="100" from-port="2" to-layer="101" to-port="0"/>
		<edge from-layer="101" from-port="1" to-layer="102" to-port="0"/>
		<edge from-layer="102" from-port="2" to-layer="104" to-port="0"/>
		<edge from-layer="102" from-port="2" to-layer="113" to-port="1"/>
		<edge from-layer="103" from-port="0" to-layer="104" to-port="1"/>
		<edge from-layer="104" from-port="2" to-layer="106" to-port="0"/>
		<edge from-layer="105" from-port="0" to-layer="106" to-port="1"/>
		<edge from-layer="106" from-port="2" to-layer="107" to-port="0"/>
		<edge from-layer="107" from-port="1" to-layer="109" to-port="0"/>
		<edge from-layer="108" from-port="0" to-layer="109" to-port="1"/>
		<edge from-layer="109" from-port="2" to-layer="111" to-port="0"/>
		<edge from-layer="110" from-port="0" to-layer="111" to-port="1"/>
		<edge from-layer="111" from-port="2" to-layer="112" to-port="0"/>
		<edge from-layer="112" from-port="1" to-layer="113" to-port="0"/>
		<edge from-layer="113" from-port="2" to-layer="115" to-port="0"/>
		<edge from-layer="113" from-port="2" to-layer="124" to-port="1"/>
		<edge from-layer="114" from-port="0" to-layer="115" to-port="1"/>
		<edge from-layer="115" from-port="2" to-layer="117" to-port="0"/>
		<edge from-layer="116" from-port="0" to-layer="117" to-port="1"/>
		<edge from-layer="117" from-port="2" to-layer="118" to-port="0"/>
		<edge from-layer="118" from-port="1" to-layer="120" to-port="0"/>
		<edge from-layer="119" from-port="0" to-layer="120" to-port="1"/>
		<edge from-layer="120" from-port="2" to-layer="122" to-port="0"/>
		<edge from-layer="121" from-port="0" to-layer="122" to-port="1"/>
		<edge from-layer="122" from-port="2" to-layer="123" to-port="0"/>
		<edge from-layer="123" from-port="1" to-layer="124" to-port="0"/>
		<edge from-layer="124" from-port="2" to-layer="126" to-port="0"/>
		<edge from-layer="124" from-port="2" to-layer="135" to-port="1"/>
		<edge from-layer="125" from-port="0" to-layer="126" to-port="1"/>
		<edge from-layer="126" from-port="2" to-layer="128" to-port="0"/>
		<edge from-layer="127" from-port="0" to-layer="128" to-port="1"/>
		<edge from-layer="128" from-port="2" to-layer="129" to-port="0"/>
		<edge from-layer="129" from-port="1" to-layer="131" to-port="0"/>
		<edge from-layer="130" from-port="0" to-layer="131" to-port="1"/>
		<edge from-layer="131" from-port="2" to-layer="133" to-port="0"/>
		<edge from-layer="132" from-port="0" to-layer="133" to-port="1"/>
		<edge from-layer="133" from-port="2" to-layer="134" to-port="0"/>
		<edge from-layer="134" from-port="1" to-layer="135" to-port="0"/>
		<edge from-layer="135" from-port="2" to-layer="137" to-port="0"/>
		<edge from-layer="135" from-port="2" to-layer="146" to-port="1"/>
		<edge from-layer="136" from-port="0" to-layer="137" to-port="1"/>
		<edge from-layer="137" from-port="2" to-layer="139" to-port="0"/>
		<edge from-layer="138" from-port="0" to-layer="139" to-port="1"/>
		<edge from-layer="139" from-port="2" to-layer="140" to-port="0"/>
		<edge from-layer="140" from-port="1" to-layer="142" to-port="0"/>
		<edge from-layer="141" from-port="0" to-layer="142" to-port="1"/>
		<edge from-layer="142" from-port="2" to-layer="144" to-port="0"/>
		<edge from-layer="143" from-port="0" to-layer="144" to-port="1"/>
		<edge from-layer="144" from-port="2" to-layer="145" to-port="0"/>
		<edge from-layer="145" from-port="1" to-layer="146" to-port="0"/>
		<edge from-layer="146" from-port="2" to-layer="148" to-port="0"/>
		<edge from-layer="146" from-port="2" to-layer="157" to-port="1"/>
		<edge from-layer="147" from-port="0" to-layer="148" to-port="1"/>
		<edge from-layer="148" from-port="2" to-layer="150" to-port="0"/>
		<edge from-layer="149" from-port="0" to-layer="150" to-port="1"/>
		<edge from-layer="150" from-port="2" to-layer="151" to-port="0"/>
		<edge from-layer="151" from-port="1" to-layer="153" to-port="0"/>
		<edge from-layer="152" from-port="0" to-layer="153" to-port="1"/>
		<edge from-layer="153" from-port="2" to-layer="155" to-port="0"/>
		<edge from-layer="154" from-port="0" to-layer="155" to-port="1"/>
		<edge from-layer="155" from-port="2" to-layer="156" to-port="0"/>
		<edge from-layer="156" from-port="1" to-layer="157" to-port="0"/>
		<edge from-layer="157" from-port="2" to-layer="163" to-port="0"/>
		<edge from-layer="158" from-port="0" to-layer="159" to-port="1"/>
		<edge from-layer="159" from-port="2" to-layer="161" to-port="0"/>
		<edge from-layer="160" from-port="0" to-layer="161" to-port="1"/>
		<edge from-layer="161" from-port="2" to-layer="162" to-port="0"/>
		<edge from-layer="162" from-port="1" to-layer="163" to-port="1"/>
		<edge from-layer="163" from-port="2" to-layer="165" to-port="0"/>
		<edge from-layer="164" from-port="0" to-layer="165" to-port="1"/>
		<edge from-layer="165" from-port="2" to-layer="167" to-port="0"/>
		<edge from-layer="166" from-port="0" to-layer="167" to-port="1"/>
		<edge from-layer="167" from-port="2" to-layer="168" to-port="0"/>
		<edge from-layer="168" from-port="1" to-layer="170" to-port="0"/>
		<edge from-layer="168" from-port="1" to-layer="396" to-port="1"/>
		<edge from-layer="169" from-port="0" to-layer="170" to-port="1"/>
		<edge from-layer="170" from-port="2" to-layer="172" to-port="0"/>
		<edge from-layer="171" from-port="0" to-layer="172" to-port="1"/>
		<edge from-layer="172" from-port="2" to-layer="173" to-port="0"/>
		<edge from-layer="173" from-port="1" to-layer="175" to-port="0"/>
		<edge from-layer="173" from-port="1" to-layer="246" to-port="0"/>
		<edge from-layer="174" from-port="0" to-layer="175" to-port="1"/>
		<edge from-layer="175" from-port="2" to-layer="177" to-port="0"/>
		<edge from-layer="176" from-port="0" to-layer="177" to-port="1"/>
		<edge from-layer="177" from-port="2" to-layer="178" to-port="0"/>
		<edge from-layer="178" from-port="1" to-layer="180" to-port="0"/>
		<edge from-layer="178" from-port="1" to-layer="189" to-port="1"/>
		<edge from-layer="179" from-port="0" to-layer="180" to-port="1"/>
		<edge from-layer="180" from-port="2" to-layer="182" to-port="0"/>
		<edge from-layer="181" from-port="0" to-layer="182" to-port="1"/>
		<edge from-layer="182" from-port="2" to-layer="183" to-port="0"/>
		<edge from-layer="183" from-port="1" to-layer="185" to-port="0"/>
		<edge from-layer="184" from-port="0" to-layer="185" to-port="1"/>
		<edge from-layer="185" from-port="2" to-layer="187" to-port="0"/>
		<edge from-layer="186" from-port="0" to-layer="187" to-port="1"/>
		<edge from-layer="187" from-port="2" to-layer="188" to-port="0"/>
		<edge from-layer="188" from-port="1" to-layer="189" to-port="0"/>
		<edge from-layer="189" from-port="2" to-layer="191" to-port="0"/>
		<edge from-layer="189" from-port="2" to-layer="200" to-port="1"/>
		<edge from-layer="190" from-port="0" to-layer="191" to-port="1"/>
		<edge from-layer="191" from-port="2" to-layer="193" to-port="0"/>
		<edge from-layer="192" from-port="0" to-layer="193" to-port="1"/>
		<edge from-layer="193" from-port="2" to-layer="194" to-port="0"/>
		<edge from-layer="194" from-port="1" to-layer="196" to-port="0"/>
		<edge from-layer="195" from-port="0" to-layer="196" to-port="1"/>
		<edge from-layer="196" from-port="2" to-layer="198" to-port="0"/>
		<edge from-layer="197" from-port="0" to-layer="198" to-port="1"/>
		<edge from-layer="198" from-port="2" to-layer="199" to-port="0"/>
		<edge from-layer="199" from-port="1" to-layer="200" to-port="0"/>
		<edge from-layer="200" from-port="2" to-layer="202" to-port="0"/>
		<edge from-layer="200" from-port="2" to-layer="211" to-port="1"/>
		<edge from-layer="201" from-port="0" to-layer="202" to-port="1"/>
		<edge from-layer="202" from-port="2" to-layer="204" to-port="0"/>
		<edge from-layer="203" from-port="0" to-layer="204" to-port="1"/>
		<edge from-layer="204" from-port="2" to-layer="205" to-port="0"/>
		<edge from-layer="205" from-port="1" to-layer="207" to-port="0"/>
		<edge from-layer="206" from-port="0" to-layer="207" to-port="1"/>
		<edge from-layer="207" from-port="2" to-layer="209" to-port="0"/>
		<edge from-layer="208" from-port="0" to-layer="209" to-port="1"/>
		<edge from-layer="209" from-port="2" to-layer="210" to-port="0"/>
		<edge from-layer="210" from-port="1" to-layer="211" to-port="0"/>
		<edge from-layer="211" from-port="2" to-layer="213" to-port="0"/>
		<edge from-layer="211" from-port="2" to-layer="222" to-port="1"/>
		<edge from-layer="212" from-port="0" to-layer="213" to-port="1"/>
		<edge from-layer="213" from-port="2" to-layer="215" to-port="0"/>
		<edge from-layer="214" from-port="0" to-layer="215" to-port="1"/>
		<edge from-layer="215" from-port="2" to-layer="216" to-port="0"/>
		<edge from-layer="216" from-port="1" to-layer="218" to-port="0"/>
		<edge from-layer="217" from-port="0" to-layer="218" to-port="1"/>
		<edge from-layer="218" from-port="2" to-layer="220" to-port="0"/>
		<edge from-layer="219" from-port="0" to-layer="220" to-port="1"/>
		<edge from-layer="220" from-port="2" to-layer="221" to-port="0"/>
		<edge from-layer="221" from-port="1" to-layer="222" to-port="0"/>
		<edge from-layer="222" from-port="2" to-layer="224" to-port="0"/>
		<edge from-layer="222" from-port="2" to-layer="233" to-port="1"/>
		<edge from-layer="223" from-port="0" to-layer="224" to-port="1"/>
		<edge from-layer="224" from-port="2" to-layer="226" to-port="0"/>
		<edge from-layer="225" from-port="0" to-layer="226" to-port="1"/>
		<edge from-layer="226" from-port="2" to-layer="227" to-port="0"/>
		<edge from-layer="227" from-port="1" to-layer="229" to-port="0"/>
		<edge from-layer="228" from-port="0" to-layer="229" to-port="1"/>
		<edge from-layer="229" from-port="2" to-layer="231" to-port="0"/>
		<edge from-layer="230" from-port="0" to-layer="231" to-port="1"/>
		<edge from-layer="231" from-port="2" to-layer="232" to-port="0"/>
		<edge from-layer="232" from-port="1" to-layer="233" to-port="0"/>
		<edge from-layer="233" from-port="2" to-layer="235" to-port="0"/>
		<edge from-layer="233" from-port="2" to-layer="244" to-port="1"/>
		<edge from-layer="234" from-port="0" to-layer="235" to-port="1"/>
		<edge from-layer="235" from-port="2" to-layer="237" to-port="0"/>
		<edge from-layer="236" from-port="0" to-layer="237" to-port="1"/>
		<edge from-layer="237" from-port="2" to-layer="238" to-port="0"/>
		<edge from-layer="238" from-port="1" to-layer="240" to-port="0"/>
		<edge from-layer="239" from-port="0" to-layer="240" to-port="1"/>
		<edge from-layer="240" from-port="2" to-layer="242" to-port="0"/>
		<edge from-layer="241" from-port="0" to-layer="242" to-port="1"/>
		<edge from-layer="242" from-port="2" to-layer="243" to-port="0"/>
		<edge from-layer="243" from-port="1" to-layer="244" to-port="0"/>
		<edge from-layer="244" from-port="2" to-layer="250" to-port="0"/>
		<edge from-layer="245" from-port="0" to-layer="246" to-port="1"/>
		<edge from-layer="246" from-port="2" to-layer="248" to-port="0"/>
		<edge from-layer="247" from-port="0" to-layer="248" to-port="1"/>
		<edge from-layer="248" from-port="2" to-layer="249" to-port="0"/>
		<edge from-layer="249" from-port="1" to-layer="250" to-port="1"/>
		<edge from-layer="250" from-port="2" to-layer="252" to-port="0"/>
		<edge from-layer="251" from-port="0" to-layer="252" to-port="1"/>
		<edge from-layer="252" from-port="2" to-layer="254" to-port="0"/>
		<edge from-layer="253" from-port="0" to-layer="254" to-port="1"/>
		<edge from-layer="254" from-port="2" to-layer="255" to-port="0"/>
		<edge from-layer="255" from-port="1" to-layer="257" to-port="0"/>
		<edge from-layer="255" from-port="1" to-layer="335" to-port="1"/>
		<edge from-layer="256" from-port="0" to-layer="257" to-port="1"/>
		<edge from-layer="257" from-port="2" to-layer="259" to-port="0"/>
		<edge from-layer="258" from-port="0" to-layer="259" to-port="1"/>
		<edge from-layer="259" from-port="2" to-layer="260" to-port="0"/>
		<edge from-layer="260" from-port="1" to-layer="262" to-port="0"/>
		<edge from-layer="261" from-port="0" to-layer="262" to-port="1"/>
		<edge from-layer="262" from-port="2" to-layer="264" to-port="0"/>
		<edge from-layer="263" from-port="0" to-layer="264" to-port="1"/>
		<edge from-layer="264" from-port="2" to-layer="265" to-port="0"/>
		<edge from-layer="265" from-port="1" to-layer="268" to-port="0"/>
		<edge from-layer="265" from-port="1" to-layer="269" to-port="0"/>
		<edge from-layer="265" from-port="1" to-layer="267" to-port="0"/>
		<edge from-layer="265" from-port="1" to-layer="266" to-port="0"/>
		<edge from-layer="266" from-port="1" to-layer="269" to-port="1"/>
		<edge from-layer="267" from-port="1" to-layer="269" to-port="2"/>
		<edge from-layer="268" from-port="1" to-layer="269" to-port="3"/>
		<edge from-layer="269" from-port="4" to-layer="271" to-port="0"/>
		<edge from-layer="270" from-port="0" to-layer="271" to-port="1"/>
		<edge from-layer="271" from-port="2" to-layer="273" to-port="0"/>
		<edge from-layer="272" from-port="0" to-layer="273" to-port="1"/>
		<edge from-layer="273" from-port="2" to-layer="274" to-port="0"/>
		<edge from-layer="274" from-port="1" to-layer="276" to-port="0"/>
		<edge from-layer="274" from-port="1" to-layer="301" to-port="0"/>
		<edge from-layer="275" from-port="0" to-layer="276" to-port="1"/>
		<edge from-layer="276" from-port="2" to-layer="278" to-port="0"/>
		<edge from-layer="277" from-port="0" to-layer="278" to-port="1"/>
		<edge from-layer="278" from-port="2" to-layer="279" to-port="0"/>
		<edge from-layer="279" from-port="1" to-layer="281" to-port="0"/>
		<edge from-layer="280" from-port="0" to-layer="281" to-port="1"/>
		<edge from-layer="281" from-port="2" to-layer="283" to-port="0"/>
		<edge from-layer="282" from-port="0" to-layer="283" to-port="1"/>
		<edge from-layer="283" from-port="2" to-layer="284" to-port="0"/>
		<edge from-layer="284" from-port="1" to-layer="286" to-port="0"/>
		<edge from-layer="285" from-port="0" to-layer="286" to-port="1"/>
		<edge from-layer="286" from-port="2" to-layer="288" to-port="0"/>
		<edge from-layer="287" from-port="0" to-layer="288" to-port="1"/>
		<edge from-layer="288" from-port="2" to-layer="289" to-port="0"/>
		<edge from-layer="289" from-port="1" to-layer="291" to-port="0"/>
		<edge from-layer="290" from-port="0" to-layer="291" to-port="1"/>
		<edge from-layer="291" from-port="2" to-layer="293" to-port="0"/>
		<edge from-layer="292" from-port="0" to-layer="293" to-port="1"/>
		<edge from-layer="293" from-port="2" to-layer="294" to-port="0"/>
		<edge from-layer="294" from-port="1" to-layer="296" to-port="0"/>
		<edge from-layer="295" from-port="0" to-layer="296" to-port="1"/>
		<edge from-layer="296" from-port="2" to-layer="298" to-port="0"/>
		<edge from-layer="297" from-port="0" to-layer="298" to-port="1"/>
		<edge from-layer="298" from-port="2" to-layer="299" to-port="0"/>
		<edge from-layer="299" from-port="1" to-layer="305" to-port="0"/>
		<edge from-layer="300" from-port="0" to-layer="301" to-port="1"/>
		<edge from-layer="301" from-port="2" to-layer="303" to-port="0"/>
		<edge from-layer="302" from-port="0" to-layer="303" to-port="1"/>
		<edge from-layer="303" from-port="2" to-layer="304" to-port="0"/>
		<edge from-layer="304" from-port="1" to-layer="305" to-port="1"/>
		<edge from-layer="305" from-port="2" to-layer="307" to-port="0"/>
		<edge from-layer="306" from-port="0" to-layer="307" to-port="1"/>
		<edge from-layer="307" from-port="2" to-layer="309" to-port="0"/>
		<edge from-layer="308" from-port="0" to-layer="309" to-port="1"/>
		<edge from-layer="309" from-port="2" to-layer="310" to-port="0"/>
		<edge from-layer="310" from-port="1" to-layer="312" to-port="0"/>
		<edge from-layer="311" from-port="0" to-layer="312" to-port="1"/>
		<edge from-layer="312" from-port="2" to-layer="314" to-port="0"/>
		<edge from-layer="313" from-port="0" to-layer="314" to-port="1"/>
		<edge from-layer="314" from-port="2" to-layer="315" to-port="0"/>
		<edge from-layer="315" from-port="1" to-layer="316" to-port="0"/>
		<edge from-layer="315" from-port="1" to-layer="564" to-port="1"/>
		<edge from-layer="315" from-port="1" to-layer="334" to-port="0"/>
		<edge from-layer="315" from-port="1" to-layer="328" to-port="0"/>
		<edge from-layer="316" from-port="1" to-layer="317" to-port="0"/>
		<edge from-layer="317" from-port="1" to-layer="319" to-port="0"/>
		<edge from-layer="318" from-port="0" to-layer="319" to-port="1"/>
		<edge from-layer="319" from-port="2" to-layer="320" to-port="0"/>
		<edge from-layer="320" from-port="1" to-layer="321" to-port="0"/>
		<edge from-layer="321" from-port="1" to-layer="325" to-port="0"/>
		<edge from-layer="322" from-port="0" to-layer="325" to-port="1"/>
		<edge from-layer="323" from-port="0" to-layer="325" to-port="2"/>
		<edge from-layer="324" from-port="0" to-layer="325" to-port="3"/>
		<edge from-layer="325" from-port="4" to-layer="334" to-port="1"/>
		<edge from-layer="326" from-port="0" to-layer="334" to-port="2"/>
		<edge from-layer="327" from-port="0" to-layer="333" to-port="0"/>
		<edge from-layer="328" from-port="1" to-layer="329" to-port="0"/>
		<edge from-layer="329" from-port="1" to-layer="331" to-port="0"/>
		<edge from-layer="330" from-port="0" to-layer="331" to-port="1"/>
		<edge from-layer="331" from-port="2" to-layer="333" to-port="1"/>
		<edge from-layer="332" from-port="0" to-layer="333" to-port="2"/>
		<edge from-layer="333" from-port="3" to-layer="334" to-port="3"/>
		<edge from-layer="334" from-port="4" to-layer="335" to-port="0"/>
		<edge from-layer="335" from-port="2" to-layer="337" to-port="0"/>
		<edge from-layer="335" from-port="2" to-layer="362" to-port="0"/>
		<edge from-layer="336" from-port="0" to-layer="337" to-port="1"/>
		<edge from-layer="337" from-port="2" to-layer="339" to-port="0"/>
		<edge from-layer="338" from-port="0" to-layer="339" to-port="1"/>
		<edge from-layer="339" from-port="2" to-layer="340" to-port="0"/>
		<edge from-layer="340" from-port="1" to-layer="342" to-port="0"/>
		<edge from-layer="341" from-port="0" to-layer="342" to-port="1"/>
		<edge from-layer="342" from-port="2" to-layer="344" to-port="0"/>
		<edge from-layer="343" from-port="0" to-layer="344" to-port="1"/>
		<edge from-layer="344" from-port="2" to-layer="345" to-port="0"/>
		<edge from-layer="345" from-port="1" to-layer="347" to-port="0"/>
		<edge from-layer="346" from-port="0" to-layer="347" to-port="1"/>
		<edge from-layer="347" from-port="2" to-layer="349" to-port="0"/>
		<edge from-layer="348" from-port="0" to-layer="349" to-port="1"/>
		<edge from-layer="349" from-port="2" to-layer="350" to-port="0"/>
		<edge from-layer="350" from-port="1" to-layer="352" to-port="0"/>
		<edge from-layer="351" from-port="0" to-layer="352" to-port="1"/>
		<edge from-layer="352" from-port="2" to-layer="354" to-port="0"/>
		<edge from-layer="353" from-port="0" to-layer="354" to-port="1"/>
		<edge from-layer="354" from-port="2" to-layer="355" to-port="0"/>
		<edge from-layer="355" from-port="1" to-layer="357" to-port="0"/>
		<edge from-layer="356" from-port="0" to-layer="357" to-port="1"/>
		<edge from-layer="357" from-port="2" to-layer="359" to-port="0"/>
		<edge from-layer="358" from-port="0" to-layer="359" to-port="1"/>
		<edge from-layer="359" from-port="2" to-layer="360" to-port="0"/>
		<edge from-layer="360" from-port="1" to-layer="366" to-port="0"/>
		<edge from-layer="361" from-port="0" to-layer="362" to-port="1"/>
		<edge from-layer="362" from-port="2" to-layer="364" to-port="0"/>
		<edge from-layer="363" from-port="0" to-layer="364" to-port="1"/>
		<edge from-layer="364" from-port="2" to-layer="365" to-port="0"/>
		<edge from-layer="365" from-port="1" to-layer="366" to-port="1"/>
		<edge from-layer="366" from-port="2" to-layer="368" to-port="0"/>
		<edge from-layer="367" from-port="0" to-layer="368" to-port="1"/>
		<edge from-layer="368" from-port="2" to-layer="370" to-port="0"/>
		<edge from-layer="369" from-port="0" to-layer="370" to-port="1"/>
		<edge from-layer="370" from-port="2" to-layer="371" to-port="0"/>
		<edge from-layer="371" from-port="1" to-layer="373" to-port="0"/>
		<edge from-layer="372" from-port="0" to-layer="373" to-port="1"/>
		<edge from-layer="373" from-port="2" to-layer="375" to-port="0"/>
		<edge from-layer="374" from-port="0" to-layer="375" to-port="1"/>
		<edge from-layer="375" from-port="2" to-layer="376" to-port="0"/>
		<edge from-layer="376" from-port="1" to-layer="377" to-port="0"/>
		<edge from-layer="376" from-port="1" to-layer="389" to-port="0"/>
		<edge from-layer="376" from-port="1" to-layer="480" to-port="1"/>
		<edge from-layer="376" from-port="1" to-layer="395" to-port="0"/>
		<edge from-layer="377" from-port="1" to-layer="378" to-port="0"/>
		<edge from-layer="378" from-port="1" to-layer="380" to-port="0"/>
		<edge from-layer="379" from-port="0" to-layer="380" to-port="1"/>
		<edge from-layer="380" from-port="2" to-layer="381" to-port="0"/>
		<edge from-layer="381" from-port="1" to-layer="382" to-port="0"/>
		<edge from-layer="382" from-port="1" to-layer="386" to-port="0"/>
		<edge from-layer="383" from-port="0" to-layer="386" to-port="1"/>
		<edge from-layer="384" from-port="0" to-layer="386" to-port="2"/>
		<edge from-layer="385" from-port="0" to-layer="386" to-port="3"/>
		<edge from-layer="386" from-port="4" to-layer="395" to-port="1"/>
		<edge from-layer="387" from-port="0" to-layer="395" to-port="2"/>
		<edge from-layer="388" from-port="0" to-layer="394" to-port="0"/>
		<edge from-layer="389" from-port="1" to-layer="390" to-port="0"/>
		<edge from-layer="390" from-port="1" to-layer="392" to-port="0"/>
		<edge from-layer="391" from-port="0" to-layer="392" to-port="1"/>
		<edge from-layer="392" from-port="2" to-layer="394" to-port="1"/>
		<edge from-layer="393" from-port="0" to-layer="394" to-port="2"/>
		<edge from-layer="394" from-port="3" to-layer="395" to-port="3"/>
		<edge from-layer="395" from-port="4" to-layer="396" to-port="0"/>
		<edge from-layer="396" from-port="2" to-layer="398" to-port="0"/>
		<edge from-layer="396" from-port="2" to-layer="423" to-port="0"/>
		<edge from-layer="397" from-port="0" to-layer="398" to-port="1"/>
		<edge from-layer="398" from-port="2" to-layer="400" to-port="0"/>
		<edge from-layer="399" from-port="0" to-layer="400" to-port="1"/>
		<edge from-layer="400" from-port="2" to-layer="401" to-port="0"/>
		<edge from-layer="401" from-port="1" to-layer="403" to-port="0"/>
		<edge from-layer="402" from-port="0" to-layer="403" to-port="1"/>
		<edge from-layer="403" from-port="2" to-layer="405" to-port="0"/>
		<edge from-layer="404" from-port="0" to-layer="405" to-port="1"/>
		<edge from-layer="405" from-port="2" to-layer="406" to-port="0"/>
		<edge from-layer="406" from-port="1" to-layer="408" to-port="0"/>
		<edge from-layer="407" from-port="0" to-layer="408" to-port="1"/>
		<edge from-layer="408" from-port="2" to-layer="410" to-port="0"/>
		<edge from-layer="409" from-port="0" to-layer="410" to-port="1"/>
		<edge from-layer="410" from-port="2" to-layer="411" to-port="0"/>
		<edge from-layer="411" from-port="1" to-layer="413" to-port="0"/>
		<edge from-layer="412" from-port="0" to-layer="413" to-port="1"/>
		<edge from-layer="413" from-port="2" to-layer="415" to-port="0"/>
		<edge from-layer="414" from-port="0" to-layer="415" to-port="1"/>
		<edge from-layer="415" from-port="2" to-layer="416" to-port="0"/>
		<edge from-layer="416" from-port="1" to-layer="418" to-port="0"/>
		<edge from-layer="417" from-port="0" to-layer="418" to-port="1"/>
		<edge from-layer="418" from-port="2" to-layer="420" to-port="0"/>
		<edge from-layer="419" from-port="0" to-layer="420" to-port="1"/>
		<edge from-layer="420" from-port="2" to-layer="421" to-port="0"/>
		<edge from-layer="421" from-port="1" to-layer="427" to-port="0"/>
		<edge from-layer="422" from-port="0" to-layer="423" to-port="1"/>
		<edge from-layer="423" from-port="2" to-layer="425" to-port="0"/>
		<edge from-layer="424" from-port="0" to-layer="425" to-port="1"/>
		<edge from-layer="425" from-port="2" to-layer="426" to-port="0"/>
		<edge from-layer="426" from-port="1" to-layer="427" to-port="1"/>
		<edge from-layer="427" from-port="2" to-layer="429" to-port="0"/>
		<edge from-layer="428" from-port="0" to-layer="429" to-port="1"/>
		<edge from-layer="429" from-port="2" to-layer="431" to-port="0"/>
		<edge from-layer="430" from-port="0" to-layer="431" to-port="1"/>
		<edge from-layer="431" from-port="2" to-layer="432" to-port="0"/>
		<edge from-layer="432" from-port="1" to-layer="434" to-port="0"/>
		<edge from-layer="432" from-port="1" to-layer="476" to-port="0"/>
		<edge from-layer="433" from-port="0" to-layer="434" to-port="1"/>
		<edge from-layer="434" from-port="2" to-layer="436" to-port="0"/>
		<edge from-layer="435" from-port="0" to-layer="436" to-port="1"/>
		<edge from-layer="436" from-port="2" to-layer="437" to-port="0"/>
		<edge from-layer="437" from-port="1" to-layer="439" to-port="0"/>
		<edge from-layer="437" from-port="1" to-layer="458" to-port="0"/>
		<edge from-layer="438" from-port="0" to-layer="439" to-port="1"/>
		<edge from-layer="439" from-port="2" to-layer="441" to-port="0"/>
		<edge from-layer="440" from-port="0" to-layer="441" to-port="1"/>
		<edge from-layer="441" from-port="2" to-layer="442" to-port="0"/>
		<edge from-layer="442" from-port="1" to-layer="444" to-port="0"/>
		<edge from-layer="443" from-port="0" to-layer="444" to-port="1"/>
		<edge from-layer="444" from-port="2" to-layer="446" to-port="0"/>
		<edge from-layer="445" from-port="0" to-layer="446" to-port="1"/>
		<edge from-layer="446" from-port="2" to-layer="447" to-port="0"/>
		<edge from-layer="447" from-port="1" to-layer="449" to-port="0"/>
		<edge from-layer="447" from-port="1" to-layer="453" to-port="0"/>
		<edge from-layer="448" from-port="0" to-layer="449" to-port="1"/>
		<edge from-layer="449" from-port="2" to-layer="451" to-port="0"/>
		<edge from-layer="450" from-port="0" to-layer="451" to-port="1"/>
		<edge from-layer="451" from-port="2" to-layer="472" to-port="0"/>
		<edge from-layer="452" from-port="0" to-layer="453" to-port="1"/>
		<edge from-layer="453" from-port="2" to-layer="455" to-port="0"/>
		<edge from-layer="454" from-port="0" to-layer="455" to-port="1"/>
		<edge from-layer="455" from-port="2" to-layer="456" to-port="0"/>
		<edge from-layer="456" from-port="1" to-layer="472" to-port="1"/>
		<edge from-layer="457" from-port="0" to-layer="458" to-port="1"/>
		<edge from-layer="458" from-port="2" to-layer="460" to-port="0"/>
		<edge from-layer="459" from-port="0" to-layer="460" to-port="1"/>
		<edge from-layer="460" from-port="2" to-layer="461" to-port="0"/>
		<edge from-layer="461" from-port="1" to-layer="463" to-port="0"/>
		<edge from-layer="462" from-port="0" to-layer="463" to-port="1"/>
		<edge from-layer="463" from-port="2" to-layer="465" to-port="0"/>
		<edge from-layer="464" from-port="0" to-layer="465" to-port="1"/>
		<edge from-layer="465" from-port="2" to-layer="466" to-port="0"/>
		<edge from-layer="466" from-port="1" to-layer="468" to-port="0"/>
		<edge from-layer="467" from-port="0" to-layer="468" to-port="1"/>
		<edge from-layer="468" from-port="2" to-layer="470" to-port="0"/>
		<edge from-layer="469" from-port="0" to-layer="470" to-port="1"/>
		<edge from-layer="470" from-port="2" to-layer="471" to-port="0"/>
		<edge from-layer="471" from-port="1" to-layer="472" to-port="2"/>
		<edge from-layer="472" from-port="3" to-layer="474" to-port="0"/>
		<edge from-layer="473" from-port="0" to-layer="474" to-port="1"/>
		<edge from-layer="474" from-port="2" to-layer="643" to-port="0"/>
		<edge from-layer="475" from-port="0" to-layer="476" to-port="1"/>
		<edge from-layer="476" from-port="2" to-layer="478" to-port="0"/>
		<edge from-layer="477" from-port="0" to-layer="478" to-port="1"/>
		<edge from-layer="478" from-port="2" to-layer="479" to-port="0"/>
		<edge from-layer="479" from-port="1" to-layer="480" to-port="0"/>
		<edge from-layer="480" from-port="2" to-layer="482" to-port="0"/>
		<edge from-layer="480" from-port="2" to-layer="507" to-port="0"/>
		<edge from-layer="481" from-port="0" to-layer="482" to-port="1"/>
		<edge from-layer="482" from-port="2" to-layer="484" to-port="0"/>
		<edge from-layer="483" from-port="0" to-layer="484" to-port="1"/>
		<edge from-layer="484" from-port="2" to-layer="485" to-port="0"/>
		<edge from-layer="485" from-port="1" to-layer="487" to-port="0"/>
		<edge from-layer="486" from-port="0" to-layer="487" to-port="1"/>
		<edge from-layer="487" from-port="2" to-layer="489" to-port="0"/>
		<edge from-layer="488" from-port="0" to-layer="489" to-port="1"/>
		<edge from-layer="489" from-port="2" to-layer="490" to-port="0"/>
		<edge from-layer="490" from-port="1" to-layer="492" to-port="0"/>
		<edge from-layer="491" from-port="0" to-layer="492" to-port="1"/>
		<edge from-layer="492" from-port="2" to-layer="494" to-port="0"/>
		<edge from-layer="493" from-port="0" to-layer="494" to-port="1"/>
		<edge from-layer="494" from-port="2" to-layer="495" to-port="0"/>
		<edge from-layer="495" from-port="1" to-layer="497" to-port="0"/>
		<edge from-layer="496" from-port="0" to-layer="497" to-port="1"/>
		<edge from-layer="497" from-port="2" to-layer="499" to-port="0"/>
		<edge from-layer="498" from-port="0" to-layer="499" to-port="1"/>
		<edge from-layer="499" from-port="2" to-layer="500" to-port="0"/>
		<edge from-layer="500" from-port="1" to-layer="502" to-port="0"/>
		<edge from-layer="501" from-port="0" to-layer="502" to-port="1"/>
		<edge from-layer="502" from-port="2" to-layer="504" to-port="0"/>
		<edge from-layer="503" from-port="0" to-layer="504" to-port="1"/>
		<edge from-layer="504" from-port="2" to-layer="505" to-port="0"/>
		<edge from-layer="505" from-port="1" to-layer="511" to-port="0"/>
		<edge from-layer="506" from-port="0" to-layer="507" to-port="1"/>
		<edge from-layer="507" from-port="2" to-layer="509" to-port="0"/>
		<edge from-layer="508" from-port="0" to-layer="509" to-port="1"/>
		<edge from-layer="509" from-port="2" to-layer="510" to-port="0"/>
		<edge from-layer="510" from-port="1" to-layer="511" to-port="1"/>
		<edge from-layer="511" from-port="2" to-layer="513" to-port="0"/>
		<edge from-layer="512" from-port="0" to-layer="513" to-port="1"/>
		<edge from-layer="513" from-port="2" to-layer="515" to-port="0"/>
		<edge from-layer="514" from-port="0" to-layer="515" to-port="1"/>
		<edge from-layer="515" from-port="2" to-layer="516" to-port="0"/>
		<edge from-layer="516" from-port="1" to-layer="518" to-port="0"/>
		<edge from-layer="516" from-port="1" to-layer="560" to-port="0"/>
		<edge from-layer="517" from-port="0" to-layer="518" to-port="1"/>
		<edge from-layer="518" from-port="2" to-layer="520" to-port="0"/>
		<edge from-layer="519" from-port="0" to-layer="520" to-port="1"/>
		<edge from-layer="520" from-port="2" to-layer="521" to-port="0"/>
		<edge from-layer="521" from-port="1" to-layer="523" to-port="0"/>
		<edge from-layer="521" from-port="1" to-layer="542" to-port="0"/>
		<edge from-layer="522" from-port="0" to-layer="523" to-port="1"/>
		<edge from-layer="523" from-port="2" to-layer="525" to-port="0"/>
		<edge from-layer="524" from-port="0" to-layer="525" to-port="1"/>
		<edge from-layer="525" from-port="2" to-layer="526" to-port="0"/>
		<edge from-layer="526" from-port="1" to-layer="528" to-port="0"/>
		<edge from-layer="527" from-port="0" to-layer="528" to-port="1"/>
		<edge from-layer="528" from-port="2" to-layer="530" to-port="0"/>
		<edge from-layer="529" from-port="0" to-layer="530" to-port="1"/>
		<edge from-layer="530" from-port="2" to-layer="531" to-port="0"/>
		<edge from-layer="531" from-port="1" to-layer="537" to-port="0"/>
		<edge from-layer="531" from-port="1" to-layer="533" to-port="0"/>
		<edge from-layer="532" from-port="0" to-layer="533" to-port="1"/>
		<edge from-layer="533" from-port="2" to-layer="535" to-port="0"/>
		<edge from-layer="534" from-port="0" to-layer="535" to-port="1"/>
		<edge from-layer="535" from-port="2" to-layer="556" to-port="0"/>
		<edge from-layer="536" from-port="0" to-layer="537" to-port="1"/>
		<edge from-layer="537" from-port="2" to-layer="539" to-port="0"/>
		<edge from-layer="538" from-port="0" to-layer="539" to-port="1"/>
		<edge from-layer="539" from-port="2" to-layer="540" to-port="0"/>
		<edge from-layer="540" from-port="1" to-layer="556" to-port="1"/>
		<edge from-layer="541" from-port="0" to-layer="542" to-port="1"/>
		<edge from-layer="542" from-port="2" to-layer="544" to-port="0"/>
		<edge from-layer="543" from-port="0" to-layer="544" to-port="1"/>
		<edge from-layer="544" from-port="2" to-layer="545" to-port="0"/>
		<edge from-layer="545" from-port="1" to-layer="547" to-port="0"/>
		<edge from-layer="546" from-port="0" to-layer="547" to-port="1"/>
		<edge from-layer="547" from-port="2" to-layer="549" to-port="0"/>
		<edge from-layer="548" from-port="0" to-layer="549" to-port="1"/>
		<edge from-layer="549" from-port="2" to-layer="550" to-port="0"/>
		<edge from-layer="550" from-port="1" to-layer="552" to-port="0"/>
		<edge from-layer="551" from-port="0" to-layer="552" to-port="1"/>
		<edge from-layer="552" from-port="2" to-layer="554" to-port="0"/>
		<edge from-layer="553" from-port="0" to-layer="554" to-port="1"/>
		<edge from-layer="554" from-port="2" to-layer="555" to-port="0"/>
		<edge from-layer="555" from-port="1" to-layer="556" to-port="2"/>
		<edge from-layer="556" from-port="3" to-layer="558" to-port="0"/>
		<edge from-layer="557" from-port="0" to-layer="558" to-port="1"/>
		<edge from-layer="558" from-port="2" to-layer="643" to-port="1"/>
		<edge from-layer="559" from-port="0" to-layer="560" to-port="1"/>
		<edge from-layer="560" from-port="2" to-layer="562" to-port="0"/>
		<edge from-layer="561" from-port="0" to-layer="562" to-port="1"/>
		<edge from-layer="562" from-port="2" to-layer="563" to-port="0"/>
		<edge from-layer="563" from-port="1" to-layer="564" to-port="0"/>
		<edge from-layer="564" from-port="2" to-layer="566" to-port="0"/>
		<edge from-layer="564" from-port="2" to-layer="591" to-port="0"/>
		<edge from-layer="565" from-port="0" to-layer="566" to-port="1"/>
		<edge from-layer="566" from-port="2" to-layer="568" to-port="0"/>
		<edge from-layer="567" from-port="0" to-layer="568" to-port="1"/>
		<edge from-layer="568" from-port="2" to-layer="569" to-port="0"/>
		<edge from-layer="569" from-port="1" to-layer="571" to-port="0"/>
		<edge from-layer="570" from-port="0" to-layer="571" to-port="1"/>
		<edge from-layer="571" from-port="2" to-layer="573" to-port="0"/>
		<edge from-layer="572" from-port="0" to-layer="573" to-port="1"/>
		<edge from-layer="573" from-port="2" to-layer="574" to-port="0"/>
		<edge from-layer="574" from-port="1" to-layer="576" to-port="0"/>
		<edge from-layer="575" from-port="0" to-layer="576" to-port="1"/>
		<edge from-layer="576" from-port="2" to-layer="578" to-port="0"/>
		<edge from-layer="577" from-port="0" to-layer="578" to-port="1"/>
		<edge from-layer="578" from-port="2" to-layer="579" to-port="0"/>
		<edge from-layer="579" from-port="1" to-layer="581" to-port="0"/>
		<edge from-layer="580" from-port="0" to-layer="581" to-port="1"/>
		<edge from-layer="581" from-port="2" to-layer="583" to-port="0"/>
		<edge from-layer="582" from-port="0" to-layer="583" to-port="1"/>
		<edge from-layer="583" from-port="2" to-layer="584" to-port="0"/>
		<edge from-layer="584" from-port="1" to-layer="586" to-port="0"/>
		<edge from-layer="585" from-port="0" to-layer="586" to-port="1"/>
		<edge from-layer="586" from-port="2" to-layer="588" to-port="0"/>
		<edge from-layer="587" from-port="0" to-layer="588" to-port="1"/>
		<edge from-layer="588" from-port="2" to-layer="589" to-port="0"/>
		<edge from-layer="589" from-port="1" to-layer="595" to-port="0"/>
		<edge from-layer="590" from-port="0" to-layer="591" to-port="1"/>
		<edge from-layer="591" from-port="2" to-layer="593" to-port="0"/>
		<edge from-layer="592" from-port="0" to-layer="593" to-port="1"/>
		<edge from-layer="593" from-port="2" to-layer="594" to-port="0"/>
		<edge from-layer="594" from-port="1" to-layer="595" to-port="1"/>
		<edge from-layer="595" from-port="2" to-layer="597" to-port="0"/>
		<edge from-layer="596" from-port="0" to-layer="597" to-port="1"/>
		<edge from-layer="597" from-port="2" to-layer="599" to-port="0"/>
		<edge from-layer="598" from-port="0" to-layer="599" to-port="1"/>
		<edge from-layer="599" from-port="2" to-layer="600" to-port="0"/>
		<edge from-layer="600" from-port="1" to-layer="602" to-port="0"/>
		<edge from-layer="601" from-port="0" to-layer="602" to-port="1"/>
		<edge from-layer="602" from-port="2" to-layer="604" to-port="0"/>
		<edge from-layer="603" from-port="0" to-layer="604" to-port="1"/>
		<edge from-layer="604" from-port="2" to-layer="605" to-port="0"/>
		<edge from-layer="605" from-port="1" to-layer="607" to-port="0"/>
		<edge from-layer="605" from-port="1" to-layer="626" to-port="0"/>
		<edge from-layer="606" from-port="0" to-layer="607" to-port="1"/>
		<edge from-layer="607" from-port="2" to-layer="609" to-port="0"/>
		<edge from-layer="608" from-port="0" to-layer="609" to-port="1"/>
		<edge from-layer="609" from-port="2" to-layer="610" to-port="0"/>
		<edge from-layer="610" from-port="1" to-layer="612" to-port="0"/>
		<edge from-layer="611" from-port="0" to-layer="612" to-port="1"/>
		<edge from-layer="612" from-port="2" to-layer="614" to-port="0"/>
		<edge from-layer="613" from-port="0" to-layer="614" to-port="1"/>
		<edge from-layer="614" from-port="2" to-layer="615" to-port="0"/>
		<edge from-layer="615" from-port="1" to-layer="617" to-port="0"/>
		<edge from-layer="615" from-port="1" to-layer="621" to-port="0"/>
		<edge from-layer="616" from-port="0" to-layer="617" to-port="1"/>
		<edge from-layer="617" from-port="2" to-layer="619" to-port="0"/>
		<edge from-layer="618" from-port="0" to-layer="619" to-port="1"/>
		<edge from-layer="619" from-port="2" to-layer="640" to-port="0"/>
		<edge from-layer="620" from-port="0" to-layer="621" to-port="1"/>
		<edge from-layer="621" from-port="2" to-layer="623" to-port="0"/>
		<edge from-layer="622" from-port="0" to-layer="623" to-port="1"/>
		<edge from-layer="623" from-port="2" to-layer="624" to-port="0"/>
		<edge from-layer="624" from-port="1" to-layer="640" to-port="1"/>
		<edge from-layer="625" from-port="0" to-layer="626" to-port="1"/>
		<edge from-layer="626" from-port="2" to-layer="628" to-port="0"/>
		<edge from-layer="627" from-port="0" to-layer="628" to-port="1"/>
		<edge from-layer="628" from-port="2" to-layer="629" to-port="0"/>
		<edge from-layer="629" from-port="1" to-layer="631" to-port="0"/>
		<edge from-layer="630" from-port="0" to-layer="631" to-port="1"/>
		<edge from-layer="631" from-port="2" to-layer="633" to-port="0"/>
		<edge from-layer="632" from-port="0" to-layer="633" to-port="1"/>
		<edge from-layer="633" from-port="2" to-layer="634" to-port="0"/>
		<edge from-layer="634" from-port="1" to-layer="636" to-port="0"/>
		<edge from-layer="635" from-port="0" to-layer="636" to-port="1"/>
		<edge from-layer="636" from-port="2" to-layer="638" to-port="0"/>
		<edge from-layer="637" from-port="0" to-layer="638" to-port="1"/>
		<edge from-layer="638" from-port="2" to-layer="639" to-port="0"/>
		<edge from-layer="639" from-port="1" to-layer="640" to-port="2"/>
		<edge from-layer="640" from-port="3" to-layer="642" to-port="0"/>
		<edge from-layer="641" from-port="0" to-layer="642" to-port="1"/>
		<edge from-layer="642" from-port="2" to-layer="643" to-port="2"/>
		<edge from-layer="643" from-port="3" to-layer="645" to-port="0"/>
		<edge from-layer="644" from-port="0" to-layer="645" to-port="1"/>
		<edge from-layer="645" from-port="2" to-layer="646" to-port="0"/>
	</edges>
	<meta_data>
		<MO_version value="2021.4.0-3839-cd81789d294-releases/2021/4"/>
		<cli_parameters>
			<caffe_parser_path value="DIR"/>
			<data_type value="FP16"/>
			<disable_nhwc_to_nchw value="False"/>
			<disable_omitting_optional value="False"/>
			<disable_resnet_optimization value="False"/>
			<disable_weights_compression value="False"/>
			<enable_concat_optimization value="False"/>
			<enable_flattening_nested_params value="False"/>
			<enable_ssd_gluoncv value="False"/>
			<extensions value="DIR"/>
			<framework value="onnx"/>
			<freeze_placeholder_with_value value="{}"/>
			<generate_deprecated_IR_V7 value="False"/>
			<input_model value="DIR/yolox_10.onnx"/>
			<input_model_is_text value="False"/>
			<k value="DIR/CustomLayersMapping.xml"/>
			<keep_shape_ops value="True"/>
			<legacy_ir_generation value="False"/>
			<legacy_mxnet_model value="False"/>
			<log_level value="ERROR"/>
			<mean_scale_values value="{}"/>
			<mean_values value="()"/>
			<model_name value="yolox_10"/>
			<output_dir value="DIR"/>
			<placeholder_data_types value="{}"/>
			<progress value="False"/>
			<remove_memory value="False"/>
			<remove_output_softmax value="False"/>
			<reverse_input_channels value="False"/>
			<save_params_from_nd value="False"/>
			<scale_values value="()"/>
			<silent value="False"/>
			<static_shape value="False"/>
			<stream_output value="False"/>
			<transform value=""/>
			<unset unset_cli_parameters="batch, counts, disable_fusing, disable_gfusing, finegrain_fusing, input, input_checkpoint, input_meta_graph, input_proto, input_shape, input_symbol, mean_file, mean_file_offsets, move_to_preprocess, nd_prefix_name, output, placeholder_shapes, pretrained_model_name, saved_model_dir, saved_model_tags, scale, tensorboard_logdir, tensorflow_custom_layer_libraries, tensorflow_custom_operations_config_update, tensorflow_object_detection_api_pipeline_config, tensorflow_use_custom_operations_config, transformations_config"/>
		</cli_parameters>
	</meta_data>
</net>
